Model/000520_4616.pth (torch, 4687 bytes, 7 tensors)

lstm.weight_ih_l0 f4 [8, 5]
0.36471075 -0.3822605 -0.14631945 -0.07328012 0.009593497 0.33850962 0.41463253 -0.3164291
0.062195882 0.093159884 0.094934165 0.6068446 -0.09146154 0.2202462 -0.4892917 -0.25410065
0.5659688 0.5554916 0.3006298 0.63865346 -0.32300287 0.34227094 0.46526265 -0.6964607
-0.04898923 0.49942902 -0.06601244 0.11978436 -0.007941632 0.0016926057 0.26503688 -0.07323761
0.55315155 -0.08042779 0.03175233 -0.35994142 -0.041471515 0.75783396 0.01206553 -0.069406696
00000000: 5ebb ba3e a6b7 c3be c4d4 15be e313 96bd
00000010: 0b2e 1d3c 2251 ad3e b74a d43e ff02 a2be
00000020: 1cc1 7e3d 9cca be3d d86c c23d 2b5a 1b3f
00000030: 3050 bbbd 3888 613e 7184 fabe 7b19 82be
00000040: 55e3 103f b334 0e3f 26ec 993e cb7e 233f
00000050: a260 a5be 233e af3e e836 ee3e 404b 32bf
00000060: eea8 48bd 29b5 ff3e 8831 87bd 8151 f53d
00000070: 9e1d 02bc 6cda dd3a eab2 873e 9afd 95bd
00000080: 579b 0d3f 53b7 a4bd bb0e 023d 3e4a b8be
00000090: 09de 29bd 6801 423f 80ae 453c 1925 8ebd

lstm.weight_hh_l0 f4 [8, 2]
-0.52289665 0.31857687 -0.23212975 -0.6729673 0.60107976 -0.023347676 -0.6766853 -0.051106274
0.06032169 -0.4294065 0.31515557 0.25561905 0.664136 0.22168988 0.16592795 -0.37208122
00000000: 8edc 05bf 821c a33e 6cb3 6dbe 9647 2cbf
00000010: 5de0 193f a043 bfbc 3f3b 2dbf d054 51bd
00000020: e013 773d 2bdb dbbe 125c a13e 80e0 823e
00000030: d104 2a3f ac02 633e 04e9 293e 6e81 bebe

lstm.bias_ih_l0 f4 [8]
0.29422286 -0.09693503 0.41899127 0.6794992 0.1940687 0.85907763 -0.51354444 0.28555062
00000000: 61a4 963e df85 c6bd 0686 d63e a9f3 2d3f
00000010: f2b9 463e 83ec 5b3f a677 03bf b133 923e

lstm.bias_hh_l0 f4 [8]
-0.0931078 0.1905873 0.32827574 0.26505804 1.0001507 -0.0014401404 0.050094552 -0.0749145
00000000: 4daf bebd 5129 433e c213 a83e b0b5 873e
00000010: f004 803f 18c3 bcba f22f 4d3d c66c 99bd

fc_1.weight f4 [128, 2]
-0.6826852 0.34532768 -0.6707342 -0.26412064 0.05530726 0.45267424 0.4669369 -1.0227842
0.69905514 -0.25416058 -0.057989765 0.5928971 -0.25158796 0.10571899 0.422702 -0.41709524
-0.18775433 -0.53706217 0.27254957 0.5285308 -0.14850317 -0.024857232 0.30141813 -0.1904409
0.31480828 -0.025030557 0.337286 0.18674907 -0.6231874 0.117874205 -0.3709753 0.26226813
0.5511285 0.103497855 -0.30366755 0.22808796 -0.4627332 0.1261633 -0.7026152 -0.0018200184
0.19223583 0.5742666 -0.3776817 0.054206014 0.17754048 0.121694386 0.6593667 -0.16882843
-0.2612662 -0.16395724 0.23851682 0.66932887 -0.04936558 0.3408373 -0.2757834 0.32716048
-0.26445186 0.59868854 -0.17041802 -0.3404694 0.719416 0.5273639 -0.49933708 0.54857665
-0.5631164 -0.26939273 -0.48289108 -0.06631607 -0.4143579 0.8912256 -0.157736 0.028408647
0.2956842 0.5902162 0.27037692 0.54552037 -0.6202551 -0.6004437 0.5205589 0.1916343
0.018190324 -0.69093066 -0.07696142 0.68901604 -0.52866787 0.12284154 0.17425837 -0.7623029
-0.03159997 0.12316965 -0.12710962 -0.16065024 -0.3423361 0.05959022 0.65678316 0.041824162
0.015032582 0.52098227 0.39268777 0.8014156 -0.3602817 0.3402359 -0.28974247 0.7640431
-0.45655355 0.46584493 -0.01595694 -0.11560703 -0.4911393 -0.16660078 0.21219566 0.253466
0.5823418 -0.38753217 0.42797798 0.064213574 -0.42300725 0.6758198 -0.6702021 -0.16487233
-0.57694256 -0.038016547 0.67144084 -0.58886343 0.22287583 -0.12247157 0.58099324 -0.23285392
-0.08202976 -0.47223032 -0.12700562 -0.8174125 0.63041127 0.4590366 -0.25090912 -0.18338054
-0.13298714 -0.14929771 -0.4582535 0.57443386 0.14093292 -0.40390992 -0.24566771 0.81825954
-0.4804765 -0.7006209 -0.35846516 0.46317223 -0.23634578 0.41791743 -0.5122901 0.44927874
-0.65562826 -0.48742744 -0.5348646 0.19441496 -0.34891108 0.56584996 -0.40359458 -0.042939484
-0.4926527 -0.6569302 0.24838197 -0.3833572 0.15106905 0.42647317 -0.22507171 0.1710589
-0.17379528 -0.13496864 -0.40562075 0.9367175 -0.47430182 0.8524993 -0.15248829 -0.551154
-0.06630178 0.60897577 -0.5874661 0.15759885 0.19630015 -0.049863517 -0.6859477 0.48934639
0.9076265 0.63924843 0.07702308 -0.1986262 -0.14826067 -0.274987 -0.63827914 -0.14704072
-0.43623227 -0.038482606 -0.46735469 -0.22681054 0.087059714 0.7859983 0.42355925 -0.2624269
-0.10863906 0.45148772 -0.3771801 0.82204425 -0.3401683 0.5816489 -0.6829793 0.7569966
0.54108226 -0.32353497 0.22502366 -0.2301939 0.620113 -0.06756032 0.59185165 0.36499023
-0.059748832 -0.5425827 -0.2728169 0.36854178 -0.124160476 0.3202279 -0.3824024 0.53606325
0.2295701 -0.51215047 -0.45328066 0.47205132 -0.6378027 0.2811643 0.40910435 -0.8043533
-0.33295983 -0.51162684 -0.37744594 -0.62300557 0.031467438 0.40917832 -0.29465738 0.15707445
0.5270115 -0.31944785 0.17565052 -0.3514792 -0.5797169 0.16621763 -0.28717425 0.75729895
0.06685406 -0.5198071 -0.4344124 -0.7141855 -0.27515906 -0.31299785 0.69955343 -0.5014475
00000000: 75c4 2ebf cace b03e 3db5 2bbf d23a 87be
00000010: de89 623d ebc4 e73e 5a12 ef3e 98ea 82bf
00000020: 47f5 323f 5621 82be ad86 6dbd 1bc8 173f
00000030: 23d0 80be 3383 d83d 666c d83e 828d d5be
00000040: ac42 40be e87c 09bf 9e8b 8b3e cb4d 073f
00000050: 3711 18be 65a1 cbbc 7a53 9a3e f002 43be
00000060: 8d2e a13e e20c cdbc c0b0 ac3e 263b 3f3e
00000070: 3689 1fbf 0868 f13d 79f0 bdbe 0248 863e
00000080: c216 0d3f aff6 d33d 507a 9bbe e48f 693e
00000090: 5eeb ecbe f430 013e 97de 33bf af8d eeba
000000a0: 78d9 443e 2303 133f 7f5f c1be 2007 5e3d
000000b0: 2ccd 353e e83a f93d 42cc 283f 5ce1 2cbe
000000c0: afc4 85be 68e4 27be c13d 743e 2359 2b3f
000000d0: 9033 4abd 3a82 ae3e 7b33 8dbe 9481 a73e
000000e0: 3c66 87be a743 193f 1082 2ebe 0152 aebe
000000f0: a62b 383f 5201 073f 1ca9 ffbe 856f 0c3f
00000100: 6528 10bf d8ed 89be 803d f7be b8d0 87bd
00000110: b826 d4be 5c27 643f 8c85 21be 40b9 e83c
00000120: eb63 973e 6918 173f d86e 8a3e 39a7 0b3f
00000130: 0ac9 1ebf aeb6 19bf 5943 053f c83b 443e
00000140: e003 953c d5e0 30bf f39d 9dbd 5b63 303f
00000150: c756 07bf 5894 fb3d c970 323e 4826 43bf
00000160: f86e 01bd 5f40 fc3d 0629 02be 7f81 24be
00000170: ad46 afbe e014 743d f122 283f d04f 2b3d
00000180: 384b 763c 185f 053f 5f0e c93e 9329 4d3f
00000190: d876 b8be 6633 ae3e 2059 94be 5498 433f
000001a0: 63c1 e9be 3a83 ee3e 21b8 82bc 61c3 ecbd
000001b0: 9c76 fbbe 6599 2abe d249 593e 4cc6 813e
000001c0: 5a14 153f 9e6a c6be ee1f db3e 6882 833d
000001d0: 6894 d8be 8702 2d3f 5d92 2bbf 4bd4 28be
000001e0: 82b2 13bf 3db7 1bbd 8ce3 2b3f c1bf 16bf
000001f0: 9039 643e 60d2 fabd f9bb 143f 4271 6ebe
00000200: 38ff a7bd 2cc8 f1be c30d 02be f241 51bf
00000210: a262 213f d806 eb3e 2977 80be 1cc8 3bbe
00000220: c82d 08be 80e1 18be 34a0 eabe 190e 133f
00000230: b850 103e 48cd cebe 5190 7bbe 7579 513f
00000240: 0401 f6be e45b 33bf bf88 b7be e924 ed3e
00000250: a104 72be 46f9 d53e 7225 03bf dd07 e63e
00000260: 41d7 27bf 1790 f9be e3ec 08bf b714 473e
00000270: 79a4 b2be 8bdb 103f f3a3 cebe 50e1 2fbd
00000280: fa3c fcbe 942c 28bf d857 7e3e 6547 c4be
00000290: d8b1 1a3e b15a da3e 3379 66be 102a 2f3e
000002a0: 64f7 31be 3835 0abe 86ad cfbe b8cc 6f3f
000002b0: b0d7 f2be 653d 5a3f e425 1cbe 6e18 0dbf
000002c0: 3ac9 87bd d6e5 1b3f 2e64 16bf 9861 213e
000002d0: e802 493e b03d 4cbd 459a 2fbf 9c8b fa3e
000002e0: 365a 683f c9a5 233f 47be 9d3d ab64 4bbe
000002f0: a5d1 17be 19cb 8cbe 4366 23bf d891 16be
00000300: d659 dfbe f09f 1dbd 1d49 efbe 0641 68be
00000310: 5d4c b23d 2f37 493f c2dc d83e d25c 86be
00000320: 287e debd 6629 e73e c01d c1be 7e71 523f
00000330: 8a2a aebe f1e6 143f bbd7 2ebf 87ca 413f
00000340: 5e84 0a3f 60a6 a5be 9a6c 663e f3b7 6bbe
00000350: babf 1e3f 115d 8abd 9783 173f 00e0 ba3e
00000360: 31bb 74bd b3e6 0abf a8ae 8bbe 82b1 bc3e
00000370: d947 febd e9f4 a33e 3fca c3be 713b 093f
00000380: 6d14 6b3e 4b1c 03bf 6714 e8be b6b0 f13e
00000390: 0a47 23bf c4f4 8f3e 2076 d13e 19ea 4dbf
000003a0: b679 aabe faf9 02bf 9840 c1be 4b7d 1fbf
000003b0: 00e4 003d d27f d13e 55dd 96be 20d8 203e
000003c0: 3aea 063f ab8e a3be bbdd 333e 15f5 b3be
000003d0: 5468 14bf f434 2a3e 8108 93be 58de 413f
000003e0: c8ea 883d 1412 05bf 4d6b debe dcd4 36bf
000003f0: a6e1 8cbe 4141 a0be ef15 333f dd5e 00bf

fc_1.bias f4 [128]
-0.27434236 -0.43260932 0.54384565 0.2361336 -0.4286518 0.58829254 0.5352852 -0.5432159
-0.49523997 -0.35164356 0.06751296 -0.6826463 0.40036884 0.41564354 -0.33587766 -0.518138
0.22235163 -0.18651962 -0.5934893 0.10517719 -0.6173638 -0.14278603 -0.6615323 0.17863436
-0.5316161 -0.0024309657 -0.31619316 0.4226413 0.017946208 -0.29287946 -0.20177588 -0.6702784
0.6910356 -0.118423104 0.38530335 -0.21852517 0.29800415 0.4027812 0.28736305 -0.5227735
-0.35705975 0.08481498 -0.13032794 0.4506433 0.45747712 0.21610747 -0.699127 -0.44932416
-0.31326672 0.039764266 -0.2514331 0.2588469 0.53973365 0.48824 0.14731371 0.6248031
0.11700293 -0.5419978 -0.64458966 0.2402178 0.36815542 0.5655349 -0.34558165 -0.3409235
-0.042921484 0.59120053 0.50696856 0.6721881 -0.018776238 0.040010765 -0.04720074 0.35312286
-0.636941 -0.25621897 0.39014465 0.11287939 0.40351313 -0.10711767 -0.6363805 -0.3964277
-0.36287552 -0.48635685 0.23022994 0.21414047 -0.53216314 -0.21838766 0.4804055 -0.23371086
0.0032254937 -0.329961 -0.39172333 0.37766418 -0.15861085 0.60401 0.69149786 0.64003676
-0.015980065 0.09501423 0.52981746 -0.44602737 -0.34130552 0.03971232 -0.5145135 0.08517165
0.13930082 0.2352592 0.2594818 0.22152324 0.3214868 0.19604501 0.20185478 -0.585215
0.62207735 -0.6075682 0.53772634 0.6111884 0.13252342 -0.007967255 -0.6852662 0.25002486
0.13822913 0.48628762 -0.09854901 0.02894243 -0.44750208 0.47760475 0.6669077 -0.52138346
00000000: 9a76 8cbe f87e ddbe 7839 0b3f 02cd 713e
00000010: 4078 dbbe 579a 163f 7308 093f 3210 0bbf
00000020: 1890 fdbe a00a b4be 3c44 8a3d e8c1 2ebf
00000030: 25fd cc3e 3bcf d43e 28f8 abbe b1a4 04bf
00000040: 25b0 633e 00ff 3ebe eaee 17bf 2367 d73d
00000050: 8e0b 1ebf 8036 12be 2e5a 29bf edeb 363e
00000060: fe17 08bf d650 1fbb 12e4 a1be 7164 d83e
00000070: ed03 933c 4cf4 95be 569e 4ebe 5d97 2bbf
00000080: b6e7 303f d087 f2bd 7b46 c53e 10c5 5fbe
00000090: 0094 983e 5639 ce3e 4021 933e 7cd4 05bf
000000a0: 89d0 b6be 7ab3 ad3d b074 05be b8ba e63e
000000b0: 713a ea3e 474b 5d3e fdf9 32bf d10d e6be
000000c0: 7f64 a0be dbdf 223d d7bb 80be 9587 843e
000000d0: fc2b 0a3f 98fa f93e 68d9 163e 19f3 1f3f
000000e0: 3b9f ef3d 5ec0 0abf d403 25bf a8fb 753e
000000f0: de7e bc3e e5c6 103f 14f0 b0be 868d aebe
00000100: 70ce 2fbd eb58 173f b1c8 013f 8514 2c3f
00000110: a0d0 99bc 54e2 233d 9055 41bd 85cc b43e
00000120: 910e 23bf 222f 83be 0ac1 c73e 4f2d e73d
00000130: 4699 ce3e 8260 dbbd d5e9 22bf 92f8 cabe
00000140: d2ca b9be c403 f9be 66c1 6b3e a447 5b3e
00000150: d83b 08bf 04a1 5fbe b6f7 f53e e651 6fbe
00000160: ce62 533b a6f0 a8be f68f c8be 335d c13e
00000170: e26a 22be 66a0 1a3f 0106 313f 73d9 233f
00000180: a0e8 82bc d296 c23d 1ea2 073f b35d e4be
00000190: 99bf aebe 63a9 223d 28b7 03bf 796e ae3d
000001a0: e0a4 0e3e cae7 703e ccda 843e fdd6 623e
000001b0: eb99 a43e 06c0 483e 05b3 4e3e a6d0 15bf
000001c0: 7640 1f3f 9789 1bbf 6fa8 093f d876 1c3f
000001d0: 38b4 073e 1789 02bc 9b6d 2fbf 4203 803e
000001e0: f08b 0d3e b1fa f83e 10d4 c9bd ad18 ed3c
000001f0: fe1e e5be 9c88 f43e 77ba 2a3f 6379 05bf

fc.weight f4 [1, 128]
0.0068835393 -0.015082605 -0.02186236 -0.35289428 -0.06922355 0.06899817 -0.00522963 -0.050785296
0.016523682 -0.052921247 0.025479713 0.077602334 -0.05281978 0.013726402 -0.048630897 -0.039679468
0.04022311 -0.038582582 -0.041121762 0.1489558 -0.061746977 -0.0155110955 0.024934262 -0.08760156
-0.046405166 0.30623737 0.0023340806 0.02417405 0.08296389 0.059223376 -0.18233402 0.08003772
-0.06073375 -0.010340139 0.026226182 0.069131576 0.09592577 -0.035101056 -0.025094349 -0.029913493
-0.031249262 0.13913305 0.0388538 -0.07753074 0.008228157 -0.059868194 -0.063001044 -0.03686082
-0.17544633 0.049790278 0.038567044 0.10177472 0.029023651 0.08690414 0.046793472 -0.05982412
-0.10463411 0.05746772 0.07894387 0.09286901 -0.027315311 0.05946982 -0.011812665 -0.01956521
0.06446282 -0.088919945 -0.042799875 0.04394764 0.058654554 0.11596996 0.08293445 0.09699562
0.06814165 -0.045999438 0.043940827 0.0030140383 0.017387511 -0.02742351 -0.056011055 -0.042360913
-0.037161056 0.034010306 0.03609341 -0.014199153 -0.055009086 0.3439451 0.048481997 -0.0651379
0.2658402 0.0008646026 0.02515047 0.0290144 -0.49304107 0.051482365 -0.02769123 0.083899826
-0.033240672 0.021509552 0.032229763 0.06986969 -0.030159071 0.21800427 0.03338638 0.06230156
-0.05847399 0.079696864 -0.05046589 -0.009194567 0.056590628 -0.044810686 0.06540252 -0.08729821
0.029820645 0.010287322 0.06341509 -0.027074065 -0.112931065 0.051753048 0.04295995 0.05960553
-0.0666504 0.051137675 0.028958604 0.29114404 0.046806462 -0.08294458 -0.06583402 -0.02033005
00000000: 508f e13b 081d 77bc b118 b3bc 8fae b4be
00000010: 14c5 8dbd ea4e 8d3d 515d abbb 3e04 50bd
00000020: ac5c 873c f3c3 58bd d5ba d03c f9ed 9e3d
00000030: 8e59 58bd b4e4 603c 3131 47bd f086 22bd
00000040: fdc0 243d c508 1ebd 4b6f 28bd df87 183e
00000050: 66ea 7cbd 4022 7ebc f042 cc3c 7268 b3bd
00000060: 5813 3ebd 25cb 9c3e 60f7 183b a808 c63c
00000070: f9e8 a93d 3694 723d c5b5 3abe d1ea a33d
00000080: f4c3 78bd b069 29bc 4ad8 d63c db94 8d3d
00000090: bb74 c43d 20c6 0fbd aa92 cdbc 240d f5bc
000000a0: 74fe ffbc e578 0e3e 2a25 1f3d 70c8 9ebd
000000b0: 64cf 063c 5a38 75bd b106 81bd 5ffb 16bd
000000c0: 34a8 33be e4f0 4b3d 7af8 1d3d 446f d03d
000000d0: 02c3 ed3c ccfa b13d 83aa 3f3d 230a 75bd
000000e0: 694a d6bd 4663 6b3d 53ad a13d 1c32 be3d
000000f0: 5cc4 dfbc a096 733d e889 41bc 3847 a0bc
00000100: 1505 843d a91b b6bd ec4e 2fbd 7102 343d
00000110: c23f 703d a981 ed3d 89d9 a93d a4a5 c63d
00000120: d98d 8b3d e869 3cbd 4cfb 333d 2c87 453b
00000130: 4170 8e3c 45a7 e0bc d96b 65bd a382 2dbd
00000140: 3136 18bd 644e 0b3d afd6 133d 90a3 68bc
00000150: 3551 61bd 9219 b03e 0f95 463d 0567 85bd
00000160: 351c 883e 80a6 623a 5c08 ce3c 9baf ed3c
00000170: e16f fcbe 2cdf 523d b8d8 e2bc acd3 ab3d
00000180: 5f27 08bd cd34 b03c 5b03 043d d717 8f3d
00000190: 2810 f7bc 833c 5f3e 28c0 083d ec2f 7f3d
000001a0: 6c82 6fbd 1c38 a33d 52b5 4ebd cfa4 16bc
000001b0: 93cb 673d 698b 37bd c2f1 853d 67c9 b2bd
000001c0: 6d4a f43c 288c 283c c5df 813d 6eca ddbc
000001d0: 6748 e7bd 01fb 533d c6f6 2f3d ee24 743d
000001e0: 0180 88bd bd75 513d 983a ed3c d510 953e
000001f0: 22b8 3f3d d9de a9bd fdd3 86bd 348b a6bc
