Model/000500_4801.pth (torch, 4687 bytes, 7 tensors)

lstm.weight_ih_l0 f4 [8, 5]
000000 fa 75 54 be c4 64 3c 3f 6c 30 91 be 2e c3 8d 3d
       -0.2074813 0.73591256 -0.28357255 0.06921993
000010 e4 8e 00 3e b2 55 ef 3e 19 a2 48 bf fb 3c 7a 3f
       0.12554508 0.46745068 -0.7837234 0.977493
000020 11 85 de be 90 b5 93 bc 90 21 7e 3d 4e 06 d9 3e
       -0.43460897 -0.018030912 0.062043726 0.42387623
000030 48 51 43 be 88 08 f6 be e4 db 68 3e c1 38 ff be
       -0.19073975 -0.48053384 0.22740132 -0.49847987
000040 a0 69 44 bd 76 53 ea 3e d9 a0 34 bf 20 40 d2 3d
       -0.047952294 0.457668 -0.70557934 0.10266137
000050 cc e9 ca 3d ba 70 c9 bb c5 ce 39 3e ed 83 ce 3e
       0.099078745 -0.0061474713 0.18145283 0.40335026
000060 cf cc dd bd 25 67 cb bd b2 56 f2 3e e1 b0 ab 3d
       -0.1083008 -0.09931783 0.47331768 0.08383346
000070 20 40 04 bd b4 cd 72 3b 5f 15 d5 3e 59 d4 65 3e
       -0.032287717 0.0037048878 0.41617867 0.22444285
000080 46 cf a6 3e 29 0d a2 3e 54 fe b8 be 52 ab 00 be
       0.32580012 0.31650665 -0.36131537 -0.12565354
000090 bd 0e 27 3e 30 c7 24 3e 54 fe 8e 3e e2 cf f6 3b
       0.16314216 0.16091609 0.27928412 0.007532106

lstm.weight_hh_l0 f4 [8, 2]
000000 ae f4 e1 3e 2f 21 1f bf fc 64 18 be 9b fd a9 be
       0.44131988 -0.6216001 -0.14882272 -0.33201298
000010 40 bf 2a bc 92 b8 8c 3e 90 40 30 bd ad 1f 20 bf
       -0.010421574 0.27484566 -0.04303032 -0.62548333
000020 1e 26 7d be 06 0f 8d 3e 1c 52 10 bf 20 4f 2d 3e
       -0.24721572 0.27550524 -0.5637529 0.16924715
000030 d9 de e1 be 07 12 25 3f 40 27 af 3c 32 9e ed be
       -0.44115332 0.6448063 0.02138102 -0.46409756

lstm.bias_ih_l0 f4 [8]
000000 f8 c6 be bd 08 e3 c8 3d 62 05 28 bf c0 3c 94 3e
       -0.09315294 0.09808928 -0.65633214 0.289526
000010 e6 bf b7 bd 30 85 ae 3e c6 d6 aa be bd dd 02 be
       -0.089721486 0.3408599 -0.33366984 -0.12779899

lstm.bias_hh_l0 f4 [8]
000000 fc 18 a3 be 8a b4 c3 3e 29 11 e3 be 31 aa 28 3f
       -0.31855 0.38223678 -0.4434903 0.6588469
000010 8e c9 57 3e 8b 31 58 3f d5 32 9e be 51 e1 26 be
       0.21072981 0.84450597 -0.30898157 -0.16296889

fc_1.weight f4 [128, 2]
000000 c8 01 8a 3d ca b4 99 3e 10 a5 1f bf c7 86 ac 3e
       0.06738621 0.30020744 -0.6236124 0.33696577
000010 be 6a 33 3e 81 46 c5 3d cc d4 67 be 80 2f 3b be
       0.17521188 0.09632588 -0.2263977 -0.18279839
000020 c2 a4 5c 3e bf b8 16 3f 0e 2d 41 3f 3c 10 37 3f
       0.21547225 0.5887565 0.75459373 0.71509147
000030 7c c8 0e 3e 49 06 56 3f a5 ea 1a bf e1 4c a0 3d
       0.13943666 0.8360334 -0.6051429 0.078271635
000040 4e c8 c0 bd 46 f0 e9 be e2 d7 8b 3e 28 1e 49 3e
       -0.09413205 -0.45691127 0.27313143 0.1964041
000050 42 6e 8a be 8e 01 c5 3e 68 ff b5 bd 30 a6 16 bf
       -0.27037245 0.3847775 -0.088866055 -0.5884733
000060 a0 1f 89 bc d0 e2 0e bd b8 c1 f3 bd 58 56 71 3e
       -0.016738713 -0.034884274 -0.11902183 0.23568094
000070 22 26 f7 3e 98 6f da 3d e0 b6 8b 3c 1a e4 e3 3e
       0.4827128 0.10665816 0.017054975 0.44509965
000080 f7 1f a6 be 0f 97 97 be 09 1d 49 be 81 ad 6e 3d
       -0.32446262 -0.29607436 -0.19639982 0.058270935
000090 d2 7d 86 3e e8 52 0c bf 56 1a 7f bd a9 21 e0 3e
       0.26267868 -0.54814005 -0.062280975 0.4377568
0000a0 c5 4f 23 3f ce bd 51 3e 1c 9d 3a 3f 2c 4b 05 bf
       0.63793594 0.20482561 0.7289598 -0.5206783
0000b0 78 f5 90 3e 57 6a ea be d8 e2 2c bf c8 bd 10 be
       0.28312278 -0.45784256 -0.67533636 -0.14134896
0000c0 d2 14 06 bf 3b 85 d3 be 0a 0d 6b be 20 95 4e 3f
       -0.5237552 -0.41312584 -0.22954193 0.80696297
0000d0 a4 03 70 3e a8 2b a1 be c8 a3 8b be 1c d2 6e be
       0.23438889 -0.3147862 -0.27273393 -0.23322338
0000e0 b0 02 be 3e e6 17 d4 3d 26 92 db 3e 1e 0c 16 bf
       0.37111425 0.10356121 0.4288494 -0.5861224
0000f0 c6 60 f1 3e bc a2 1d 3f c9 91 22 bf a6 52 d1 3e
       0.47144145 0.6157644 -0.635037 0.40883368
000100 9d c8 0c be bc 2d 49 bf d1 f2 0a 3f ce 3d 37 be
       -0.13748403 -0.7858541 0.5427676 -0.1789467
000110 2e 0c ca 3e 76 55 f1 3e 9d 1d 5e be be 57 34 3d
       0.39462417 0.47135514 -0.21690984 0.04402899
000120 87 9a 2c bf a5 f4 2a 3f 1b 05 8e be b3 b9 b3 3e
       -0.6742329 0.6677955 -0.2773827 0.35102615
000130 25 42 92 be d9 f0 bb be 54 01 d7 3e 8c 0e 33 3f
       -0.2856609 -0.3670719 0.419932 0.6994407
000140 a6 9a 33 be d6 15 a6 3d 90 d3 3c be 8a 10 b2 3e
       -0.17539462 0.081096336 -0.1844008 0.34778243
000150 3c 20 28 bf 87 7f 72 bd 9a e0 27 be b5 fb b9 3c
       -0.65674186 -0.05920365 -0.16394272 0.022703031
000160 8c 3c 37 3f 27 48 52 3e 91 b1 1d bf 77 da a8 be
       0.7157676 0.20535336 -0.6159907 -0.32979175
000170 35 b9 5d bf 3f 7c 85 3f 5e bf 20 bf e0 3e 65 bd
       -0.8661073 1.0428542 -0.62792003 -0.055968165
000180 22 5d 0b bf 84 3a 14 bf ae a1 80 be 79 4d 38 3d
       -0.54438984 -0.5790179 -0.25123352 0.04499576
000190 dd 71 e4 be 7e 72 09 bf 5c 00 0b be c9 7b ab be
       -0.4461812 -0.53690326 -0.13574356 -0.33492878
0001a0 6a fa 1b 3f 0c 13 30 3f 88 4e fb bd 7a d4 9c 3e
       0.60928977 0.68779063 -0.12270838 0.30630857
0001b0 fb d5 21 3f f8 29 18 3f 21 95 22 3f d6 58 47 3f
       0.63217133 0.5943904 0.635088 0.7786993
0001c0 c9 b8 22 bf 18 79 86 bd bc 4f 3b 3e c0 b6 90 bd
       -0.6356321 -0.065660655 0.18292135 -0.07066107
0001d0 e2 d9 a7 be 38 15 40 be 5f b0 12 3f 96 bb c5 be
       -0.3278342 -0.18758094 0.5730037 -0.3861968
0001e0 c8 52 4d 3e fe af 96 be 0e be 6e 3e 52 73 0e 3f
       0.2005111 -0.29431146 0.23314688 0.55644715
0001f0 8b d0 97 bd 83 3c 01 3f 9b 84 22 3f ac 88 81 3e
       -0.07412823 0.5048296 0.6348359 0.25299585
000200 28 79 f1 be 72 b7 13 be f2 bd 14 bf 79 17 32 bf
       -0.47162747 -0.14425448 -0.58102334 -0.69567066
000210 bb 01 16 3f e8 3f 4a 3e 63 da 39 3f 39 ee 03 3e
       0.5859639 0.19750941 0.72598857 0.12883843
000220 e0 c4 f7 3d 81 94 1a 3f 64 f2 e1 be 74 c6 e8 3e
       0.12098098 0.6038285 -0.44130242 0.45463908
000230 16 12 9e 3e 29 ce c2 3e ca 10 af 3e fb e2 d8 be
       0.30873173 0.38047913 0.34192497 -0.42360672
000240 0b cd 36 3f ba 98 c6 bd 2f 82 3f 3d fd 36 6d bd
       0.7140662 -0.09697099 0.046755012 -0.05791377
000250 00 41 16 be cd 4b 04 bf b7 57 9d 3d 86 24 34 bf
       -0.14673233 -0.5167816 0.07682746 -0.7036823
000260 11 ad 15 3f b2 45 f0 be fc d5 23 3f 58 c3 5f bc
       0.58467203 -0.46928173 0.6399839 -0.013657413
000270 c2 3e 42 3c 04 1f b0 be 0c 89 3e 3f a4 59 20 bd
       0.011855783 -0.34398663 0.74427867 -0.039147988
000280 cb 56 ba bd 7c 34 0a 3f 19 57 0c 3f c3 7f 87 be
       -0.09098586 0.53986335 0.548204 -0.26464662
000290 81 d8 bc 3e c9 5c 99 3f 19 2e 25 bf aa fc d6 be
       0.3688393 1.1981441 -0.64523464 -0.41989642
0002a0 e0 a5 3f bf bf 3b e0 be 55 f6 be 3e b5 f9 e4 be
       -0.7486248 -0.43795583 0.3729731 -0.4472176
0002b0 ca 63 b4 be ad 99 80 be 76 1a d8 be 99 a2 0c 3f
       -0.35232383 -0.25117245 -0.42207688 0.54935604
0002c0 f9 b6 16 bf 4b 9e 0e bf 57 ab 23 bf d7 b3 09 bf
       -0.58872944 -0.55710286 -0.6393332 -0.5379004
0002d0 00 9d e8 3c 3a 34 32 bf d0 2c 56 be 88 6d a2 bd
       0.028395176 -0.6961094 -0.20915532 -0.07931048
0002e0 98 44 ad be 73 89 23 3f c1 3c bb 3e a4 93 47 3d
       -0.33841395 0.63881606 0.3656979 0.048724785
0002f0 2f b5 0c bf 96 c0 ba bd f3 f0 fa be b2 07 2a bf
       -0.54963964 -0.09118764 -0.49011955 -0.6641799
000300 46 2d a6 3e 68 a8 17 3e e1 ca c7 3e 9b 45 90 be
       0.32456416 0.14810336 0.39021972 -0.28178105
000310 b2 22 d8 3e ca c2 90 3f af 3e f2 be 66 7c 16 3f
       0.4221397 1.1309445 -0.4731345 0.58783567
000320 b4 6b 01 be 04 47 22 3e 68 36 95 3e ba 11 a4 3e
       -0.12638742 0.15847403 0.2914307 0.32044774
000330 d0 5c 7c be 10 c1 48 3d 7a e9 b9 be 18 6f ba 3d
       -0.2464478 0.049012244 -0.3631094 0.09103221
000340 53 ac 05 3f 64 eb 2e be bf 3a a7 be 6a 86 35 be
       0.5221607 -0.17081982 -0.32662007 -0.17727056
000350 18 9d 40 bf e8 4b d5 be b0 65 4d bd 8d 4c cd be
       -0.75239706 -0.41659474 -0.050145805 -0.40097466
000360 11 56 8e bd aa e5 10 bf f5 bd ba bd 30 ae 38 3e
       -0.069500096 -0.5660044 -0.09118263 0.18035197
000370 f5 6d 20 3f 7d 9b 19 bf c0 d3 ea 3d a3 40 ed be
       0.6266778 -0.6000288 0.11466169 -0.46338376
000380 9e 39 05 bf 64 b0 8c be 98 79 d6 be 0d 52 20 3f
       -0.5204104 -0.27478325 -0.41889644 0.626252
000390 60 55 a4 be d1 3c ea 3e eb 7d b2 bc 89 61 05 3d
       -0.32096386 0.45749524 -0.021788558 0.03256372
0003a0 0c a3 2e bf 7d 45 1a bf b2 1a dc be 59 47 22 3f
       -0.6821754 -0.6026228 -0.42989117 0.6339012
0003b0 f2 5e 36 3e 4f c7 9d 3e 1e 75 e7 be 26 63 d9 3e
       0.17809656 0.30816123 -0.4520654 0.42458457
0003c0 db c8 7c 3e 65 e9 bc 3e 50 ce 01 bd 9c 8c 52 3e
       0.24685995 0.36896816 -0.031690896 0.2056145
0003d0 01 58 96 bd 6e 1b b3 3e 90 e1 5f 3e cd 4a d6 be
       -0.07341004 0.34981865 0.21863389 -0.41853943
0003e0 00 2f 76 3d 42 82 eb 3e 69 81 0e bf 5a 3f a2 3e
       0.060103416 0.45997816 -0.55666214 0.31688958
0003f0 34 87 eb bd 57 a6 08 3f a5 53 45 be 0a 48 09 3e
       -0.11500397 0.53378814 -0.19270189 0.13406387

fc_1.bias f4 [128]
000000 cc f8 1d bf da 73 ea 3d 55 e1 da 3e 0b c5 28 bf
       -0.6170776 0.11447878 0.4275004 -0.65925664
000010 ac ff a2 bd 74 dc 14 3e c2 e9 e6 be bd 0c 91 3e
       -0.07958922 0.14537221 -0.45100218 0.2833003
000020 6c 44 2a 3f 42 e1 1e 3f b0 2e cd be 8e 29 f8 be
       0.66510653 0.62062466 -0.40074682 -0.48469204
000030 68 bc a7 be e0 e5 25 be 9e 3d 07 bf 2b ad d6 be
       -0.3276093 -0.16200972 -0.52828395 -0.41928992
000040 00 f0 66 ba 4e 2b 16 3f df 9f 25 3e 90 a0 4f 3e
       -0.00088095665 0.5865983 0.16174267 0.20276093
000050 b7 65 41 3e 7c 25 2d 3f 5d 0c e5 be 04 f8 15 be
       0.18886457 0.6763532 -0.44735995 -0.14645392
000060 c3 52 32 bf 97 91 a9 3e 78 d6 02 be 60 0d 9c bd
       -0.69657534 0.3311889 -0.12777126 -0.076197386
000070 a4 b2 a6 be 52 0c 04 bf e1 0f 23 3f ff 26 f3 be
       -0.32558167 -0.515813 0.63696104 -0.4749069
000080 93 d0 0c 3f 62 39 aa bd 58 89 0e bf 4c be 2a 3d
       0.5500576 -0.08311726 -0.5567832 0.041685387
000090 d0 be d6 be a1 98 e2 3e 0e dd 2e 3f e5 27 b2 bd
       -0.41942453 0.44257072 0.6830605 -0.086990155
0000a0 89 6b b0 bc f8 9b 45 be f4 9b d7 3e f4 3f f0 3e
       -0.021535652 -0.19297779 0.4211117 0.46923792
0000b0 4b 10 09 3e 47 d8 a4 be 68 b0 9a bd 18 3f d1 bd
       0.13385122 -0.32196257 -0.07553178 -0.10217112
0000c0 68 ec 9c bd 28 77 07 3f 7d f8 be be 77 f8 12 bf
       -0.076622784 0.52916193 -0.37298957 -0.5741038
0000d0 8f 83 67 bc 42 45 fb be 13 9f 27 3f 3a 34 5f 3e
       -0.014130487 -0.49076277 0.65477103 0.21797267
0000e0 91 55 02 bf 76 9c 02 bf 9c 6a 43 be aa 5a 32 bf
       -0.50911814 -0.5101999 -0.19083637 -0.6966959
0000f0 5c 8e a3 3d 65 76 ff 3e 1b be 95 3d ac 41 2e be
       0.07986137 0.49895015 0.0731165 -0.1701724
000100 0d e7 b7 3e 66 20 c0 3e db bc 02 bf 45 86 b9 3e
       0.35918465 0.37524718 -0.5106942 0.36235252
000110 e4 ad 85 bc 7c 4c e9 3e 65 c8 e0 3d a5 d3 82 3e
       -0.01631827 0.45566165 0.10975722 0.25552097
000120 52 6c 2b 3f c1 94 07 3f dc 20 f0 be f1 50 99 3e
       0.6696216 0.52961355 -0.4690007 0.29944566
000130 88 cd c9 bd 71 70 9e 3e bd fc 25 3f 8f 6e 63 3d
       -0.09853655 0.3094516 0.64838773 0.05552536
000140 39 c6 2a 3f b9 22 30 bf a0 34 5b bf d9 55 cd bb
       0.66708714 -0.6880298 -0.85627174 -0.0062663374
000150 9a dd 84 3e d1 4b d5 3e a4 04 ad 3e 0f 3d 1c be
       0.2595032 0.41659406 0.33792603 -0.15257667
000160 0c ff 24 bf e4 08 0f 3f 40 ee 5b bc 15 a9 a9 be
       -0.6445167 0.5587294 -0.013423502 -0.33136812
000170 87 c9 06 3f f8 34 0f 3f 44 85 9a 3e 2c fa 40 be
       0.52651256 0.559402 0.301798 -0.18845433
000180 e1 96 28 bf a6 fb c6 3e da 77 d1 bc 36 9d c8 3e
       -0.6585522 0.38863868 -0.025569845 0.39182442
000190 50 c1 7f be b0 c8 26 bf 01 92 dd be b7 6e 85 be
       -0.24976087 -0.65149975 -0.43275455 -0.2606103
0001a0 b1 93 29 bf 6a 73 f0 3e 8d 71 1e 3f ae 11 a8 be
       -0.66240984 0.46963054 0.61892015 -0.3282599
0001b0 c9 0d 23 3f 68 1b 42 3d c0 e0 12 bf ca b3 94 be
       0.6369291 0.047389418 -0.5737419 -0.29043418
0001c0 77 bb be 3e b1 31 14 bf 9e 39 20 3f aa 85 4d 3e
       0.372524 -0.57888323 0.62587917 0.2007052
0001d0 bf 6b 95 3e d0 fd 14 3f be ae 75 3e d4 ad 4f be
       0.29183766 0.5819979 0.2399244 -0.20281154
0001e0 6b 80 05 3f 5a 4a 32 bf 47 28 92 3e 9c 81 61 be
       0.52149075 -0.696447 0.28546354 -0.22022098
0001f0 11 11 16 bf fc b1 2e be 84 62 1b 3e 2a e0 33 3f
       -0.5861979 -0.17060083 0.151743 0.7026392

fc.weight f4 [1, 128]
000000 a2 5a 3f 3d 03 0c 54 bd c7 16 91 bd d0 59 70 bc
       0.046717294 -0.051769268 -0.070844226 -0.0146698505
000010 5e 5c 6b be be eb 7e 3d ad 07 08 3f 52 03 2e 3d
       -0.22984454 0.06223654 0.5313671 0.042483635
000020 52 ed 8a 3d 6c a8 b3 3c e6 35 78 3d ff 5e b1 3d
       0.067835465 0.021930896 0.060598277 0.08660697
000030 1f 13 a0 3d 5b a1 a7 3d 5a bd 16 3d cf 67 8b 3d
       0.07816147 0.08185073 0.036801673 0.06806909
000040 c3 64 87 bd a9 81 89 bc c9 84 ee bd b7 b8 65 bd
       -0.06611016 -0.01678546 -0.116464205 -0.05608436
000050 62 1c 4e bc 8d 4f be 3c a0 82 cf 3b c6 d1 31 3d
       -0.012580009 0.023231292 0.0063327104 0.043412946
000060 e4 37 cd 3c e7 22 b3 3c 4c ab a7 3c 43 2a ad bd
       0.025051065 0.021867229 0.020467423 -0.084553264
000070 61 39 58 bd a2 75 1c bd a6 f8 cd ba 17 7b 8e 3d
       -0.052789096 -0.03819812 -0.0015714362 0.06957071
000080 46 b3 15 bd d4 e9 f3 3d b2 f0 0c 3d 67 4f 76 3c
       -0.03654792 0.119098336 0.034409232 0.015033579
000090 65 7c 1c bd f1 de f8 bb 79 28 a4 bd e5 59 b0 bd
       -0.03820457 -0.007594936 -0.08015532 -0.08610896
0000a0 ab 3d 63 bd c6 d2 4c bd ce e6 56 bd ad ed e5 bc
       -0.055478733 -0.050005697 -0.052466206 -0.028067434
0000b0 93 ac 10 3c b4 04 9c bd 9d 93 42 3f e0 48 b3 bd
       0.008830207 -0.076180845 0.7600649 -0.08754134
0000c0 4c 16 a7 3c 88 5c 4b 3d 78 b9 cc 3c be 01 2a 3d
       0.020396374 0.04964879 0.024990782 0.041505568
0000d0 40 05 10 3e 35 40 84 bd 0e 29 2e bd 61 3d 0f 3d
       0.14064503 -0.06457559 -0.04251962 0.034970645
0000e0 13 4c 83 3d 0c 41 ec 3c e2 1d 99 bd f1 d0 7c bd
       0.064109944 0.02883961 -0.07476403 -0.0617227
0000f0 8a 91 a7 bd 31 42 c0 3d e8 58 3a bd ae c2 36 3e
       -0.08182056 0.09387625 -0.045494944 0.17847702
000100 20 c9 99 bd f2 6e b7 bd 40 a3 8f 3c 12 19 f1 3c
       -0.07509065 -0.08956708 0.017533898 0.0294309
000110 a0 a9 8c 3e 78 29 bf 3c 35 2d 3a bd e8 0c 74 3d
       0.27473164 0.023335204 -0.04545327 0.05958262
000120 0e e6 af 3d 1b 82 9b 3d 00 29 98 b9 04 38 c7 bc
       0.08588801 0.07593175 -0.00029022247 -0.024318703
000130 02 19 2f 3e f8 7c 22 3d d3 3f a8 3c 93 dd b3 3d
       0.17099383 0.03966996 0.020538246 0.08782496
000140 d5 f8 69 bd 37 69 65 bd a8 f4 fa 3e 90 ab 54 bd
       -0.05712207 -0.056008544 0.49014783 -0.051921427
000150 fe bd 9f bd cc ef aa bd f6 32 8c 3c db 0c 73 bc
       -0.0779991 -0.08346519 0.017114144 -0.014834608
000160 39 b5 ae 3d 01 23 c1 bd ce 5a 7f 3d 0c c9 03 bd
       0.08530659 -0.094305046 0.062342457 -0.032174155
000170 6d ff e2 bb 58 9a b1 3d d5 74 98 3d 76 ad 2e 3d
       -0.006927422 0.08672017 0.07444159 0.042645894
000180 e4 07 cb 3c 31 90 bc 3c 2d af 82 3e 03 eb 70 bd
       0.024784036 0.023017975 0.25524274 -0.058817875
000190 c6 36 51 3d 84 4a 82 bd 89 b1 b1 3d 61 67 2b bd
       0.051077627 -0.06361869 0.0867644 -0.041846637
0001a0 24 8f 83 3c 35 a0 a3 bd ef 4b 3e bd 91 fd 96 bd
       0.016059466 -0.079895414 -0.046459135 -0.07372583
0001b0 34 72 65 3c 7d f1 4f 3d 64 8e 89 bd d0 11 0d bc
       0.014004279 0.05076741 -0.06716612 -0.008610204
0001c0 cb 3d 75 3c 7c cb db 3c 4a 58 a0 3b af 0c c7 3c
       0.014968346 0.026830427 0.0048933374 0.02429804
0001d0 a3 3d 05 bd 32 54 af 3d 79 32 a5 3d f4 9c 90 3c
       -0.032529484 0.08560981 0.080662675 0.017652966
0001e0 2d 82 1b bd 10 8d c4 bc 6d 7c dc 3c aa ed 30 3d
       -0.037965942 -0.023993045 0.0269148 0.043195404
0001f0 3f 4e 8f 3d ec 34 bc bc 05 b3 b2 3d 24 7e 27 3d
       0.06997346 -0.022974454 0.087255515 0.04089178
