Model/001290_7475.pth (torch, 4687 bytes, 7 tensors)

lstm.weight_ih_l0 f4 [8, 5]
000000 20 06 9c 3f 48 37 ce 3e a8 ed 7f be 2d a8 f2 3d
       1.2189369 0.4027655 -0.24993002 0.11848483
000010 4b 65 87 3d 76 37 1a bf 54 a9 83 bc ed 4c 2b bd
       0.06611117 -0.60240877 -0.016071953 -0.04182141
000020 68 e0 80 be 7b e7 e4 3b bb cf 92 be 43 55 10 bf
       -0.25171208 0.0069856024 -0.2867411 -0.563801
000030 7c ca 77 be 5e a6 e8 be 6e c2 9b 3e a0 72 f1 3d
       -0.24198335 -0.45439428 0.30421776 0.11789441
000040 96 c5 20 bf b8 56 e8 bd 00 22 4a 3b 5b 86 2e 3f
       -0.6280149 -0.11344665 0.003084302 0.6817376
000050 38 47 97 bd 29 2b 39 3f 22 63 50 3e af ae 9f be
       -0.07386631 0.7233148 0.20350316 -0.3118796
000060 9a d5 4b bc 5a 69 42 bf c0 aa 24 bf f4 2a 4f bd
       -0.012441063 -0.75942004 -0.64323044 -0.050578073
000070 f2 62 ab 3d 61 2e 79 bc 5b 04 2e be 9a 78 22 be
       0.08368482 -0.0152088115 -0.16993849 -0.15866318
000080 68 09 2c 3e 59 86 35 3f 4d fc 66 3c 32 c2 3d bf
       0.16800463 0.70908123 0.014098239 -0.74124444
000090 c3 0f d4 3e 26 a2 dd 3e 2b 96 23 bf eb 3c a0 3d
       0.41418275 0.43287772 -0.63901013 0.07824119

lstm.weight_hh_l0 f4 [8, 2]
000000 d8 6d 3d 3e 30 04 4a bd 80 c7 e2 3d 86 c9 e0 3e
       0.18498933 -0.0493204 0.11073208 0.4390375
000010 4c 4f 2a be 80 36 94 bb 92 72 19 bf 71 10 80 be
       -0.16631812 -0.0045230985 -0.59940445 -0.25012544
000020 a0 80 18 bd 44 84 1e be e1 2c 19 3f 2c 02 15 3e
       -0.03723204 -0.15480143 0.59834105 0.1455161
000030 9e 5e 99 3e e0 72 17 bf 90 62 f5 3d 88 3e a6 3d
       0.29955 -0.5915966 0.1198169 0.08117396

lstm.bias_ih_l0 f4 [8]
000000 e1 86 98 bd ac 76 17 3f fb 1e d2 be 60 ad 86 3e
       -0.07447601 0.59165454 -0.4103926 0.2630415
000010 8c 3a 25 3f 2e ff ec bd e5 ca c6 bd 44 6f d0 3e
       0.6454246 -0.11572109 -0.09706668 0.4070989

lstm.bias_hh_l0 f4 [8]
000000 ab 76 b1 bd 3a cf 8a 3e 54 3b 02 bf d0 6a 8a 3e
       -0.08665212 0.27111226 -0.5087178 0.27034616
000010 8a 55 18 3e 6e 60 6d be 6a 5d 34 be dc 21 a1 be
       0.1487638 -0.23181316 -0.1761376 -0.31471145

fc_1.weight f4 [128, 2]
000000 55 51 37 3d 75 00 3d bf 2c 7f 4e 3e 23 7e 06 3f
       0.0447553 -0.7382882 0.201657 0.5253622
000010 90 74 c1 bd 69 74 99 be c2 bf fd 3e c5 05 e8 3e
       -0.09446061 -0.29971626 0.49560362 0.45316902
000020 a0 48 37 3e 1f d0 df be 34 aa 4a 3f 0f 37 a1 3e
       0.17898798 -0.4371347 0.7916596 0.3148732
000030 39 4f 37 be 9e 7a 9d be 9f ff 12 3f 18 8f 23 3f
       -0.17901315 -0.30757612 0.57421297 0.6389022
000040 b7 90 13 bf 73 ec 2e 3f 09 65 31 be 90 a4 09 bf
       -0.5764269 0.6832954 -0.17323698 -0.5376673
000050 19 96 72 be c5 ea 0c be 53 83 3d 3f 18 c7 16 bf
       -0.2369007 -0.13761432 0.7402851 -0.5889754
000060 2c 77 bd 3e a9 d5 d5 3e e2 c5 c3 3e 8a ae 14 3f
       0.37004983 0.41764572 0.3823691 0.58078825
000070 87 70 49 bf 3b 80 66 3e 8d 58 19 3f c0 0c ee be
       -0.7868733 0.22509854 0.5990074 -0.46494102
000080 9a 9a 80 3e 20 2d 26 bd b2 12 21 bf ea ba d4 3e
       0.25117952 -0.04057038 -0.6291915 0.41548854
000090 44 e8 95 be 6b 59 86 bf f7 e1 19 3f ef e5 83 3d
       -0.29278767 -1.0496038 0.6011042 0.06440341
0000a0 b4 e2 f4 3e 49 ef e3 3d 1d c8 8b be 62 3d 62 3e
       0.4782921 0.111296244 -0.27301112 0.22093728
0000b0 5f dc e9 3e d2 81 9f 3e 10 18 1e bf 33 c9 fd 3e
       0.45675942 0.31153733 -0.61755466 0.49567565
0000c0 61 ea a8 bd 3f 60 c6 bc 37 91 ea bf c0 f9 2e 3f
       -0.08247829 -0.024215816 -1.8325566 0.6834984
0000d0 85 4c 30 bf d8 ce 31 3e 15 5a 67 3f bc ed 3e 3f
       -0.6886676 0.17364061 0.9037183 0.74581504
0000e0 43 04 34 be ed 6b 26 bf 4b 82 9e bd 5b c3 eb 3e
       -0.1757975 -0.6500843 -0.07739695 0.46047482
0000f0 62 36 63 3e 42 4f 3e bc 2a 48 04 bf 73 3b 2e bf
       0.22188714 -0.011615576 -0.51672614 -0.6805946
000100 bb d1 c2 bc f6 20 5a be d0 cc 71 be d0 6b 46 3e
       -0.023781648 -0.21301636 -0.23613286 0.19377065
000110 ee 5b a2 bd c1 af c5 3e 97 2b c9 be 1c 99 67 3e
       -0.079276904 0.38610652 -0.3929107 0.22617
000120 ab f4 f1 be 9c 64 d2 be e7 da 08 3e 4d 84 01 3d
       -0.4725698 -0.41092384 0.13364755 0.031620312
000130 cd b9 34 3f cd 5a 75 3d b6 26 d5 be 8e fa a3 be
       0.7059601 0.059901047 -0.41631097 -0.32027096
000140 6e 30 26 be e3 08 e3 be 1b fb fc 3e 27 60 7b 3e
       -0.16229412 -0.44342718 0.49410328 0.24548398
000150 fc a7 62 be df 15 20 bf 41 72 36 bf b6 5d 2c 3f
       -0.22134393 -0.6253337 -0.7126809 0.6733049
000160 20 92 d2 bc 5e 37 61 be c6 9b 5d be f0 51 4e 3d
       -0.025704443 -0.21993777 -0.21641454 0.05037111
000170 d7 22 99 be fc e3 a2 be 50 02 72 3e 9a ef 1d bf
       -0.29909393 -0.31814563 0.23633695 -0.6169373
000180 0c 84 07 3f c9 05 b1 be bd e9 73 be eb 22 d5 be
       0.5293586 -0.34574726 -0.23819633 -0.41628203
000190 7a f2 ce 3e 12 88 ff 3e 9a f3 8a be 0a 7b d3 3e
       0.4041937 0.499085 -0.27138978 0.4130481
0001a0 97 bd 77 be a8 34 94 3e 55 33 fd 3e 59 22 6b 3e
       -0.24193417 0.28946424 0.49453226 0.22962321
0001b0 37 04 11 3f a0 47 04 bf e0 37 0b be be 93 e0 3e
       0.56647056 -0.5167179 -0.13595533 0.43862718
0001c0 21 cb e9 3e 33 10 37 be 8e 3f 2e bf 68 a2 75 3e
       0.45662788 -0.17877273 -0.68065727 0.23987734
0001d0 85 ea b4 3e e3 42 20 be 1d b9 31 3f 98 33 ac 3d
       0.35335174 -0.15650515 0.69423085 0.08408278
0001e0 7f f2 ce 3e d8 df 31 bf 7d e4 0b bf d1 3d 6a 3e
       0.40419385 -0.69482183 -0.5464552 0.22875144
0001f0 f8 a8 24 3f be 39 e4 be 89 46 e6 3e 23 12 0f bd
       0.64320326 -0.44575304 0.4497569 -0.034929406
000200 49 eb a5 bd 12 87 54 3e e2 69 ec 3e 61 97 09 3e
       -0.08101518 0.2075465 0.46174532 0.13436653
000210 b2 b6 8e 3e d4 f2 57 3e 3e b4 1c bf 00 8d 4b 3d
       0.2787376 0.21088725 -0.6121253 0.049695015
000220 e0 11 27 bf 1d 26 99 be 90 a0 e3 3d d9 65 5f be
       -0.6526165 -0.2991189 0.11114609 -0.21816196
000230 80 da 2a bf 8d 16 02 3f 4b 36 06 3f 3e 66 d9 3e
       -0.66739655 0.5081566 0.52426594 0.42460817
000240 ab 17 25 3d 49 22 e9 be cb c3 1a bd a6 5f 38 bf
       0.040305775 -0.4553397 -0.03778438 -0.7202095
000250 a2 d1 a5 3e 19 fc 2f bf 9f 70 f0 3e bc 20 d3 be
       0.323865 -0.68744045 0.46960923 -0.41235912
000260 fe 4a fd be 2a 7b c6 3e 7c 6d 15 3e a8 3b 64 3e
       -0.49471277 0.38765842 0.14592546 0.22288382
000270 e5 8a 0e 3f 18 c4 fa be fb e5 ec be dd 2a 7e be
       0.55680686 -0.48977733 -0.4626921 -0.24821039
000280 bc a7 e9 be e9 02 e2 bd 7a 6b 57 be 06 e7 0f bf
       -0.45635784 -0.11035711 -0.21037093 -0.5621189
000290 11 f2 15 3f 2a 07 f0 3e 89 35 dd 3e 3e f1 06 3f
       0.5857249 0.46880466 0.43204907 0.52711856
0002a0 0b 14 b0 be 75 c0 2c bf c2 e9 b6 be fc ed 0b 3e
       -0.34390292 -0.67481166 -0.35725218 0.13665003
0002b0 92 10 f4 be b0 cf 9f 3d 89 b2 1a 3f e4 58 5c be
       -0.47668892 0.07803285 0.60428673 -0.21518284
0002c0 a0 d5 bd be 38 2f bb 3d 5c 9f 4b be ad 8e d8 bd
       -0.37077045 0.09139866 -0.1988501 -0.10574088
0002d0 b2 97 04 be 06 24 23 bf 05 aa 45 3f 19 1c 4a 3f
       -0.12948492 -0.6372684 0.77212554 0.78949124
0002e0 a1 a8 15 bf e6 8c e5 3e 4a 91 12 bf 73 d7 b1 bd
       -0.5846043 0.4483406 -0.57252944 -0.08683672
0002f0 bc b0 09 3f 79 5f 30 3f 2c 53 91 3e 0d 21 20 bf
       0.537853 0.6889568 0.28383768 -0.6255043
000300 c0 93 1b be 58 5c 9a bd 7d f5 16 bf e4 b7 57 be
       -0.15193081 -0.075371444 -0.58968335 -0.21066242
000310 e2 bd b0 be ba f2 10 bf a4 df 19 bf 96 64 59 be
       -0.3451987 -0.5662037 -0.60106874 -0.21229777
000320 ed 21 a9 be 79 53 81 bd 47 7e 2e 3e dd 05 2a bf
       -0.33033696 -0.06314749 0.17040358 -0.66415197
000330 1d 8f 57 3a 17 40 65 be 69 fe 85 3f f4 7d 68 be
       0.00082229247 -0.2238773 1.0468265 -0.22704297
000340 be 70 03 3e 09 e4 f4 3e a2 7b 04 3f d5 30 60 3e
       0.12835976 0.47830227 0.5175115 0.21893628
000350 a3 d7 bd be 40 29 70 bd 06 39 9b be 23 7d 6d be
       -0.3707858 -0.05863309 -0.30316943 -0.23192267
000360 4b c9 17 3d a8 62 03 be 83 9a 2f be fd 4d 7d 3d
       0.037057202 -0.12830603 -0.17148785 0.061841954
000370 00 22 08 3c 53 d2 b0 bd f4 a9 99 ba e4 82 0b bf
       0.0083088875 -0.08633866 -0.0011723624 -0.544966
000380 48 1e b8 3d 24 71 ba 3e 9f db ea be 34 e8 09 3f
       0.08990151 0.36414444 -0.45870683 0.5386994
000390 6e 2a b4 be 2d 96 2e bf 10 70 20 3f 44 52 93 3e
       -0.3518862 -0.681979 0.62670994 0.287737
0003a0 bb 40 2c bf 65 bd be bd 98 68 75 3f c8 14 76 3e
       -0.6728627 -0.09313468 0.9586272 0.24031365
0003b0 00 92 38 bd 20 85 a7 3c c6 6b 0f 3f 6a 67 28 be
       -0.04506111 0.020449221 0.56023824 -0.164457
0003c0 07 5f d4 3e 73 9a 57 3e 37 09 b9 be 4f 05 2e 3f
       0.4147875 0.21055011 -0.36139843 0.6797685
0003d0 cd 75 91 be bc 65 84 3e e0 a8 58 3e 4b 4c 2e bf
       -0.28410187 0.25858867 0.2115817 -0.68085164
0003e0 77 db 76 3e ce 7e 3a 3e cb ff df 3e 87 03 c3 be
       0.24107157 0.18212435 0.43749842 -0.3808863
0003f0 75 8e 48 3e 01 70 1f 3f 78 b9 c7 bd 0f 1b fa be
       0.19585593 0.6228028 -0.09752172 -0.4884877

fc_1.bias f4 [128]
000000 ef ed 4c ba b2 7b 1b bf 80 44 5e bc b1 ef bc 3d
       -0.0007817437 -0.6073562 -0.013566136 0.09225405
000010 1e 02 d5 be 33 c5 ad 3e 97 7b 92 3e 89 66 ce 3e
       -0.41603178 0.33939514 0.28609917 0.40312603
000020 b6 48 3a 3e 61 e3 a7 3e fa 88 04 3f 69 d8 8a bd
       0.181918 0.32790664 0.5177151 -0.06779558
000030 43 fc 1d 3f 73 af 1a 3f 18 c9 10 3d 40 bf f3 be
       0.61713046 0.60423964 0.035348028 -0.4760685
000040 fe 2a bd be 8d ec a4 be 97 1c f5 3d 75 6d 1b 3e
       -0.36946863 -0.32211724 0.11968344 0.15178473
000050 f5 80 17 3f 69 81 8f 3e 10 4c 05 3f 9f 9d 34 3f
       0.5918115 0.2802842 0.5206919 0.7055301
000060 8f c6 05 3f e3 c3 6d be e9 7c 2b bf 26 ca 9d be
       0.522561 -0.23219256 -0.6698747 -0.3081829
000070 83 db 8d 3e 5d bc 2d 3f f8 60 20 3f 14 96 94 be
       0.27706537 0.67865545 0.6264796 -0.2902075
000080 7b 2a a5 3e 1e 7a 04 bf df 2e 15 3f 1e 28 1e bf
       0.32258973 -0.51748836 0.58274645 -0.61779964
000090 34 28 2a 3f ce b8 12 3f 5e 33 9e 3e 2c 30 4e be
       0.66467595 0.5731324 0.30898565 -0.20135564
0000a0 31 8d 92 3e 1b 94 1c 3f a3 e9 1b bf 1f 7a 8b be
       0.28623345 0.6116349 -0.60903376 -0.27241609
0000b0 80 8e fa bb 44 6a 2d be 9b a0 10 3e 97 a0 30 bf
       -0.007646382 -0.16935068 0.14123766 -0.6899504
0000c0 70 75 54 3e 76 68 f7 3e 2a 76 02 bf 11 40 8e be
       0.20747924 0.48321885 -0.50961554 -0.27783254
0000d0 2c cf 08 3d 26 83 15 3e f6 f0 cc 3e c6 6b ea be
       0.0334007 0.1460081 0.4002759 -0.4578535
0000e0 46 78 1f 3e 40 20 3f be cf 57 67 3e e3 4b 0f bf
       0.15573224 -0.18664646 0.2259209 -0.5597517
0000f0 12 fc e6 bb 62 2a b1 3e cc a5 a3 3e b9 87 16 3f
       -0.007049092 0.34602648 0.3196243 0.58800846
000100 7d ee 1d 3f 5c a0 ca 3e ca e8 83 be bd ed ba be
       0.6169203 0.3957547 -0.2576354 -0.36509505
000110 e5 6b f4 3e 36 17 f5 3e 46 93 c4 be b9 07 ce be
       0.47738567 0.4786927 -0.3839361 -0.40240267
000120 ef 0d 9c 3d 50 1b 10 3f cd 7e ab 3e 78 ba 40 3e
       0.07619845 0.56291676 0.3349518 0.18821132
000130 4c 75 e6 be 79 c4 d1 be a4 b2 20 bc 3f 2d 2b 3f
       -0.45011365 -0.4097021 -0.009808216 0.66865915
000140 26 cf ab 3e e4 b2 eb be 38 62 e6 be 8e 6e 6e be
       0.3355648 -0.4603492 -0.4499681 -0.23284361
000150 e6 1f e4 3e 80 12 2c be f2 27 03 bf 91 89 92 be
       0.44555587 -0.16803932 -0.51232827 -0.2862058
000160 fa 17 bb be 5b ac 01 3f d6 e0 18 3f b0 7c a5 be
       -0.3654173 0.5065362 0.5971807 -0.32321692
000170 eb 01 c0 be 58 2b d4 3e 04 95 e9 bc c4 01 c8 be
       -0.37501463 0.4143932 -0.028513439 -0.39063847
000180 f3 9b a2 be fe 5f c3 be 3a d0 e0 be 50 4d ff 3e
       -0.31759605 -0.38159174 -0.43908864 0.49863672
000190 37 6e 90 3e 24 74 f6 3e 21 29 3a 3e ad e5 0f bf
       0.28209087 0.48135483 0.18179752 -0.5620983
0001a0 a4 b7 b0 bd c0 9e 0b 3f d0 68 00 be ec 85 10 3f
       -0.08628777 0.5453911 -0.12539983 0.5645435
0001b0 34 7c 13 bd 50 56 c9 3e 43 98 1f 3f 6f 01 74 3e
       -0.03600712 0.39323664 0.6234171 0.23828672
0001c0 b4 dc c9 3a bd 64 8a 3e f2 d4 0e bf a0 db 56 3e
       0.0015400858 0.27029982 -0.5579368 0.20982218
0001d0 2a 19 c4 3d 4b 38 16 bf c4 e8 8e be 52 41 37 3f
       0.09575112 -0.58679646 -0.2791196 0.71584046
0001e0 69 43 ef bb 71 fc 1d bf 95 a1 74 3e 16 6a 85 be
       -0.007301737 -0.6171332 0.23889764 -0.260575
0001f0 e6 a2 ed 3e 35 39 54 be 50 65 d8 bd 44 71 f7 be
       0.46413344 -0.20724948 -0.10566199 -0.48328602

fc.weight f4 [1, 128]
000000 c8 01 02 3d a2 d7 a2 bd 18 b5 87 bd c3 99 29 3c
       0.03173998 -0.07951285 -0.06626338 0.010351601
000010 c9 8e 90 3d b1 0d c3 3c 5d 2e a7 bc 4c 61 85 3d
       0.07058484 0.02381024 -0.02040785 0.065126985
000020 11 ce 2f bd ec 00 45 3c 19 7a 52 3d fb 43 53 3e
       -0.04292113 0.012024146 0.051385973 0.20631401
000030 b4 45 7a 3c 3e f8 69 bd 55 c4 6c bd ec 00 61 bc
       0.015275408 -0.057121508 -0.057804424 -0.01373313
000040 01 da 9b 3d 49 eb a3 3d b6 df 33 bd c9 a1 95 3d
       0.0760994 0.080038615 -0.04391452 0.07306249
000050 64 07 bb bc 05 00 22 bd e6 91 d7 3d a7 53 a0 3d
       -0.022830673 -0.0395508 0.10525875 0.078284554
000060 c8 15 08 3d b2 94 13 bf 42 15 38 3d 89 e3 a3 3e
       0.033223897 -0.57648766 0.044942148 0.32009533
000070 4a 3b b4 3a 8c 46 6c bd bb e5 6a bd 52 89 42 3d
       0.001375058 -0.057684466 -0.057347994 0.04749424
000080 cb e7 b6 3d a1 eb 4d bd eb db ba 38 02 16 60 3d
       0.0893093 -0.05027354 8.910134e-05 0.05470849
000090 b4 bb 77 bc 1d ee 5e 3d 0f 83 0b 3d 46 31 43 3d
       -0.0151204355 0.0544263 0.034060534 0.047654413
0000a0 0e 6d 45 bd 4f 44 0f bd 36 48 f4 bc 63 96 3b bd
       -0.048199706 -0.034977254 -0.02981959 -0.045797717
0000b0 20 e9 71 3c 80 4a dd bc e4 30 2e 3c 26 69 3f 3d
       0.014765054 -0.027013063 0.010631774 0.046731137
0000c0 de 4a 5f 3d d4 89 80 bd 0a 04 27 3d 14 65 6a bd
       0.05451476 -0.06276289 0.040775336 -0.0572253
0000d0 db 8c c7 bc 48 b4 a9 bc 00 60 95 3d f0 f2 f0 3c
       -0.024359157 -0.020715848 0.07293701 0.029412717
0000e0 99 2f 3a bd 03 7d a2 3d 46 b0 ce 3d 70 b5 bd bb
       -0.04545555 0.07934 0.10092215 -0.0057894513
0000f0 d8 ee 48 3e 9b 1d 96 bd 11 6c c4 3d 4a bb 22 bd
       0.19622362 -0.073298655 0.095909245 -0.039729394
000100 43 fe 12 3c 08 1b 67 bd 3d 36 9a 3d 98 9d b4 bc
       0.0089717535 -0.056422263 0.075298764 -0.022047803
000110 b0 b8 1f bd 1e 03 73 bd 04 20 8a 3c 9f df 8d bd
       -0.03899449 -0.059329145 0.01686097 -0.06927418
000120 af 51 d0 3b 05 6f 8c bb d4 65 a9 bc 0e 3e eb 3d
       0.0063573937 -0.0042856955 -0.020678438 0.11486445
000130 e0 b3 55 bc b0 a8 1d bc 89 54 81 3d 11 e9 82 bc
       -0.013043374 -0.009622738 0.06314952 -0.015980275
000140 62 97 30 bd 98 67 0a 3d 6b 47 88 3d f9 88 94 3d
       -0.04311312 0.0337902 0.06654247 0.07252688
000150 a8 d6 ef 3c 82 da a3 bd a0 86 9f 3c 4c 17 a3 3d
       0.02927716 -0.080006614 0.019473374 0.07963428
000160 0b 79 9e 3d 29 9d e9 bc b1 68 ac bc d9 bc aa 3e
       0.07737931 -0.028517323 -0.021046015 0.33347204
000170 50 c2 27 bc 99 29 4d 3d 51 7b f6 bc 9e 9e 46 3d
       -0.010239199 0.0500885 -0.030088099 0.048491113
000180 80 b4 90 3b 1b b9 9f bd 57 59 83 3d bb 66 0e bd
       0.0044160485 -0.07798978 0.064135246 -0.03476594
000190 88 38 64 3d cc 59 01 bd bf 7c 09 3d 71 98 08 3f
       0.055717975 -0.031579778 0.033566233 0.5335761
0001a0 ad cd 72 be 90 8d 90 3d 94 14 e6 3c cb 9c 9d 3c
       -0.23711272 0.07058251 0.028085984 0.019239804
0001b0 0e f6 4d bd 83 9a 21 3d 07 fb 31 3d 2a 1e 6c 3d
       -0.050283484 0.039453994 0.04345229 0.057645954
0001c0 26 d2 ca bc 79 19 ba bc 87 e8 5f bd a3 08 98 3b
       -0.02475841 -0.022717224 -0.054665115 0.0046397015
0001d0 bc b9 ae bd dc b5 1d 3f 1b f8 af 3d 0e 2b 06 3d
       -0.0853152 0.6160562 0.08592244 0.032755904
0001e0 9c 3e 0e 3e d3 f5 a9 3d 3f e7 20 bc c0 0e 7d 3c
       0.13891071 0.082988404 -0.009820758 0.015445411
0001f0 65 ce 17 bd 96 9c 7b 3d 35 78 82 3d 68 be 6e bd
       -0.037062068 0.06142863 0.06370584 -0.058287054
