Model/001470_4526.pth (torch, 4687 bytes, 7 tensors)

lstm.weight_ih_l0 f4 [8, 5]
-0.21124625 -0.1445644 0.293098 0.085011765 -0.11966338 0.29929882 -0.13360925 -0.41878632
0.36321566 -0.16689794 0.604611 0.36330718 -0.3203194 -0.5422111 0.38283628 0.4870773
0.28360397 0.69590753 -0.5861448 0.20795727 -0.008391294 0.10578257 -0.14475745 -0.42899254
-0.13897896 -0.39050716 0.43477422 0.63344973 -0.67590815 -0.4707045 0.11276579 -0.40719226
-0.88466364 0.22339731 -0.14950384 0.059365045 0.2855197 -0.42022547 -0.18677008 0.54816264
00000000: f050 58be b108 14be f110 963e a61a ae3d
00000010: 1312 f5bd b23d 993e ddd0 08be 296b d6be
00000020: 67f7 b93e 4be7 2abe c9c7 1a3f 6603 ba3e
00000030: e800 a4be 59ce 0abf 1e03 c43e 3262 f93e
00000040: 8a34 913e ff26 323f 960d 16bf c0f2 543e
00000050: a37b 09bc 88a4 d83d 4c3b 14be e9a4 dbbe
00000060: 8050 0ebe 8ef0 c7be ba9a de3e c329 223f
00000070: 5108 2dbf 2e00 f1be c0f1 e63d 817b d0be
00000080: 5179 62bf 44c2 643e 8917 19be c328 733d
00000090: a32f 923e cb27 d7be a840 3fbe 6354 0c3f

lstm.weight_hh_l0 f4 [8, 2]
-0.5305555 -0.6744771 0.0997622 0.06699562 -0.6995578 0.6691238 -0.35526186 0.20226264
0.1308158 -0.13658577 0.23256743 -0.6699258 -0.45747662 0.4714802 0.46575016 -0.51364404
00000000: 7cd2 07bf 88aa 2cbf 2050 cc3d 0035 893d
00000010: 3816 33bf b34b 2b3f e2e4 b5be f01d 4f3e
00000020: 94f4 053e 24dd 0bbe 2826 6e3e 4280 2bbf
00000030: 603a eabe da65 f13e ce76 ee3e 2d7e 03bf

lstm.bias_ih_l0 f4 [8]
0.73602474 0.38471508 0.64476687 0.03129971 0.21558276 -0.014836165 0.16093545 0.58212566
00000000: 1e6c 3c3f 60f9 c43e 710f 253f 2034 003d
00000010: bac1 5c3e 6313 73bc 43cc 243e 3006 153f

lstm.bias_hh_l0 f4 [8]
0.70257807 0.6567489 0.33785397 0.16736495 0.63421893 0.15746973 0.55600214 0.09618474
00000000: 28dc 333f b220 283f 32fb ac3e b861 2b3e
00000010: 2c5c 223f bf3f 213e 2856 0e3f 81fc c43d

fc_1.weight f4 [128, 2]
0.20430404 0.4524017 0.35713702 -0.5734643 0.63930094 0.2174725 0.19345969 0.51488316
-0.5709719 0.43562567 0.5325531 0.3337162 0.66931206 -0.25898227 -0.33097103 -0.35716462
0.08471018 -0.00185287 0.69970745 -0.06288147 -0.15401113 0.03477315 -0.5624315 0.4131059
-0.13040076 -0.24431701 0.04340783 -0.09211514 0.34824336 0.54198873 -0.41026652 0.38690656
0.4177019 -0.031763792 -0.6574527 -0.29108602 -0.650121 -0.41400385 0.3205526 0.1885617
0.4649857 0.5672101 0.6003655 0.50034624 0.09710928 0.6377706 0.19333065 0.046603262
-0.8667436 -0.6091321 0.5000617 0.52464837 -0.56030566 0.4401291 -0.24250412 -0.55331403
-0.6510116 0.20493662 0.16092551 0.31555623 -0.16379789 0.34852955 -0.6606536 0.52797335
-0.5961934 0.14508303 0.3561054 -0.55480826 -0.4882679 -0.06376009 0.23869744 0.13037969
-0.23023324 -0.16533309 -0.32415518 -0.33742782 -0.7021729 -0.7008019 -0.04477024 0.13173622
0.053794384 -0.5437327 -0.06735972 -0.46801972 0.5468193 -0.044123437 -0.38006303 0.6704557
-0.6121303 0.057833627 0.30686027 0.60844225 -0.11473149 0.20006645 -0.38003594 0.4331116
-0.35805836 -0.06653547 -0.50434214 -0.027145386 -0.15216702 -0.044215385 -0.5987781 0.20019542
0.037506465 0.24604122 -0.11615139 0.14016283 -0.19400513 0.6552929 -0.7018484 0.5006611
-0.43870994 0.122925624 0.77009195 0.39458296 -0.15856469 -0.33722055 -0.7395797 0.40465936
0.2227119 0.07729071 -0.36310697 -0.12937415 0.45564893 -0.66560495 0.5054611 0.32013744
0.074422 0.50606745 -0.352244 0.40335545 0.56118137 -0.61314005 -0.67893285 0.11543548
0.17101794 0.27942747 0.17992842 -0.40093994 0.48683074 -0.024166 0.5300458 -0.6712459
0.17774688 0.15297267 0.48015782 -0.7187571 -0.07573342 0.4842735 -0.3919858 0.23780057
-0.6079855 -0.037243884 0.51583916 -0.5551452 0.03685671 -0.48375463 1.0674244 0.3063119
0.63280123 0.48739877 0.37821394 0.70331484 -0.37759557 -0.35637933 -0.73397505 -0.30455214
-0.26938808 -0.43585953 -0.47866827 -0.55046517 -0.27729952 0.4702583 0.35747987 -0.4829443
-0.49777448 0.6139088 0.013561904 -0.13671887 -0.6861637 -0.2108294 -0.6809119 -0.020375133
0.11179975 0.38840002 0.17348191 0.463081 0.6474216 0.8181694 -0.7826641 -0.08300599
0.053003825 0.39720404 -0.3158869 0.4472769 -0.4639282 0.30557787 0.6317021 -0.31700203
-0.4508713 0.23053241 0.1706776 0.5872223 0.48555502 -0.37135416 -0.7468902 -0.14229034
-0.23246095 -0.46864605 -0.15114641 -0.20241725 0.08763626 0.44882357 -0.0888534 0.016349899
0.058356527 -0.6147856 0.10431542 0.36282107 0.5668374 -0.56436056 0.66641945 -0.335863
0.5444636 -0.37694564 0.40186197 0.69570637 0.4235699 0.0032302488 0.369505 -0.37645411
-0.027309299 0.025835276 0.16825545 -0.6318509 0.2219728 0.3684859 0.19765103 -0.31295028
0.0073077492 0.04495131 0.06100159 0.35519707 -0.47749555 -0.046770036 0.59202266 -0.022483623
-0.06603242 -0.22204067 0.2181892 -0.11173718 -0.006404102 -0.059449196 -0.35156128 0.009304225
00000000: 1435 513e 32a1 e73e aada b63e 8ece 12bf
00000010: 3aa9 233f 1cb1 5e3e 4c1a 463e 62cf 033f
00000020: 372b 12bf 540a df3e 6655 083f dadc aa3e
00000030: 0958 2b3f 5399 84be 0975 a9be 48de b6be
00000040: 887c ad3d 00dc f2ba 0720 333f 00c8 80bd
00000050: 18b5 1dbe 4a6e 0e3d 83fb 0fbf 9e82 d33e
00000060: c787 05be 3d2e 7abe 69cc 313d dda6 bcbd
00000070: f44c b23e c6bf 0a3f 740e d2be 9e18 c63e
00000080: 06dd d53e c01a 02bd d24e 28bf 3a09 95be
00000090: 546e 26bf 50f8 d3be 781f a43e 5116 413e
000000a0: 9b12 ee3e ae34 113f 8eb1 193f b116 003f
000000b0: 3be1 c63d ef44 233f 78f8 453e 10e3 3e3d
000000c0: e9e2 5dbf 15f0 1bbf 0b04 003f 5b4f 063f
000000d0: 3170 0fbf 9a58 e13e 0053 78be fda5 0dbf
000000e0: b2a8 26bf e8da 513e a8c9 243e 9690 a13e
000000f0: a2ba 27be 7772 b23e 9820 29bf 4329 073f
00000100: 21a0 18bf a590 143e 7253 b63e ea07 0ebf
00000110: 40fe f9be a694 82bd 1a6d 743e 4182 053e
00000120: 43c2 6bbe 144d 29be abf7 a5be 57c3 acbe
00000130: 9ac1 33bf c167 33bf 0061 37bd dce5 063e
00000140: 8057 5c3d 1132 0bbf e5f3 89bd 48a0 efbe
00000150: 5afc 0b3f c7ba 34bd 9f97 c2be fca2 2b3f
00000160: 92b4 1cbf f4e2 6c3d ca1c 9d3e dfc2 1b3f
00000170: 58f8 eabd 38de 4c3e 1294 c2be cec0 dd3e
00000180: 6d53 b7be c043 88bd 911c 01bf 0060 debc
00000190: acd1 1bbe 311b 35bd 8649 19bf 0700 4d3e
000001a0: 61a0 193d 3bf2 7b3e c8e0 edbd d886 0f3e
000001b0: 48a9 46be 47c1 273f 56ac 33bf 532b 003f
000001c0: 979e e0be 6ec0 fb3d bf24 453f c706 ca3e
000001d0: c85e 22be 2ca8 acbe 1855 3dbf 832f cf3e
000001e0: 970e 643e 974a 9e3d 28e9 b9be a87a 04be
000001f0: d14a e93e 1665 2abf e665 013f 0ee9 a33e
00000200: 906a 983d a38d 013f 5359 b4be 9b84 ce3e
00000210: 95a9 0f3f bff6 1cbf 8bce 2dbf 7069 ec3d
00000220: 541f 2f3e 1e11 8f3e 283f 383e 0048 cdbe
00000230: e141 f93e c6f7 c5bc 15b1 073f c5d6 2bbf
00000240: 4703 363e dea4 1c3e 3fd7 f53e 7700 38bf
00000250: 201a 9bbd b2f2 f73e 5db2 c8be fe81 733e
00000260: f0a4 1bbf 0b8d 18bd 090e 043f ff1d 0ebf
00000270: 10f7 163d b0ae f7be 5da1 883f ead4 9c3e
00000280: 43ff 213f 558c f93e 42a5 c13e 710c 343f
00000290: 3554 c1be 5a77 b6be cae5 3bbf 42ee 9bbe
000002a0: 3ced 89be fb28 dfbe 0214 f5be 49eb 0cbf
000002b0: 34fa 8dbe b2c5 f03e 9a07 b73e 7a44 f7be
000002c0: 4cdc febe 2129 1d3f c032 5e3c 0800 0cbe
000002d0: 6da8 2fbf aae3 57be 3e50 2ebf c0e9 a6bc
000002e0: 44f7 e43d 5edc c63e 3ea5 313e f418 ed3e
000002f0: 6cbd 253f 8d73 513f ad5c 48bf 0bff a9bd
00000300: 8a1a 593d 545e cb3e eebb a1be 7a01 e53e
00000310: ff87 edbe b474 9c3e 3bb7 213f 174e a2be
00000320: 9ad8 e6be b010 6c3e 1cc6 2e3e 3354 163f
00000330: ab9a f83e 2222 bebe 3234 3fbf 8fb4 11be
00000340: 3e0a 6ebe 60f2 efbe 20c6 1abe 7846 4fbe
00000350: a47a b33d 34cc e53e c5f8 b5bd 39f0 853c
00000360: 4107 6f3d 9762 1dbf 53a3 d53d afc3 b93e
00000370: 411c 113f ef79 10bf 779a 2a3f 3cf6 abbe
00000380: f761 0b3f 05ff c0be dac0 cd3e d019 323f
00000390: 27de d83e 95b2 533b c22f bd3e 98be c0be
000003a0: c0b7 dfbc 80a4 d33c 284b 2c3e fbc0 21bf
000003b0: d64c 633e 2faa bc3e 0865 4a3e 053b a0be
000003c0: d875 ef3b dd1e 383d cedc 793d 64dc b53e
000003d0: 4c7a f4be f091 3fbd cc8e 173f 932f b8bc
000003e0: 013c 87bd a15e 63be fd6c 5f3e 76d6 e4bd
000003f0: 80d9 d1bb 0081 73bd d7ff b3be c070 183c

fc_1.bias f4 [128]
-0.6834369 -0.6629835 0.45851254 0.4180221 0.2107817 0.33125097 -0.45760578 -0.024071932
-0.5703076 -0.5157659 0.258039 0.43659773 0.5338112 0.6803571 0.41084442 -0.6778798
-0.33037683 -0.6305617 0.017947583 0.46694583 -0.20644763 -0.1097304 0.34309134 -0.7048941
0.32326636 -0.5082684 -0.36232305 -0.4941835 -0.48254794 -0.6045502 0.0829867 -0.3832321
0.50778556 0.29865408 0.31661448 0.56911 -0.008727699 0.44120958 -0.48424536 -0.1514504
-0.33729693 0.2978829 0.6482116 0.60921663 0.2580624 -0.6417809 -0.1430518 -0.36109725
-0.43569252 0.22810851 0.18443613 0.3339165 0.37130845 -0.7045846 -0.69081956 -0.10487813
0.17582318 0.33998913 -0.034723043 0.6684474 0.4549835 -0.021462262 -0.10054831 0.3740429
-0.43814752 -0.01919973 -0.37331024 0.69840026 -0.6275525 -0.49854302 0.33341676 -0.55278385
0.34031987 0.48176914 -0.21604457 0.14337774 0.29244563 -0.4340741 0.50954366 -0.33103305
0.2240159 0.42379975 0.2408441 0.53154296 -0.14002752 0.34771582 -0.6222187 -0.51211166
-0.6171698 -0.6003287 -0.24903098 -0.41500247 -0.00014545373 0.24452315 -0.00012450355 0.41401693
0.63325924 -0.5878217 0.18628156 0.1680494 -0.46142554 0.47827512 -3.5538942e-05 0.48253274
-0.5708112 -0.09488058 0.059355684 0.17951295 0.42523348 0.060738675 -0.3625203 -0.42289338
-0.30416125 -5.279651e-05 -9.861705e-05 -0.70586234 -0.26078758 -0.4135892 0.4603472 -0.55028987
0.11456104 0.52768517 -0.45190954 0.63648474 0.6161789 0.4707295 -0.12222612 -0.25297135
00000000: b8f5 2ebf 49b9 29bf 28c2 ea3e fe06 d63e
00000010: 28d7 573e ba99 a93e 4e4b eabe 8032 c5bc
00000020: aeff 11bf 3c09 04bf b01d 843e bd89 df3e
00000030: daa7 083f e22b 2e3f 335a d23e 8889 2dbf
00000040: 2727 a9be 7e6c 21bf cf06 933c 8613 ef3e
00000050: 0267 53be 55ba e0bd aba9 af3e f173 34bf
00000060: 2b83 a53e e11d 02bf 6882 b9be 9f05 fdbe
00000070: 8610 f7be cdc3 1abf eef4 a93d ff36 c4be
00000080: 3cfe 013f 30e9 983e 4b1b a23e 31b1 113f
00000090: 9ffe 0ebc 39e6 e13e 02ef f7be d015 1bbe
000000a0: 2fb2 acbe 1c84 983e 32f1 253f 9ff5 1b3f
000000b0: c120 843e c14b 24bf 2c7c 12be bde1 b8be
000000c0: 1713 dfbe 4795 693e d3dc 3c3e 1af7 aa3e
000000d0: 241c be3e a85f 34bf 8dd9 30bf 58ca d6bd
000000e0: fe0a 343e 0e13 ae3e c039 0ebd 5e1f 2b3f
000000f0: 99f3 e83e a0d1 afbc 46ec cdbd 8d82 bf3e
00000100: df54 e0be c148 9dbc 8522 bfbe 5cca 323f
00000110: 48a7 20bf 0841 ffbe 9ab5 aa3e 3e83 0dbf
00000120: 683e ae3e 72aa f63e ca3a 5dbe 9dd1 123e
00000130: 6fbb 953e f63e debe 7471 023f 2a7d a9be
00000140: 6d64 653e 48fc d83e d69f 763e 3313 083f
00000150: 6063 0fbe cf07 b23e ba49 1fbf c019 03bf
00000160: d7fe 1dbf 24af 19bf fa01 7fbe 347b d4be
00000170: f084 18b9 4764 7a3e 2b8d 02b9 07fa d33e
00000180: 471d 223f 7c7b 16bf 98c0 3e3e 2415 2c3e
00000190: f83f ecbe 7ae0 f43e a60f 15b8 880e f73e
000001a0: af20 12bf c050 c2bd f21e 733d 3ed2 373e
000001b0: 34b8 d93e 1ec9 783d 439c b9be 7b85 d8be
000001c0: 06bb 9bbe d271 5db8 a0d0 ceb8 65b3 34bf
000001d0: f385 85be f7c1 d3be a1b2 eb3e ccdf 0cbf
000001e0: fb9e ea3d 6016 073f b060 e7be aaf0 223f
000001f0: e6bd 1d3f 7503 f13e b051 fabd 7685 81be

fc.weight f4 [1, 128]
-0.06236999 0.06348867 -0.060379762 0.08879532 0.0515337 0.008485879 -0.0635276 0.02405446
0.07484365 0.028582357 0.101884924 0.0366652 0.083238155 -0.03552941 0.07950056 0.003275387
0.06970159 0.06027942 -0.0017432095 -0.05787562 -0.009564381 -0.0012758258 -0.009106151 -0.04204815
0.06901474 -0.046048466 0.06969354 -0.026997723 -0.06753079 -0.029288001 0.08087858 0.00979007
0.10582631 0.07681547 0.109825484 -0.059268482 -0.02204241 -0.024412815 -0.019393072 -0.028783463
-0.07913076 0.08220174 -0.0026203287 -0.044268027 0.09101268 0.017234333 -0.011055201 -0.05865072
0.049405687 0.13827321 -0.002721319 0.00076035934 0.020486753 0.07686367 -0.018511273 -0.018161625
0.11287374 -0.026623033 0.03256181 0.086089656 0.10564737 0.030426443 -0.4397334 0.01685956
-0.03622077 0.023120591 -0.024949603 0.03719221 0.07371815 -0.07487193 0.046780426 0.017209306
0.07678786 0.05296861 0.0862735 0.21486984 0.12917589 0.051987223 0.0683879 -0.34311154
0.027298197 -0.03630138 0.16957907 0.034313586 -0.06497458 0.07987144 -0.059808474 -0.015784606
0.020378098 -0.011868522 -0.031525064 -0.0212112 -0.17015126 0.07653098 -0.11137938 0.06755922
0.00029188953 -0.0662243 0.03498601 -0.042901404 0.005860612 -0.06503016 -0.15768854 0.07036586
-0.01291056 0.06718638 0.0043516387 -0.011134395 -0.004430491 0.06049705 -0.014518492 -0.040042117
-0.0852681 -0.2435351 -0.20092924 -0.0647572 -0.001511693 0.056246765 0.076688565 0.016770758
0.09122474 -0.033835556 0.087325774 -0.05301457 0.046085235 -0.0263123 0.087593995 0.06907716
00000000: ad77 7fbd 5906 823d c550 77bd 52da b53d
00000010: 0015 533d 5b08 0b3c c21a 82bd dc0d c53c
00000020: a147 993d 8c25 ea3c 0ba9 d03d 402e 163d
00000030: c478 aa3d 4987 11bd 31d1 a23d e0a7 563b
00000040: b5bf 8e3d 8ee7 763d 687c e4ba fc0e 6dbd
00000050: ecb3 1cbc 9c39 a7ba f731 15bc ae3a 2cbd
00000060: 9a57 8d3d 519d 3cbd 7dbb 8e3d 542a ddbc
00000070: 954d 8abd 64ed efbc aba3 a53d 8866 203c
00000080: 77bb d83d 6e51 9d3d 2fec e03d 82c3 72bd
00000090: 4992 b4bc 62fd c7bc 38de 9ebc 4ccb ebbc
000000a0: 4f0f a2bd 6359 a83d d2b9 2bbb 6452 35bd
000000b0: db64 ba3d 042f 8d3c e020 35bc bd3b 70bd
000000c0: 9e5d 4a3d 7e97 0d3e 2858 32bb da52 473a
000000d0: d6d3 a73c b36a 9d3d f4a4 97bc b0c7 94bc
000000e0: 592a e73d 8c18 dabc 885f 053d c64f b03d
000000f0: a65d d83d e040 f93c bc24 e1be 0f1d 8a3c
00000100: 3b5c 14bd 6567 bd3c 1c63 ccbc dc56 183d
00000110: 8bf9 963d 7456 99bd d59c 3f3d 88fa 8c3c
00000120: f442 9d3d 9df5 583d 29b0 b03d d706 5c3e
00000130: af46 043e 8ef0 543d f50e 8c3d 51ac afbe
00000140: 78a0 df3c c1b0 14bd 23a6 2d3e 678c 0c3d
00000150: 6511 85bd a393 a33d bbf9 74bd b84e 81bc
00000160: f8ef a63c 3074 42bc 6d20 01bd 1cc3 adbc
00000170: 223c 2ebe 46bc 9c3d df1a e4bd 7d5c 8a3d
00000180: c008 9939 9ba0 87bd 7e4d 0f3d 62b9 2fbd
00000190: 600a c03b 882e 85bd 1b79 21be fa1b 903d
000001a0: d086 53bc 0399 893d 3198 8e3b 0a6d 36bc
000001b0: a72d 91bb c1cb 773d f8de 6dbc 3403 24bd
000001c0: 0ba1 aebd 4461 79be 65c0 4dbe 6c9f 84bd
000001d0: 0024 c6ba 0263 663d e50e 9d3d d462 893c
000001e0: 09d4 ba3d 2797 0abd dbd7 b23d ce25 59bd
000001f0: dfc3 3c3d e48c d7bc 7b64 b33d 5378 8d3d
