Model/002250_4446.pth (torch, 4687 bytes, 7 tensors)

lstm.weight_ih_l0 f4 [8, 5]
00000000: 7844 00bf fef1 183e ff5d 7ebe 298b c43e
00000010: 04f2 c03d 49ba ea3e 0b47 a8bd 055b 613e
00000020: bbef 5dbd 6e2e 83bd 6620 b23e 72f7 84be
00000030: 634e 113f c0ab ec3d 8e64 f13e d3e0 81be
00000040: cea0 ff3e 98e0 0dbf 9da4 303f 00d4 62ba
00000050: 6f01 5ebc 5f1a 2a3e 7df2 053f acc2 c1bd
00000060: 97f9 c53a 2307 773e fd79 94be db0f 553f
00000070: d865 89bc 4cb0 aabb 7219 a83e 5da1 a5be
00000080: 52dc 7c3f 85d3 87be 0b84 b8bd 0274 a8be
00000090: eadb 793d d925 e33e b640 3b3c b715 113d
-0.50104475 0.14936063 -0.24840544 0.3838742 0.09421161 0.4584525 -0.08216675 0.22007377
-0.054183703 -0.0640534 0.34790343 -0.25970036 0.56760234 0.11556196 0.4714703 -0.2536684
0.49927372 -0.5542083 0.6900118 -0.0008652806 -0.0135501465 0.16611622 0.5232313 -0.09460959
0.0015104291 0.24123816 -0.2899932 0.8322732 -0.016772196 -0.0052090045 0.32831913 -0.32349673
0.9877368 -0.26528564 -0.0900956 -0.32901007 0.061000742 0.44364813 0.0114290025 0.0354211

lstm.weight_hh_l0 f4 [8, 2]
00000000: 80e8 33bd 009c 50bb 6040 aebd daa0 f23e
00000010: 44bb 0d3e 1c03 933e fd4f 0a3f 40a7 d63d
00000020: a752 19bf 80b3 0abf 8dd2 9abe 1270 21bf
00000030: 246a 5e3e ed25 083f 87f2 f6be 6ab0 b33e
-0.0439229 -0.0031831264 -0.08508372 0.47388345 0.13840967 0.2871331 0.540283 0.10481119
-0.5989174 -0.54180145 -0.30238762 -0.6306163 0.21720177 0.5318287 -0.4823191 0.3509553

lstm.bias_ih_l0 f4 [8]
00000000: bd44 f4bd 20cf 373e 000a 8d3e f14f 073f
00000010: 175e 1c3f dab0 6c3f dbf8 bd3d 2738 b3be
-0.11927173 0.17950106 0.27546692 0.52856356 0.6108107 0.92457354 0.09275981 -0.35003778

lstm.bias_hh_l0 f4 [8]
00000000: 46d7 cfbe e61a bebe c916 97be 59af 25bf
00000010: 4342 0e3f 6b3c b8be 3540 2f3f 2631 273f
-0.40593928 -0.37129897 -0.2950957 -0.64720684 0.5556986 -0.35983595 0.6845735 0.6530937

fc_1.weight f4 [128, 2]
00000000: 4a89 cb3e 97e2 1f3f 902c d23e 403d 943e
00000010: de24 aa3e b0c7 fc3b 71cc f73e adfd 0dbf
00000020: 35dd 1b3f 8bb9 ac3e 3024 1cbe c6d1 bcbe
00000030: 0cf0 0fbe e761 1d3f 7261 9cbe dccd 2d3e
00000040: b5c2 b03d 389f d93d bbbb 393e 1585 50bf
00000050: 2a3c 423f 770a cc3e 18c0 3e3e 28aa 72be
00000060: 00e8 84be 7189 23bf 805e b9be 43d1 183f
00000070: b7a2 9dbe 58cc 1f3e 46ef dcbe 2862 e1bd
00000080: ad6c 27bf 56ad 0a3f ebde 2dbe 76bc 20bf
00000090: f730 713e f339 fa3e c248 60be 84cd 423e
000000a0: ba13 c0bb 7028 103f 2f86 dcbd 4a18 263f
000000b0: f0a8 9f3e b097 573f c024 f6be c4aa 753e
000000c0: 0617 9d3e febc 21bf 0834 233f da34 ce3e
000000d0: a041 533b a8cc e93e 5f06 4fbf a9b5 aabe
000000e0: c514 0b3f 8e09 163f e56a 3f3e 7fed 723e
000000f0: f5ed f3be 60a7 623e f2b7 08bf b32c 213f
00000100: 1fa8 abbe bb67 203f 07e3 353f a723 cdbd
00000110: 4897 0b3f a9e4 febe 4079 d43c acda 953e
00000120: ef1e 693d 2983 253f d4be f43e 8321 083f
00000130: cd47 12bf b8c5 ff3e ec11 b6bd b5c5 3f3f
00000140: 788f 82bf 3c30 12bf 6096 263e ad24 babe
00000150: 388f c23e dd88 af3e 3720 b43e cecc 0ebf
00000160: 500a cfbe 3ef3 f63e fe22 a83e d307 fd3c
00000170: a1ed 96be 9325 203f 64c5 73be 2962 0e3d
00000180: 69c9 153e 219f d83e d237 08bf 5f58 e4be
00000190: 6c62 1d3f 6ad4 013f d6be 3d3f c1b1 b83e
000001a0: 1d92 8ebe b109 b03e b76d d4be cbee 0bbf
000001b0: 92c5 80be 452b d3be c1c2 2dbf 6a72 27bf
000001c0: 657c 28bf c3ba 0cbf 4d3f d6bd 0761 563f
000001d0: 4307 e3be 1849 4f3e 2b12 8ebe 5580 413f
000001e0: 34f8 153e 7b14 013f ab20 8e3c 984b 0dbf
000001f0: 52a1 ac3e c052 1bbd 60e2 643e 80d5 d43d
00000200: f5f1 55be 36d5 3a3f 95b5 373d 3a21 40bf
00000210: 02ac 903e 10ef 1e3e 8362 d4be e79a a6be
00000220: f0c0 a7bd 0659 efbe a299 1dbf aecf b03e
00000230: 4237 06be da54 963d 7ad2 a33d 371a bfbe
00000240: 7018 d2bd 3fcf 313f 40e8 61be c828 2f3f
00000250: 5898 3a3f 9892 2f3f ccd3 03be 78d7 39be
00000260: 3ccd 1b3f 35ab c93e ebef 99be 374b 943f
00000270: 40cd 523c 600b a4bc 3ef1 d23e 7b33 24bf
00000280: 182b 403e 13e8 ee3d 1bf4 2c3f f879 2bbe
00000290: c45e 3d3f 09b0 d63e 68c9 32bf abbe 283f
000002a0: b5e5 013f c072 33be e87e 2f3f 40c0 bfbf
000002b0: d76b 84bf 3d0b 3fbf 59c6 a1be b424 0cbe
000002c0: b81f 90bd d80a 4f3e dd18 b03e e35a d43e
000002d0: 01f7 c3be 47a4 003f ea2b 46bf ca47 663b
000002e0: a9bc 0cbf 3368 d0bd 31dc 923e 7dbb 1b3f
000002f0: 4148 edbd 34e6 10bf bf1e 98be 9e35 b63e
00000300: cddd 093e 087b bd3e 4092 61bd c491 00bf
00000310: 8242 4abe bca6 66bf a054 7fbd 80af cf3c
00000320: f054 42bd c0ba d43c 15be febe 2d97 32bf
00000330: 00bc 71ba b64b d1be ac6e 43be dd69 303f
00000340: c1bb 033f 8ea6 debe 2680 073f ab5c a63e
00000350: c473 123f 99cf 003f c804 1abf c8e1 f2be
00000360: c80e 45be 703a 35bd cb77 10bf 320a 05bf
00000370: 7329 043f 444d 193e c948 1f3e 66ca 1e3f
00000380: 9e42 e6be 8600 2fbf 74e1 ee3e 186a f2be
00000390: b2b5 4f3f 15c4 c93e 83fe 6e3e f919 afbe
000003a0: 00b8 79bc 535e c5be de28 033e a48d a73d
000003b0: 2c97 5f3e 2e1a 1e3e e48b 903e e265 c63e
000003c0: 9bd3 9ebe d6e7 003f 61dd 8fbe e3af 043f
000003d0: 82de 23bf 552f 2e3f 8cb4 d73e a324 f0be
000003e0: 1cd1 503e 95b8 053f 6c0f 293e df4f 17bf
000003f0: d512 113f a999 88be 6141 013f 246b 6e3e
0.3975318 0.62455124 0.41049623 0.2895298 0.33231252 0.0077142343 0.48398164 -0.55465204
0.6088441 0.33735308 -0.1524818 -0.36878794 -0.14056414 0.6147751 -0.30543095 0.1697306
0.086308874 0.10626072 0.1813802 -0.8145307 0.75873053 0.39851734 0.18627965 -0.23697722
-0.25958252 -0.63881594 -0.3620491 0.5969431 -0.30788204 0.15605295 -0.431513 -0.1100505
-0.654002 0.5417074 -0.16979568 -0.6278757 0.23553835 0.48872337 -0.21902755 0.1902371
-0.0058617266 0.563117 -0.10767781 0.6488081 0.31183577 0.8421583 -0.48074913 0.23990923
0.30681628 -0.63179004 0.6375127 0.40274698 0.003223516 0.45663953 -0.80869097 -0.3334172
0.54328567 0.5860833 0.18693121 0.2372341 -0.47642484 0.22134161 -0.5340568 0.6295883
-0.33526704 0.6265828 0.7104954 -0.10016566 0.5452771 -0.4978383 0.025936723 0.29268396
0.056914266 0.6465326 0.4780184 0.53176135 -0.5714081 0.49955535 -0.08890137 0.7491105
-1.0200033 -0.5710485 0.16268301 -0.36356106 0.37999892 0.34284106 0.35180828 -0.5578126
-0.40437555 0.48232454 0.32839197 0.03088752 -0.2947817 0.62557334 -0.23805767 0.03476158
0.14627613 0.42308906 -0.53210175 -0.44598672 0.61478305 0.50714743 0.7411932 0.36073115
-0.2784585 0.34382394 -0.41489956 -0.54661244 -0.25150734 -0.4124395 -0.67875296 -0.65408957
-0.6581481 -0.54972476 -0.104612924 0.837418 -0.44341478 0.20242727 -0.27748236 0.75586444
0.14645463 0.50421876 0.017349562 -0.5519347 0.33716828 -0.037920713 0.2235198 0.103922844
-0.2089308 0.72981584 0.044850904 -0.750507 0.28256232 0.15520883 -0.41481408 -0.32540056
-0.08191097 -0.46747607 -0.6156255 0.34533447 -0.13107017 0.07340403 0.079991296 -0.37324688
-0.10258567 0.6945686 -0.22061253 0.684216 0.7288871 0.6858306 -0.12873763 -0.18148601
0.6086004 0.39388433 -0.30065855 1.1585454 0.012866318 -0.020024955 0.41199678 -0.6414105
0.18766439 0.116653584 0.67559975 -0.16745746 0.73972726 0.4193118 -0.6983857 0.65915936
0.5074113 -0.17524242 0.6855302 -1.4980545 -1.034541 -0.74626523 -0.3159664 -0.13685876
-0.070373 0.2021898 0.3439397 0.4147559 -0.38274387 0.5025067 -0.7741076 0.0035138004
-0.5497537 -0.101761244 0.28683618 0.6083296 -0.11586047 -0.5660126 -0.29710957 0.35587782
0.13463517 0.37007928 -0.055071115 -0.5022242 -0.19751933 -0.90098166 -0.062336564 0.02535224
-0.047444284 0.025967956 -0.49754396 -0.69761926 -0.00092214346 -0.40878075 -0.19085187 0.68911535
0.51458365 -0.43486446 0.52929914 0.32492575 0.57207894 0.5031677 -0.60163546 -0.47437882
-0.1924392 -0.044245183 -0.5643279 -0.5196868 0.51625746 0.14970881 0.15555109 0.62027586
-0.449727 -0.68360174 0.46656382 -0.47346568 0.8113662 0.3940741 0.23339276 -0.34199503
-0.015241623 -0.38548526 0.12808558 0.08181313 0.21835011 0.15439674 0.28231728 0.38749605
-0.31020817 0.50353754 -0.28098586 0.5183088 -0.64011395 0.6804097 0.42129934 -0.46902952
0.20392269 0.52234775 0.16509789 -0.5910625 0.5666936 -0.26679733 0.50490385 0.23283058

fc_1.bias f4 [128]
00000000: 4407 8e3e 1493 8f3e f319 b73e 640f c13e
00000010: 18c8 04bf 615f 2dbf 9619 c8be 66c7 28bf
00000020: 4136 be3e 5e62 ac3e d1c5 133f a1cf 26bf
00000030: 4dcc ef3e 0d87 1ebf 5e62 9bbe 000a eabb
00000040: 3189 8c3e b5ac 293f db25 d63e 1890 4ebe
00000050: 94a0 1ebe 2df4 083f 37d4 71bb ce84 d4be
00000060: 1c40 77be 198e 223e 5c8b f73e ebde ea3e
00000070: 1630 d23e 0517 f43e 79f8 e5be 479f 26bf
00000080: 918f 25bf 153c 2c3e 5c1f fc3d 0b21 28bf
00000090: 2e12 aaba 8a21 1a3e 07d0 6ebe 5bf4 5fbe
000000a0: 0b3e 5b3e 26e9 0abf e075 073f f0a2 f53e
000000b0: 4a37 143e ba51 2c3e b10f 05bf 6bd1 183f
000000c0: ddc8 243f 3542 243f 5b82 0fbe 6a2e b9be
000000d0: 2307 a93b 817c 263f 1c58 2d3f 4164 a2be
000000e0: 770c d33e 8d19 21be 18a4 20bf 3bba bc3c
000000f0: e08d 09bf 8d25 30bc 0710 18bf b4d8 c4be
00000100: c66f cc3e 41e8 933e a3b8 88be 1a53 11bf
00000110: 532c 1cbf a209 d9be bc8d d03e f9e3 a83e
00000120: 02ac debe 8f92 103f 7e8f c23d 40ce 17bc
00000130: eaeb ca3e 7e9e d0be a398 fabe 4c7a 10bf
00000140: 7724 223f 082a 1bbf cd48 38be 1f14 bfbe
00000150: 2cde 433e bbe4 de3b 323d 163e 8286 6fbe
00000160: 2cae e7be 953c d7bd efa1 90be 4042 323f
00000170: 3113 0f3f 4533 aebe 6037 6a3e 48e9 42be
00000180: f761 2e3f 0458 30bf 109e 053e a620 15bf
00000190: 742d 3abe 9a6c c7be 407b e7be 34fb febe
000001a0: 9e36 a23e 39c6 a3be c58a 053e 9af0 df3e
000001b0: d033 21bd 14e9 04bf c816 25bf 6de1 e1be
000001c0: f9a3 fabe 297c ca3e 3a3e 2a3f e0fd 0a3e
000001d0: f3f9 e8be 22e0 f03e 3082 e73e 5d82 16bf
000001e0: c90b 60bc 58cb 1e3f b9ee d5be 9283 b83e
000001f0: 0a4b f03e 3a2a 323f 41b5 973e 6418 2abf
0.27739918 0.280419 0.35761985 0.37707055 -0.5186782 -0.6772366 -0.3908202 -0.6592926
0.37150767 0.33668798 0.5772372 -0.65160567 0.46835557 -0.6192482 -0.30348486 -0.0071423054
0.2744842 0.66279155 0.41825756 -0.20172155 -0.15490943 0.5349758 -0.0036900172 -0.41507572
-0.2414555 0.15874518 0.4834851 0.45873198 0.41052312 0.47673813 -0.44916132 -0.6508679
-0.6467219 0.16819794 0.12310669 -0.6567542 -0.0012975389 0.15051857 -0.23321544 -0.21870558
0.21410386 -0.54262006 0.5291424 0.47975874 0.14474216 0.16828051 -0.5197707 0.59694546
0.64368993 0.64163524 -0.1401457 -0.36168224 0.0051583215 0.6503373 0.6771257 -0.31717113
0.41220447 -0.15732403 -0.6275039 0.02303802 -0.5373211 -0.01075114 -0.59399456 -0.3844658
0.39929026 0.28888133 -0.26703367 -0.5676743 -0.61005133 -0.42390162 0.40733135 0.3298643
-0.43490607 0.5647363 0.09500025 -0.009265482 0.39633113 -0.4074592 -0.48944578 -0.5643661
0.6333689 -0.6061101 -0.17996521 -0.3732004 0.1912772 0.006802169 0.14671782 -0.23391154
-0.4525007 -0.10509602 -0.28248546 0.6963234 0.5588866 -0.3402349 0.22872686 -0.19034302
0.6811823 -0.688843 0.13048577 -0.5825294 -0.18181401 -0.38950044 -0.4521122 -0.49801028
0.31682295 -0.3198717 0.13041218 0.43738252 -0.039356053 -0.5191815 -0.64487886 -0.441173
-0.48953226 0.39547852 0.665012 0.13573408 -0.45503196 0.47046 0.45216513 -0.5879267
-0.013674685 0.6202903 -0.41783693 0.3603788 0.4693225 0.6959568 0.29630473 -0.6644347

fc.weight f4 [1, 128]
00000000: f548 a53d e4cf fabc bb03 b33b 2fdf a63c
00000010: e07e 673e c2c0 053d d0a2 b03c 1ce1 ebbc
00000020: b260 9bbd 317a 32bd b6a4 783d 1eae 643d
00000030: 1c7c a2bc 9a1c 1abd 0067 da3c 9ea4 4b3d
00000040: 858d ddbc 862a edbb 03ed 0dbd f02d 92bb
00000050: 4c48 d33e 49c5 8a3d 41bd 633e 84f9 cb3c
00000060: b0d1 a8bb 12e5 9b3d daff df39 cd74 8fbd
00000070: e03b 863d 6e9b 7fbd 2219 86bd 1092 97bd
00000080: 2e9f 383d 1ef7 1b3d 57a6 cb3c 488c 39bc
00000090: 5711 0f3e cb3e b43c 5103 8ebd 0462 f13e
000000a0: 88bb 35be a4f0 65bd 38fa d0bc 85e0 8f3d
000000b0: e959 5c3d 52d3 59bd 30eb e63c df9f 80bd
000000c0: 8a4c 3f3c 577d 24bc b9ef 06bd ea46 f03d
000000d0: fed9 393c a710 0cbd 51c8 a3bd 266e 5e3d
000000e0: 1e96 b2bd cae8 8e3e 90e9 79bd c661 7d3e
000000f0: 5e46 e6bc 964f 063d a56a a13d b057 80bd
00000100: ce64 0e3d 23c4 dcbd bc0b 0b3d 20be 973b
00000110: 04d0 93bd 33c8 923d c705 8cbd af26 3c3d
00000120: af7f a1bd 9693 833d 720e c93d 36c7 5d3d
00000130: 8ccd 63bd a4f9 4c3f c8d3 ab3c da3d 613d
00000140: 8da5 923d 9b2b 3ebd 36db 91be a1ea 8e3d
00000150: 7af1 1c3c b3df 033f 0aa6 7dbe 8625 663d
00000160: 723c 70bd 7f2f 69bd 9b59 903d 9d01 c9bd
00000170: d25c 3d3d 4c95 883e f1dd cb3c 4c30 d0bc
00000180: 3ede be3c 4081 97bc d341 4dbe 34ec 55bd
00000190: f4c2 9cbc 3c08 c3bc 0bbb 8e3d 6c58 a2bd
000001a0: 2323 f03c 426a 493e 8836 083e 69cb 213d
000001b0: f8c5 8b3c 805b c8ba a8e8 80bc c0f1 1bbe
000001c0: f0fa 3dbc b983 7abd a525 bc3d 3e04 59bd
000001d0: 3826 41bd 5bae 1fbd 5dfd 98bc 6877 c2bc
000001e0: 410a 1e3e 3ceb 773c 8a8b 353d 2d0f 863d
000001f0: 66f5 3bbd 5842 ca3c 0ae3 5e3d a8c6 103d
0.08070556 -0.030616708 0.005463091 0.020370094 0.22606993 0.03265453 0.02156201 -0.028793864
-0.075868025 -0.043573562 0.060703956 0.055830114 -0.01983457 -0.037624933 0.026660442 0.049717538
-0.02704502 -0.007237735 -0.03464986 -0.0044610426 0.41266096 0.067759104 0.22240163 0.024899252
-0.00515195 0.07612051 0.000427245 -0.070047 0.06554389 -0.06240409 -0.065477625 -0.07400906
0.04507368 0.038077466 0.02485959 -0.01132495 0.13971458 0.022002598 -0.06934226 0.47145092
-0.17747319 -0.056137696 -0.025509939 0.070252456 0.053796683 -0.053180046 0.028188318 -0.06280493
0.011675963 -0.010039649 -0.03294346 0.11732276 0.011343477 -0.03419557 -0.07997192 0.054304264
-0.08720039 0.2791198 -0.06101376 0.24744329 -0.028109726 0.032790743 0.07881669 -0.06266725
0.034764104 -0.107795976 0.033946738 0.004630819 -0.0721741 0.07167091 -0.068370394 0.04593533
-0.07885682 0.06424634 0.09817208 0.05414506 -0.055615947 0.8006842 0.020975009 0.054990627
0.071604826 -0.046428304 -0.28487557 0.06978346 0.009579057 0.5151321 -0.2477037 0.05618813
-0.058651395 -0.05693006 0.07048341 -0.09814761 0.0462311 0.26676404 0.024886103 -0.025413655
0.023299333 -0.018494248 -0.20044641 -0.052227214 -0.01913593 -0.023807637 0.06969269 -0.079270214
0.02931363 0.1966944 0.13302052 0.039500628 0.017062172 -0.0015286058 -0.01573594 -0.15228939
-0.011595473 -0.061160777 0.091868676 -0.05298256 -0.04715559 -0.038984638 -0.0186755 -0.023738578
0.15433599 0.015131768 0.044322528 0.06545863 -0.045888327 0.024689838 0.05441574 0.035345703
