Model/002720_38.pth (torch, 4687 bytes, 7 tensors)

lstm.weight_ih_l0 f4 [8, 5]
00000000: 7a82 c5be 80e3 d03e dfc1 eebe bcf0 cebe
00000010: ed85 f9be ead4 30bf 4358 65be f9a3 913e
00000020: 1b6d 8ebe 31bb 313f 940a 39be e2dc a13e
00000030: d2c8 63be a874 b2be 6a32 b3be 0f2f 84be
00000040: 7ad4 9a3e 5a16 fe3e 1491 153e b6a3 ce3e
00000050: 0bd6 09bf fd59 e1be 23ff f3bd d7cd e23e
00000060: 905e 01bf a1bc 88be 64c4 6dbe 5f7c 24bf
00000070: 042c e0be 1405 213f 9514 233f b177 3c3e
00000080: 48b7 623e 5d14 343e 990c e83e cc7d 913d
00000090: ae64 7b3e 28cd c8be a943 c1be 2d59 033f
-0.38576108 0.4079857 -0.46632287 -0.4041804 -0.4873499 -0.6907488 -0.2239695 0.28445414
-0.27817616 0.69426256 -0.18070441 0.31613833 -0.22244576 -0.34854627 -0.349994 -0.25817153
0.30240232 0.49626428 0.14606124 0.40359277 -0.5384223 -0.44013968 -0.11913898 0.44297668
-0.50534916 -0.26706412 -0.23219448 -0.64252275 -0.4378358 0.62898374 0.6370328 0.18405034
0.22140229 0.17585893 0.4532211 0.07104072 0.24550125 -0.39219022 -0.37746933 0.51307946

lstm.weight_hh_l0 f4 [8, 2]
00000000: 2fb5 0e3f 4852 043e 8973 2c3f 2c06 923e
00000010: 54f6 273e 7afb 69be 9089 013d 4b5f 2b3f
00000020: cdd9 203f a555 cdbe fa15 aa3e 64a4 55be
00000030: b081 97bd 48bf e6be 6fc3 213f 10a8 363e
0.55745214 0.12922013 0.6736379 0.28520334 0.1640256 -0.22849837 0.03162533 0.6694228
0.6283234 -0.40104404 0.33219892 -0.20863491 -0.07397783 -0.4506781 0.63188833 0.17837548

lstm.bias_ih_l0 f4 [8]
00000000: 3a17 e33c 1b65 d53d c445 05be 1416 353e
00000010: 3564 e73e 0189 73be e6be eabe e039 70be
0.027721036 0.10419675 -0.13014895 0.17684203 0.4519364 -0.23782732 -0.4584877 -0.23459578

lstm.bias_hh_l0 f4 [8]
00000000: bc8b 0cbf 7834 f1be 39e2 99be 3a9e bf3e
00000010: ab95 11bf 34ba f03e 49d6 8ebd b8dd d03e
-0.5490072 -0.47110343 -0.30055407 0.37425405 -0.56869 0.47017062 -0.069744654 0.40794158

fc_1.weight f4 [128, 2]
00000000: d02e ea3d 9c5e 0a3e 2f37 e23e 26e9 973e
00000010: 360b 763e 5f09 15bf 304c a63e 5c56 50be
00000020: c49d 043f 9ba8 1fbf bc32 193f a3b4 5cbd
00000030: b495 11be de6f e2be 1afa d13e 98b9 d13d
00000040: e08a 04bd 3014 d13d 6f8f 243f efb2 143c
00000050: 4f42 2c3f c058 3d3e 346a 743e 74c2 283e
00000060: efaf 79be 576a 35bf 79e9 1e3f 005d d6bc
00000070: 9ead 5a3e 207e acbb 5fe9 3dbe af86 ab3e
00000080: 211b f3be 1cb9 16be 987c 26bf a60f ed3e
00000090: f24b 0a3e 1eb5 18bf 0047 5fbc de4d c13e
000000a0: 298f 183f e448 513e 2298 1fbf 4ca3 ccbe
000000b0: 74ad acbe e688 eebe ea0f ae3e 571a 263e
000000c0: b908 033f b5f0 b73e 705d 553e d6ed 6bbe
000000d0: bcf9 313f 8517 bc3e 6e42 afbe 7a5d ad3e
000000e0: 959b 2abf 760f 8cbe a61d b13e e453 0bbf
000000f0: 3cfd 15bf 1ab3 db3e 0303 e9be 905a 4bbd
00000100: f00b 88bd 386e b53e ea19 12bf 0e67 fa3e
00000110: aaef c53e 52db e8be dd46 2cbe 47e7 a13e
00000120: cb1b f03e 18eb 1c3f 128c 12bf df18 233d
00000130: 0031 05bf 7075 15bd 37b1 2d3f 00fa 2b3f
00000140: 24ff 26bf fa9c 133f 46d3 393e d4f4 65bd
00000150: cc43 1f3f 6c36 753d 5f6f c3be 203e 323d
00000160: 56eb 0d3f 90bb 2e3f e138 293f 4a3b 1ebf
00000170: 02d0 d43e 8d13 1e3f 46cf ff3e 0067 983d
00000180: a4d1 ffbd a86e 123e 24f3 483e b588 09bf
00000190: cea4 2dbf 2c7f babe 45f4 19bf 5190 4f3c
000001a0: 64f1 36bf 947d 193f a56d 313f a6b4 f3be
000001b0: 9b23 98be efd2 e4be 4400 c43e 7a8b bbbc
000001c0: 085b 483e 0058 b93d d25f 85be 7774 ccba
000001d0: 10eb 1dbd a93d 30bf 306b e0be 683a b0be
000001e0: 9d01 293f 2cdf fb3e ce30 e43e 3485 efbe
000001f0: c75d c6be 74f3 49be 9cee 1bbe a43d 24bf
00000200: fc09 7d3e 37de e63e 39a8 0bbf ebcf 70be
00000210: a07a 0dbe 504f fdbe 2269 94be 5dbe fc3e
00000220: d40c 06bf 90f5 37bf fa33 ecbe 5d1e 133f
00000230: a613 1fbf 409e 923c 0976 60be 70f1 223f
00000240: 95b2 10bf 8bed 073f d261 da3e 90ca 3abe
00000250: 2da4 1b3f fe8a 82be 282a d7be 6a56 a93e
00000260: 2253 de3e a9e2 853e 6db1 033f d032 c03e
00000270: 8bc6 8cbe 72ea 00bf 6bcb e9be 445c 263e
00000280: 002c 783e 0476 9a3d e7ba b63e b1ff 183f
00000290: f321 0b3f aef6 89be 608d 1fbd dcef ccbe
000002a0: cfd5 23bf 49ed d93e b785 e03e cd8e 9fbe
000002b0: e0d5 c33c 2c5d 1b3e a055 04bf c05c b1be
000002c0: 9aef 403e b331 23bf 9893 3f3e 4c9b 07bf
000002d0: f4c5 dc3e ced4 ad3e 7d84 cebc 357c 0c3e
000002e0: 18c6 cbbe 1733 073f 2808 e3bd 126b a03e
000002f0: 67c2 29bf 5fc1 053f 48b7 d8be efd2 0cbe
00000300: 5252 4f3e 8089 b63e 43ea 363f 82f2 d9be
00000310: 348f 75be 00d2 32bf fc29 173f 4000 9b3e
00000320: 43f4 14bf 88c3 183e 64fc 123e aa52 acbe
00000330: 0538 c13e 60f3 73be b3ae 603e 28a2 b3bd
00000340: 2e76 053f 16cf 34bd bc3d 11bf 466d d53e
00000350: 2842 ecbe a916 27bf 3fb7 0dbf c91e 08bf
00000360: 0851 e53d 4086 33bf 095a 63be 1b90 eb3e
00000370: 612c d3be f17e 063f c4e2 debe 4852 5c3e
00000380: b06c 2d3d 849f c2be e5b7 15bf 9048 503e
00000390: 04c7 353e a669 27bf c16a 0fbf 40a3 ea3e
000003a0: f1e9 183f 88bb 32be 4292 d33e 2d25 123f
000003b0: 70cb 7bbe 80f1 073e 24c2 153e f0c3 2dbe
000003c0: c6c7 df3e f7f1 22bf a259 12bf e635 1dbf
000003d0: 2c6f 27bf c812 30be efd8 6e3e dc38 f0be
000003e0: 8933 963e 08d4 2fbf ccb9 3c3e e467 c73e
000003f0: 559c 2fbf 3766 01bd 3d76 123f fac7 89be
0.1143471 0.13512653 0.44182727 0.29670066 0.24027714 -0.58217424 0.3248 -0.20345443
0.5180323 -0.62366647 0.5984304 -0.053883206 -0.14217263 -0.44225973 0.41011125 0.10240477
-0.032359004 0.102089286 0.6428136 0.009075864 0.6728868 0.18490887 0.23868638 0.16480428
-0.2438352 -0.70865387 0.62075 -0.026167393 0.21355292 -0.0052640587 -0.18546055 0.33501193
-0.47481635 -0.14719051 -0.65033865 0.46301 0.13505533 -0.5965136 -0.013627768 0.3775472
0.59593445 0.20437962 -0.6234151 -0.39968336 -0.33726084 -0.4658882 0.33996516 0.16220985
0.51185185 0.35925832 0.20836425 -0.23039946 0.6952169 0.36736694 -0.3423037 0.3386038
-0.6664365 -0.27355546 0.34592932 -0.5442488 -0.5858953 0.4291008 -0.4551011 -0.049646914
-0.06642902 0.35435653 -0.5707079 0.4890675 0.38659412 -0.45479828 -0.16823907 0.31621763
0.46896204 0.61296225 -0.5724498 0.03981864 -0.52027893 -0.03648895 0.67848533 0.67178345
-0.65233064 0.576614 0.18147 -0.05614169 0.62212825 0.059866354 -0.38170907 0.04351628
0.5543722 0.6825495 0.66102415 -0.6180922 0.41564947 0.6174858 0.49962825 0.07441521
-0.12491158 0.14300025 0.19624001 -0.53724223 -0.67829597 -0.3642515 -0.6013835 0.012668685
-0.7146208 0.5995724 0.6930793 -0.4759876 -0.29714665 -0.4469218 0.38281453 -0.022893656
0.19565976 0.09049988 -0.26049668 -0.0015598674 -0.03855425 -0.68844086 -0.43831778 -0.3441956
0.66018087 0.49193704 0.44568485 -0.46781313 -0.3874342 -0.19721776 -0.15227741 -0.64156556
0.2471084 0.4509141 -0.5455356 -0.23516814 -0.13816309 -0.49474573 -0.2898646 0.49363986
-0.52363324 -0.71859074 -0.46133405 0.57468206 -0.62139356 0.017897725 -0.21920027 0.63649654
-0.56522495 0.53096837 0.42652756 -0.18241334 0.6079739 -0.25496668 -0.4202435 0.3307374
0.434228 0.2614949 0.51442605 0.37538767 -0.27495226 -0.50357735 -0.45663008 0.16246134
0.24235535 0.07542041 0.3568947 0.59765154 0.5434868 -0.26946014 -0.038953185 -0.40026748
-0.6399812 0.42563847 0.43852016 -0.31163636 0.023905694 0.15172261 -0.51693153 -0.34641075
0.188414 -0.6374771 0.18708646 -0.5297134 0.43119776 0.3395142 -0.02520966 0.13719256
-0.3979957 0.5281233 -0.1108554 0.31331688 -0.6631226 0.52248186 -0.42327332 -0.1375234
0.20246246 0.3565178 0.71451205 -0.4256783 -0.23980409 -0.69851685 0.5904844 0.30273628
-0.58185214 0.14918339 0.14354092 -0.33656818 0.37738052 -0.23823309 0.21941642 -0.08771163
0.5213345 -0.044142805 -0.56734824 0.41684932 -0.46144223 -0.6526895 -0.55357736 -0.53171974
0.11197096 -0.70126724 -0.22202314 0.4600838 -0.41244796 0.5253745 -0.43532383 0.21515763
0.04233998 -0.38012326 -0.58483726 0.2034018 0.177517 -0.6539558 -0.5602227 0.45827675
0.59731966 -0.1745435 0.41322523 0.57087976 -0.24589324 0.13275719 0.1462484 -0.16969275
0.43707103 -0.6365046 -0.5716802 -0.6141037 -0.6540401 -0.17194664 0.23324941 -0.4691838
0.29336193 -0.6868291 0.18430251 0.3894645 -0.6859792 -0.03159162 0.5721167 -0.26910383

fc_1.bias f4 [128]
00000000: aa71 adbe 9911 d13e 0673 0c3e 975b 0f3d
00000010: d6ae 273f 8d76 013f 9bbe 273f e903 1bbf
00000020: 9493 18bf 394a 473e da19 7dbe 7a0e aabe
00000030: b906 e33e a801 bbbd d439 9f3e 162a 013f
00000040: 9ce8 08bf 2fcf 0ebf 1d87 213f ad2d 14bf
00000050: 1539 27bf bc64 05bf 8325 bd3e 732d 2b3e
00000060: d923 1c3f 608a dcbc 7b37 353f 4a8a 00be
00000070: 76d4 01bf ccd4 26bf 4a85 a2bc ae46 203f
00000080: 8b56 3dbe 7a9a 21bf 5800 eebd a67b 1b3e
00000090: 9b47 7a3d 9d30 4a3e 5e63 2abf f3d0 c8be
000000a0: 0256 d03e 4bae 2e3f 3fb3 fd3d 531f 86be
000000b0: 7db3 ee3d f649 8fbe 1581 18bf 48c4 b0be
000000c0: 6d14 253f 08a9 bebd bd01 303d 0ff6 493e
000000d0: df87 113e fc10 33bf 22bd dcbe f41f 053f
000000e0: b8b6 0fbf e09f 413e dff4 19bf e815 d1be
000000f0: 5460 0f3e bb71 26bf 408a a4bd cee5 0f3f
00000100: a6f7 98be 7854 cd3e 7036 bfbe 786d b23d
00000110: 5f1a 7a3e afa3 293e 18c9 1dbf dae4 c43e
00000120: d656 963e 9c2e 23be 9197 193e 81ae 463d
00000130: a1a2 6e3e e825 f83e ee0a 283f 7174 cebe
00000140: 0de7 323f 870f 063f 9a19 1dbf 0da1 0b3e
00000150: 0851 093f 8031 703d 5454 ebbd f3a9 93be
00000160: de0a 003f 5fe8 22bf 259b 173f 0e1f 193f
00000170: 48af ffbe 8061 31bf 287b d9be ff51 ba3e
00000180: 6132 a23e 4ffe bb3e f0ec 943e ba50 2b3f
00000190: 9895 12bf f854 643e 9f0b a23e 17d8 833e
000001a0: a350 4e3e ffcc 02bf 35a8 1cbf 79a0 20bf
000001b0: 6169 16bf f6de 373e dd7c ad3e ab94 ecbe
000001c0: 7032 1ebf 3158 073f abc5 c63d 5683 acbd
000001d0: 94df 18be 68e1 213d f012 1e3e 94ed 59be
000001e0: 40b2 423e 5062 f8be 68aa 42be ebdc 193f
000001f0: 0c5d 8f3d 4104 043f 2648 ed3e c2b0 b4be
-0.3387578 0.40833738 0.13715753 0.034999456 0.65501153 0.5057152 0.65525216 -0.6055284
-0.59600186 0.19461907 -0.24716893 -0.3321417 0.44341066 -0.09131175 0.31098807 0.50454843
-0.53479934 -0.5578489 0.6309679 -0.57882196 -0.65321475 -0.52106833 0.36942682 0.16716556
0.609922 -0.026921451 0.7078778 -0.12552753 -0.50714815 -0.6516845 -0.019838948 0.6260785
-0.18490045 -0.6312634 -0.11621159 0.15183887 0.061103445 0.19745107 -0.6655787 -0.39221916
0.4069062 0.682347 0.12387704 -0.26195773 0.116553284 -0.27986115 -0.59571964 -0.3452475
0.6448429 -0.09309584 0.042970408 0.1972277 0.14211987 -0.6994779 -0.43113047 0.5200188
-0.5613818 0.18908644 -0.6013927 -0.40837026 0.1400159 -0.6501729 -0.080341816 0.5621003
-0.2987644 0.40103507 -0.3734622 0.08712286 0.24424122 0.16566347 -0.6163497 0.3845585
0.29363126 -0.15935749 0.14999224 0.048506264 0.23304226 0.4846642 0.6564168 -0.40323213
0.69883806 0.5236744 -0.6136719 0.13635655 0.5363927 0.058640957 -0.11490694 -0.28840598
0.5001658 -0.6363582 0.59221107 0.5981301 -0.49938416 -0.692894 -0.42476773 0.36390683
0.3167906 0.3671746 0.2908702 0.66920054 -0.5725951 0.22298038 0.3164949 0.257508
0.20147948 -0.5109405 -0.61194164 -0.6274486 -0.58754545 0.17956147 0.33884326 -0.46207175
-0.6179571 0.52868944 0.09705671 -0.08423488 -0.14929038 0.039521605 0.15436912 -0.21282035
0.1901331 -0.48512506 -0.19010317 0.6010272 0.07000169 0.5156899 0.46344107 -0.35291106

fc.weight f4 [1, 128]
00000000: 366e 173d c1c5 843d 8cf7 b83c 9d4d dd3c
00000010: e889 4ebc 0292 e4bb 2d78 bdbc 7ba1 a83d
00000020: 208a abbd e019 4ebd 44fb c9bc 4371 9f3d
00000030: fd33 bfbc 11ed ac3d 36da 0dbd 1e04 ffbc
00000040: 8224 453d 8a6d 6b3d ecc0 56bd 2a2f 513d
00000050: f0a1 52bc 4383 953d 2474 97bc af29 683d
00000060: 8279 51bd c7c9 4abd e7f3 f33c b295 aa3c
00000070: 559c b43d d066 bf3c 1e12 c4bc 613a 70bd
00000080: e6c0 e63c af84 8a3d 3e84 5d3d e7ff 5c3d
00000090: 5461 813d 9b2c 613d 33a3 9a3d d852 0f3c
000000a0: 1523 633d 92a4 06bd dfb6 8a3d ca34 90bd
000000b0: b69a 90bd b627 1bbd a822 94bd d361 5bbd
000000c0: 1839 7a3c 929d 783d ddd3 a33d 32d1 9a3d
000000d0: a2be 4abc 4083 caba 408f e93c 9bae 7d3d
000000e0: 0c23 c93c 2a48 89bc f238 8fbd ad3e aa3d
000000f0: 10d2 3a3d f2e6 603d 5035 913c 6a1b 833d
00000100: 8cc4 3e3c 87da 153c 6ac0 95bd d91f 4c3c
00000110: 4be8 85bc bf72 183d 4c28 89bc c36e b83d
00000120: f8bf 88bd 1a56 493d 109f 883c f89d b23d
00000130: e6c6 51bd 9a0f b83d 6660 a93d 9263 7abd
00000140: b420 c83d d863 75bd 0640 05bd 0d35 003c
00000150: a2a4 62bd 1c8f 223d b736 5fbd 304e aabd
00000160: 687a f9bc 93cc aa3d bf4a 8a3b 268b 8f3d
00000170: 5c40 a6bd fcbc 6ebd f6c2 7fbd 9875 06bd
00000180: f0ac 5ebd 2444 963d 9557 6dbc d1bc 0cbb
00000190: dba4 0fbd 74fe 17bc 2750 dabc c2fe a63b
000001a0: b149 1abc 1222 aebd 632c 43bd 2442 02bd
000001b0: 667d 273d edbf 8c3d 8a60 90bd 8067 743b
000001c0: 3ea5 6d3d 53e9 e2bb 9ce1 2e3d 98b2 0ebc
000001d0: b5b7 9fbd 178c 193d cf0c 563d d5bf af3d
000001e0: 4cec be3d aeb7 0b3d 08e9 e33c 9fd6 753b
000001f0: 5057 52bd 1584 d33d 8dd7 c03c 7564 b1bd
0.03697034 0.06483031 0.022578977 0.027014548 -0.012606122 -0.0069754133 -0.023128593 0.08233925
-0.08375955 -0.050317645 -0.024655946 0.07785275 -0.02334022 0.08443654 -0.03463193 -0.031129893
0.04813052 0.05747751 -0.05243008 0.05107037 -0.012855992 0.07300427 -0.018487997 0.056680378
-0.05114127 -0.049508836 0.029779388 0.020823333 0.088188805 0.023364455 -0.02393442 -0.058649424
0.028168153 0.06763589 0.054081194 0.053954985 0.06317392 0.05497418 0.07550659 0.008747779
0.05545338 -0.03287179 0.06773161 -0.07041319 -0.07060759 -0.03787967 -0.07233173 -0.05356009
0.015272401 0.060697146 0.07999394 0.07559432 -0.012374552 -0.0015450493 0.02851069 0.061934095
0.024552844 -0.016758043 -0.06993283 0.08312736 0.045610487 0.054907747 0.017725617 0.06401713
0.01164354 0.009146339 -0.07312091 0.012458765 -0.016346117 0.037218805 -0.016742848 0.09005501
-0.0667724 0.04915438 0.01667741 0.087215364 -0.051215075 0.08987351 0.0827034 -0.061130114
0.097718626 -0.05990967 -0.03253176 0.007825148 -0.055332787 0.03968726 -0.05449554 -0.08315694
-0.030453876 0.08339801 0.004220336 0.07008962 -0.08117744 -0.0582857 -0.06244179 -0.03282699
-0.054364145 0.073372155 -0.014486213 -0.0021474848 -0.035069328 -0.009276975 -0.026649548 0.0050962875
-0.009416983 -0.08502592 -0.047649752 -0.031801358 0.040891074 0.068725444 -0.07049663 0.0037293136
0.058018915 -0.006924787 0.042695627 -0.008709572 -0.07798711 0.037487116 0.05225831 0.08581511
0.09322414 0.034110717 0.027821079 0.0037511957 -0.0513528 0.10327927 0.023540283 -0.08661739
