Model/003060_4188.pth (torch, 4687 bytes, 7 tensors)

lstm.weight_ih_l0 f4 [8, 5]
00000000: 1140 e7be 545d 413e 767d 873e b37f 0f3f
00000010: 745a 8a3c 8260 aa3e b11e 18bf 63cc 023f
00000020: c0af 4a3c 72d3 d03e 9915 d3be 0f8a 323f
00000030: 5135 98be c609 62be a9e7 b4be c718 103f
00000040: 78d7 5f3e e105 10bf 80d6 aabc e292 56be
00000050: 5404 663d 91ff c6bd 68ab c4ba 5cac 863e
00000060: 35c4 373b b01b ab3d 5006 74bd 70f0 203d
00000070: d73a cfbe 3127 c5be b476 cd3e e9e8 803e
00000080: ceed aabe d2ac 963b 475f bebe c84a 863d
00000090: 9845 fdbe dd20 1a3f 00a0 7139 5b13 313f
-0.45166066 0.18883258 0.26462907 0.5605423 0.016888835 0.33276755 -0.5942183 0.5109312
0.012371004 0.4078632 -0.41227415 0.6974191 -0.29728177 -0.22074041 -0.35332993 0.5628781
0.21859539 -0.5625897 -0.020854235 -0.20954469 0.05615647 -0.09716714 -0.0015004696 0.26303375
0.0028040532 0.0835489 -0.059576333 0.0392918 -0.4047458 -0.38506463 0.40129626 0.25177696
-0.33384556 0.0045982385 -0.37182066 0.06557232 -0.49467158 0.60206395 0.00023043156 0.6917016

lstm.weight_hh_l0 f4 [8, 2]
00000000: 7486 47be d9a8 aebe 6645 1abf 450f 2f3f
00000010: 90a2 573d 9036 fbbd 20f8 8cbd 1847 ca3d
00000020: 5539 aebe ccf0 07bf 2099 00be fce1 813e
00000030: f718 16bf d62a ed3e 9090 a63d f53d cfbe
-0.19484884 -0.34113196 -0.60262144 0.68382674 0.052645266 -0.12266266 -0.068832636 0.09876841
-0.34028116 -0.531018 -0.12558413 0.25367725 -0.58631843 0.46321744 0.08133042 -0.40476957

lstm.bias_ih_l0 f4 [8]
00000000: 0cb8 6bbe de0a 75be c0c4 533c 77bd dabe
00000010: a247 d43e da05 813e 7ea8 41be 0046 123c
-0.23019427 -0.23929927 0.012925327 -0.42722675 0.41460901 0.25199777 -0.18911931 0.008927822

lstm.bias_hh_l0 f4 [8]
00000000: df93 e23e dab4 f93e 0030 90bc 1e65 b83e
00000010: 866f 97be 93d0 24bf 6e9b 613f cc7c 53be
0.44253442 0.4877079 -0.017601013 0.36014646 -0.29577273 -0.6438076 0.8812779 -0.20653075

fc_1.weight f4 [128, 2]
00000000: e3d0 e8bf 2274 f43e dc82 fcbe 48cc 1ebf
00000010: b7e2 183f 5dbe 0e3f 4693 60be 501b 133e
00000020: e0a2 ac3d 1280 f03e f129 c43e a0a1 383e
00000030: c342 17bf d07f bfbd f727 283e 176f 033f
00000040: 2cf0 21be e8c2 ea3d 1e40 043e 5aa6 df3e
00000050: 5409 5a3f f696 c03e 6363 1cbf 7c5c 623e
00000060: 921b bfbe c146 8dbe cc35 90be 7e98 b83e
00000070: e6ad 323f 9fdd 2a3f f8d6 32bf 822e 34bf
00000080: 0a3f 113f 12ea df3e 8e69 9ebe 65c7 25bf
00000090: 12c4 cc3e 0f10 053f 4ed3 1d3e 57fb 213f
000000a0: 2873 b0bf b9b3 01bf 10d3 65bd 3df0 1dbf
000000b0: 4976 283f cf2e cdbe d9a1 bcbe bc4e 24be
000000c0: babc 4c3e 00d4 423a 5cd8 7b3e e383 243f
000000d0: d7cf 123f d8a3 5f3e 231b 2b3f e042 50bd
000000e0: 9dc6 f13e 3044 d43d 20e9 b73d d023 c7be
000000f0: cd67 8fbe e794 2bbf 21a5 f6be 211d 1dbf
00000100: 0e6a 6ebe c062 30bf ed47 ccbe addd 09bf
00000110: a230 d33e 5014 1cbf e4b5 14bf 10a9 1abf
00000120: 8ba7 b2be a483 dbbe 6b29 e5be 70f4 983d
00000130: e098 a0bd 006f 093e 5f2f 96bd 330a 253f
00000140: a838 a2bd 40e3 08bf 029d a3be 215e 043f
00000150: 53e2 72bf 709b 233d 999b 60be e95f 2a3f
00000160: e2d8 eebe 5006 9fbe 8bdf f83d 2474 04bf
00000170: 206e f3be d622 9b3e fa46 8dbe 35b2 2c3f
00000180: 6df0 0a3f 7d1a 163f 52a7 083f 0893 0dbf
00000190: 8278 403f 414b e9be 5388 c13e 184c 27bf
000001a0: 9ac0 5fbe fef5 be3e 6295 b43e a542 a0be
000001b0: ca09 1e3f c3cf 243f 6509 c03d b0e7 9ebd
000001c0: 536e 5bbe d72b 0dbf 5293 07bf 0ac8 debe
000001d0: 814e 2fbf b82d 1d3e 9b89 a6bd 42c3 72be
000001e0: 833c c2be 3414 17be 5e7e e8be 2084 923c
000001f0: ab00 2d3f 4215 bdbe fd4b a7be 5289 ddbe
00000200: 8b94 82be 1f8a 2d3f 963a 28bf 0c09 23be
00000210: 8129 a7be 9b15 9fbe 10c4 14bf 6151 303f
00000220: f00b 843d fe6c 983e 447a 233f 78b6 9d3d
00000230: 6b35 e03e 2443 afbe 3c97 413e 6473 193e
00000240: 2075 9cbd 40a4 bebd 0e0d e33e b25f f3be
00000250: 8108 373f e907 1bbf aa72 03bf 5eba dc3e
00000260: a5b8 41bd 8b4c 003f 3d08 403f 976e e2be
00000270: d011 3c3e b88a 9bbe 08d4 cc3d 89e8 25bf
00000280: 0512 1f3f 62dc b23e 3bb1 d03e 8dd2 113f
00000290: f4a6 0cbe 0c9d 27be e444 15bf 9e30 d33e
000002a0: d834 29bd b035 ccbd 3896 2d3f 2bcb 333f
000002b0: 2070 1ebe e2ce b63e 2b36 173f 620b fa3e
000002c0: 9181 003f ad98 c0be bde6 36bf 5273 28bf
000002d0: d711 213f b8ee 10bf 074f 13bf 87a5 f0be
000002e0: d6f2 053f 0c3a 293e a92d c0be d899 143e
000002f0: ceac 28bf b0ee df3d 3243 d03e 06d1 d03e
00000300: 4877 99bd 1a1f c4be 2150 863e c00e 50bd
00000310: 6a92 843d 1d61 323f b253 f8be 24a4 3d3e
00000320: 7f5c b5be 8257 d73e 849e 693e a649 63be
00000330: ac46 893e 50e0 84bd 9f71 30bf 6ccf 5f3e
00000340: 9260 61bf 5f20 273f 5acf 9c3f 6a92 f63e
00000350: 13ec bd3e a0dd 0abf a8f2 e63e 20f5 6e3d
00000360: ef95 953e 081a e1bd c0c6 21bf 2ee9 be3e
00000370: da16 a33e 1421 0fbf 80b4 5c3e 00f5 88bc
00000380: 725a 3ebe 174d 113f 605f d43e e105 073f
00000390: ee6b f5be 9d68 8cbe d00e 7d3d de32 ff3e
000003a0: 15b5 19bf 0dfb 81be 1053 6cbd 08c9 f43d
000003b0: 1ca4 c93e c2b6 ff3e 5447 083d ce5a 66be
000003c0: f384 1a3f 16f9 8b3e f79b c1be 009b 1f3e
000003d0: 52a6 993e 22c3 9dbe 67f7 a1be 60d7 26bd
000003e0: 8149 51bd 9a1e 08bf bdad 0a3f a09b 43be
000003f0: 51fc 233f 00f8 063e 28f3 bcbd 077d d4be
-1.8188747 0.47744852 -0.49318588 -0.6203046 0.5972094 0.5575922 -0.2193118 0.14365888
0.084295034 0.4697271 0.3831325 0.18030405 -0.59086245 -0.0935055 0.16421495 0.51341385
-0.15814275 0.11462957 0.12915084 0.43681604 0.85170484 0.37615174 -0.6108915 0.22105592
-0.37325722 -0.27593043 -0.28166044 0.36053842 0.697966 0.66744417 -0.69859266 -0.70383465
0.56736815 0.4373327 -0.30939907 -0.64757377 0.3999334 0.5197763 0.15412638 0.6327414
-1.3785143 -0.5066486 -0.056109488 -0.616947 0.6580549 -0.40074775 -0.3684223 -0.1604566
0.19993868 0.0007432103 0.24594253 0.64263743 0.5734839 0.21839845 0.6683828 -0.050845027
0.47221842 0.10364568 0.08980012 -0.3889451 -0.2800888 -0.6702408 -0.48172858 -0.6137257
-0.23282644 -0.6890068 -0.39898625 -0.53853875 0.4124804 -0.60968494 -0.58090043 -0.6041422
-0.3489345 -0.4287387 -0.44758162 0.07468498 -0.078416586 0.1342125 -0.07333254 0.6446869
-0.079209626 -0.53471756 -0.31955725 0.5170613 -0.94876593 0.03994316 -0.21934356 0.665526
-0.46649843 -0.31059504 0.121520124 -0.51739717 -0.47544956 0.30300015 -0.27593213 0.6745942
0.5427311 0.5863417 0.5338031 -0.55302477 0.7518388 -0.45565227 0.3779932 -0.65350485
-0.21850815 0.37297052 0.3527022 -0.31300846 0.61733687 0.6437952 0.09376792 -0.07759035
-0.21428804 -0.5514502 -0.5295917 -0.43511993 -0.6847916 0.15349472 -0.08131715 -0.23707297
-0.37936792 -0.147538 -0.4540891 0.017885268 0.67579144 -0.3693028 -0.32675162 -0.4326883
-0.25503954 0.6778888 -0.65714395 -0.1592142 -0.32648852 -0.3107117 -0.5811167 0.68874174
0.064475894 0.29770654 0.6385844 0.07700819 0.43790755 -0.34230912 0.18905348 0.14985424
-0.07639527 -0.09308672 0.44345897 -0.47533947 0.7149735 -0.60558945 -0.5134684 0.43110937
-0.04729523 0.50116795 0.7501257 -0.44224998 0.1836617 -0.30379272 0.10001379 -0.64807945
0.6213687 0.34933764 0.40760216 0.569619 -0.13735563 -0.16368502 -0.58308244 0.4124803
-0.04131016 -0.099711776 0.6780734 0.70231885 -0.1547246 0.35704714 0.5906703 0.4883681
0.501977 -0.37616482 -0.7144583 -0.65800965 0.62917846 -0.56614256 -0.5754246 -0.47001287
0.52323663 0.1652605 -0.37534836 0.14511812 -0.6588868 0.10934198 0.40676266 0.40784472
-0.07493454 -0.3830498 0.26233009 -0.050795317 0.06473239 0.69679433 -0.48501354 0.18519646
-0.3542213 0.4205895 0.22814375 -0.22196063 0.2681173 -0.06488097 -0.6892337 0.21856469
-0.8803798 0.6528377 1.2250779 0.4815858 0.37094173 -0.5424442 0.45107007 0.05833924
0.29215953 -0.10991293 -0.63193893 0.37287277 0.31853372 -0.5590985 0.2155323 -0.016718388
-0.1858919 0.56758255 0.41479015 0.52743345 -0.47933906 -0.27423564 0.061781704 0.49843496
-0.60041934 -0.2538685 -0.057696402 0.11952406 0.39383018 0.4994412 0.03327115 -0.22495577
0.60359114 0.27338475 -0.37814304 0.15586472 0.30009705 -0.30812937 -0.31634066 -0.04073274
-0.05109549 -0.53171694 0.54171354 -0.19102335 0.6405688 0.13180542 -0.09226066 -0.41501638

fc_1.bias f4 [128]
00000000: d4b4 a33d 2f90 8dbe f9f9 2e3f 0806 5fbe
00000010: 950d 97be 6f01 c43e 60d0 e53e 57a6 8e3e
00000020: 14cb 7cbe 85d8 833d 8cbf 04bf a2c7 e4be
00000030: a78f 683e b25a 533e 6791 0d3f 6084 b9bd
00000040: bacf 2b3a 0a69 753e b882 f6be 9d9b 803e
00000050: d892 c33c 4cd5 1ebf ee28 16bf 2d63 cf3d
00000060: cdeb 743e 5792 b0be 7bae 263a 2564 3dbe
00000070: dddd 683e 82d8 a6be 1478 2b3f 7e9c 263f
00000080: 301e 003f a067 18bf 6d09 4fbe 52f0 32ba
00000090: 0e6c 7f3e 7dfe ae3e c09c f7bd 9762 183f
000000a0: a0ff 59be d019 063d afcc 9e3d 7a36 d33e
000000b0: 1552 2fbf fd9e e43b 9cff 16bf bb85 2fbf
000000c0: fc1a 8fbe 30cc 7a3a df91 863e c12d f83e
000000d0: 9c9f ac3e 4706 02bf c714 1c3e ce75 243f
000000e0: def3 203f 8446 c13e fbd5 16bf 3d8a 743e
000000f0: 674f babe 1f77 2eb8 88c2 e23e 71eb 0e3f
00000100: 1263 e13e b763 23bf 093a 19bf 112d a2be
00000110: 610e 09bf 4441 a0be 38c1 f63e b4c0 9dbe
00000120: 8847 84bd 6dab 27bf f62c a1be 190b d83e
00000130: 1abd 173f 815e b53c 2426 22bf db90 0cbf
00000140: 1883 9d3d ed27 b23e 9549 0fbf ac94 bb3e
00000150: 428d 153f 3b87 da3b 0e71 b6be d76d 853a
00000160: e1d8 2e3f 2b12 033e 1c84 ae3e 360e 2abf
00000170: 3153 2b3f c88b a3bd 54f6 b9be f6c5 193f
00000180: fa7a cbbe a844 f73e 0ca5 683e 335d 9dbe
00000190: 4f12 a63e 62b9 06bf 6648 263b 2bdf 32bf
000001a0: eae1 cc3d 90e0 3ebf f747 3abe 9c9f 3a3c
000001b0: c5b0 903e 1312 8bbe b3b9 b6be 1256 d0be
000001c0: 3f36 c33e 5e19 e23e 1485 0dbf d006 8cbe
000001d0: 38fe 3a3d 7e7b 88be d797 0b3e 07fa ac3e
000001e0: f290 97be 96fc 22bf 6f98 083c 0726 19bf
000001f0: 87d8 123f d039 f3be 788e f4be 6067 ebbc
0.079934746 -0.27649066 0.6835018 -0.21779644 -0.2950255 0.38282344 0.4488554 0.27861282
-0.24686843 0.06437782 -0.5185478 -0.44683558 0.22711049 0.20640066 0.5529999 -0.09058452
0.0006554086 0.2396585 -0.48146605 0.25118724 0.023873731 -0.62044215 -0.58656204 0.10126338
0.23918076 -0.34486648 0.0006358397 -0.18495233 0.22740884 -0.32587057 0.669801 0.6508254
0.5004606 -0.5953312 -0.2021844 -0.00068259716 0.24943563 0.34178534 -0.120904446 0.59525436
-0.2128892 0.03273946 0.07753884 0.412525 -0.6848462 0.0069769607 -0.5898378 -0.6856343
-0.27950275 0.00095671695 0.26283166 0.48472407 0.33715522 -0.5079083 0.15242301 0.64242256
0.6287211 0.37749112 -0.5892026 0.23880859 -0.36388704 -4.1595773e-05 0.4428904 0.55828005
0.44020897 -0.6382403 -0.5985418 -0.31675008 -0.53537565 -0.31299794 0.4819429 -0.30811083
-0.06458956 -0.6549595 -0.31479615 0.42195967 0.5927292 0.02213979 -0.6333945 -0.5490853
0.0769102 0.34796086 -0.5597165 0.36636865 0.5841867 0.0066689528 -0.3563313 0.001017983
0.6829968 0.127999 0.34085166 -0.66427934 0.66923815 -0.079856455 -0.36320746 0.6006769
-0.3974226 0.48294568 0.2271921 -0.30735168 0.32435843 -0.5262662 0.0025372743 -0.6987178
0.10004027 -0.74561405 -0.18191515 0.011390593 0.28259864 -0.27162227 -0.35688552 -0.40690666
0.38127324 0.4415998 -0.55281186 -0.27348948 0.0456526 -0.26656717 0.13632141 0.33784506
-0.29602772 -0.63666666 0.008337124 -0.5982365 0.57361645 -0.47505045 -0.47764945 -0.028735816

fc.weight f4 [1, 128]
00000000: 6431 02be e6b9 9abd cab0 563d d3b5 973d
00000010: f1be b23d 46ae 02bd cd07 91bc 4e1b 71bc
00000020: 90ac 27bd 93c1 bd3d 72b8 383f 0895 92bc
00000030: 56b5 463d 7191 473d 3dba 093d 5fcd aabd
00000040: 60ae 0a3e d439 6a3d 2a04 283d ca77 aa3d
00000050: 7435 d3bd 8a0d 783d 4b79 45bd d727 643d
00000060: 2c26 f3bc 15e5 933d c7e0 033e 9112 663e
00000070: ab8a 1a3c 61d1 4abd a666 95bc 5656 8e3d
00000080: eb4f 603d 60e3 833c 2ae6 9a3c ed49 a73c
00000090: 9610 41bd 6972 e73b 8706 29bd e155 133d
000000a0: 652d 8f3d 9b75 143a 37cc c3bd a4c1 afbd
000000b0: 93c8 5dbd a62a a43d 27cc 8f3d 40bb 653c
000000c0: f9f5 42bc 2b0e a23d 3146 893c 0cd1 a53d
000000d0: f410 a0bd a060 9ebc 4477 7bbd f7f3 90bd
000000e0: 7ce3 90bc 2e29 b8bd 3c38 b0bd 633c db3c
000000f0: 666c 253d c624 793d 71d5 9a3d 8bd8 42bd
00000100: 08cb a4bd 48fd b5bc d055 fabc ba08 2a3d
00000110: b0dc f7bb 9304 293d fc07 e8bc ba4f 35bd
00000120: cbca b0bd 4e27 86bd fb35 3f3e e391 50bc
00000130: 7245 3d3d 570b b33d b89e 2ebc d6cf 1b3d
00000140: 7912 4abd 26d5 393d 1d15 903d ea1a 28b9
00000150: c190 a03d 7a95 a03d f807 e1bc 3d37 983d
00000160: a5f9 253c bd1f 13be c1a8 b8ba 5376 963d
00000170: 92e1 6ebd 188d 31bc 603d 00bb 45e9 503d
00000180: 44f1 aa3c 4b2d 6d3d 839a 423d 8d95 b4bd
00000190: ed11 97bd 5e9d 7c3d 1272 093e 02d1 9dbd
000001a0: 9029 20be 5b09 893f b365 ef3d 31d9 083e
000001b0: ef0f b93d 342b 92bc 625e 243d 0c4f f63c
000001c0: d691 8cbd b9a3 d03c 12f8 05bd e072 0a3d
000001d0: f06b d5bc a0fc 993c 93eb c23d 69eb febc
000001e0: 7de3 2d3e e0a3 75bc ba52 e93d 2377 aabd
000001f0: fa61 4fbd 4ae5 253d e348 a5bd bb75 8a3d
-0.12714154 -0.075549886 0.052414693 0.07407727 0.087278254 -0.03190448 -0.017703915 -0.014715983
-0.040936053 0.09265437 0.7215644 -0.01789333 0.04851278 0.048722688 0.033624876 -0.08339953
0.13543081 0.057184055 0.041019596 0.08323629 -0.1031293 0.060559787 -0.048211377 0.055702057
-0.029681288 0.07221428 0.12878715 0.2246802 0.009432475 -0.049516086 -0.018237423 0.06950061
0.054763716 0.016099632 0.018908579 0.020420993 -0.04713496 0.0070631993 -0.04126599 0.035970572
0.0699108 0.00056632765 -0.09560435 -0.08581856 -0.05414636 0.08015947 0.07021361 0.014021695
-0.011899465 0.079128586 0.016757103 0.08096513 -0.078157336 -0.019333184 -0.061393037 -0.070777826
-0.017686598 -0.089922294 -0.08604476 0.026762193 0.04038658 0.060826086 0.07560242 -0.047569793
-0.08046538 -0.0222155 -0.030558497 0.04151223 -0.00756415 0.041264128 -0.02832412 -0.044265486
-0.0863243 -0.065504655 0.18672936 -0.012730095 0.046208806 0.08742397 -0.010657959 0.038040005
-0.049334023 0.04536929 0.07035277 -0.00016031755 0.078401096 0.078410104 -0.02746962 0.07432411
0.010130321 -0.14367576 -0.0014088379 0.07346787 -0.05832059 -0.010836862 -0.0019567832 0.051003713
0.020866998 0.057904523 0.047510635 -0.08817587 -0.07376466 0.061673515 0.1342242 -0.07705881
-0.15640855 1.070598 0.116893195 0.13364102 0.09036242 -0.017842866 0.040129073 0.03006699
-0.068637535 0.025468694 -0.03270728 0.03380096 -0.026052445 0.018797219 0.095175885 -0.031118112
0.16981311 -0.014992684 0.11392732 -0.08323505 -0.050630547 0.04050187 -0.08070543 0.067607366
