Model/003200_1947.pth (torch, 4687 bytes, 7 tensors)

lstm.weight_ih_l0 f4 [8, 5]
0	0x3f32912d	0.6975277
1	0x3f16fec7	0.5898251
2	0xbf127471	-0.57208925
3	0x3d6c9b20	0.057765126
4	0xbe9c169b	-0.30485997
5	0xbc2c0add	-0.010500637
6	0xbf135527	-0.5755181
7	0x3dcf2398	0.10114211
8	0xbe5acdbb	-0.21367542
9	0x3b6b3f16	0.0035895756
10	0x3efb07a6	0.49029273
11	0x3e6a2248	0.2286464
12	0x3e94c1a2	0.2905398
13	0xbdce06e0	-0.10059905
14	0x3f1ce62d	0.6128872
15	0x3e415400	0.188797
16	0x3ed9dfce	0.42553562
17	0x3d632200	0.055452347
18	0xbede5cae	-0.43430084
19	0x3eb0dc12	0.345429
20	0xbf3439e9	-0.70400864
21	0xbd35e4c0	-0.044407606
22	0x3e9b3d82	0.30320364
23	0x3e8f37cc	0.27972257
24	0xbede575b	-0.43426022
25	0xbeaa91db	-0.33314404
26	0xbf07ea78	-0.53092146
27	0x3e50b06a	0.20379797
28	0xbe8c9cab	-0.27463278
29	0xbb846bd9	-0.0040411768
30	0xbe96b76d	-0.29436818
31	0xbf1045e5	-0.5635665
32	0x3dd9feb8	0.10644287
33	0x3e836cfa	0.2566908
34	0x3f1de14b	0.61671895
35	0xbd8d517b	-0.06900307
36	0xbef9c30f	-0.4878163
37	0xbed4841a	-0.41507035
38	0x3e7efbe8	0.24900782
39	0xbbe11db9	-0.0068699983

lstm.weight_hh_l0 f4 [8, 2]
0	0xbe9c113c	-0.304819
1	0x3ed554d6	0.41666287
2	0x3ec32626	0.38115042
3	0xbe10b718	-0.14132345
4	0x3eaffcc2	0.34372526
5	0xbcf88ae0	-0.030339658
6	0x3ec5896a	0.385814
7	0x3e482364	0.1954475
8	0xbee8fe97	-0.45506737
9	0x3ee3bf82	0.44482046
10	0xbed7f2b1	-0.42177346
11	0xbe110f64	-0.14166027
12	0x3e2935d4	0.1652444
13	0xbf259b84	-0.64690423
14	0xbe3ab274	-0.18232137
15	0xbf1274a2	-0.5720922

lstm.bias_ih_l0 f4 [8]
0	0x3f328a7b	0.69742554
1	0x3ec015c0	0.37516594
2	0xbe216fac	-0.15765256
3	0x3e441a7c	0.19150728
4	0xbf26efd5	-0.65209705
5	0x3ebe552e	0.37174362
6	0xbf0d374f	-0.5516252
7	0x3ead367e	0.33830637

lstm.bias_hh_l0 f4 [8]
0	0x3eca673a	0.3953188
1	0x3e192e14	0.14958984
2	0x3ec7131a	0.3888176
3	0x3f0fa8a9	0.5611673
4	0x3e384e58	0.17998636
5	0x3f14680a	0.5797125
6	0x3e6212c4	0.22077471
7	0x3ebfe27c	0.3747748

fc_1.weight f4 [128, 2]
0	0xbe703d62	-0.23460916
1	0x3e1f0954	0.15530902
2	0x3eb63dae	0.35593933
3	0xbf0b6588	-0.544518
4	0xbec0cf88	-0.37658334
5	0xbdb5634f	-0.08856832
6	0xbd0c5200	-0.03425789
7	0x3dab89f1	0.083759196
8	0xbee4ffb1	-0.44726327
9	0x3f2a9fbb	0.6664998
10	0x3f13f90f	0.5780191
11	0x3dc4f695	0.09617344
12	0xbe08c568	-0.13356555
13	0x3e3e5324	0.18586403
14	0x3d4582a0	0.048220277
15	0xbf033aa9	-0.51261383
16	0x3cc6fb20	0.024289668
17	0xbe937ef3	-0.28807792
18	0x3f05384b	0.5203902
19	0xbeb37c49	-0.3505576
20	0xbf28da1c	-0.6595781
21	0x3e75c040	0.23999119
22	0xbe66414e	-0.2248585
23	0xbf1f51be	-0.62234104
24	0xbf2b4c92	-0.6691371
25	0xbdebf888	-0.11522013
26	0x3dc8a618	0.09797305
27	0xbe28ee0b	-0.16497056
28	0x3f2d3bf1	0.6766959
29	0xbd367e53	-0.044554066
30	0x3ea37ae6	0.31929702
31	0x3d2180e9	0.03942958
32	0xbf2514f0	-0.64485073
33	0x3f1d1e48	0.6137433
34	0x3e97a86a	0.29620677
35	0xbf606010	-0.8764658
36	0x3f0ae7c3	0.5425989
37	0xbeedc3ca	-0.46438438
38	0x3e9aded2	0.30248123
39	0x3f04e231	0.5190764
40	0x3dfa12e0	0.12210631
41	0xbf21280d	-0.6295174
42	0xbe0b9f80	-0.13635063
43	0x3f172e77	0.59055275
44	0xbe6778b2	-0.22604635
45	0xbf2d6bd6	-0.6774267
46	0xbecf96dd	-0.40544787
47	0x3f1effa8	0.6210885
48	0x3e0ecb34	0.13944703
49	0x3c91c924	0.017796107
50	0x3f29c505	0.6631625
51	0x3e928f04	0.28624737
52	0xbf005caf	-0.50141424
53	0xbf120933	-0.57045287
54	0x3ead1b0a	0.33809692
55	0x3eaf5b4e	0.34249347
56	0xbdee1d90	-0.11626732
57	0xbe9406b3	-0.2891136
58	0xbeb7c006	-0.3588869
59	0x3f1fa037	0.62353843
60	0xbf022ef2	-0.5085288
61	0xbeb05112	-0.34436852
62	0x3e74b564	0.2389732
63	0xbf28707f	-0.65796655
64	0xbd0b5f50	-0.034026444
65	0x3f16753d	0.5877264
66	0x3f0b063b	0.5430638
67	0x3f11513b	0.5676457
68	0xbe41b5a4	-0.18916947
69	0x3e956cc0	0.29184532
70	0xbe004688	-0.12526906
71	0xbecc6e4c	-0.399279
72	0x3dfd1dd0	0.12359202
73	0x3e77133e	0.24128434
74	0xbf1e4812	-0.6182872
75	0x3e525904	0.2054177
76	0x3e7036f0	0.23458457
77	0xbf05ef33	-0.52318114
78	0x3f126045	0.57178146
79	0x3ea1315e	0.31482977
80	0xbf09c189	-0.53810936
81	0xbedb9889	-0.42889813
82	0x3e51bb7c	0.20481676
83	0x3eedbcb8	0.46433043
84	0x3ef8bd1a	0.48581773
85	0xbeafee42	-0.34361464
86	0xbf346b20	-0.7047596
87	0xbe188c0b	-0.14897172
88	0xbf016a35	-0.50552684
89	0x3e9c1a3e	0.3048877
90	0xbeab1421	-0.33413795
91	0xbf2c820d	-0.6738594
92	0xbeadc3a8	-0.33938336
93	0xb984f800	-0.00025361776
94	0xbed44bce	-0.41464084
95	0x3ebb5a4a	0.36592323
96	0x3dc1b3b8	0.09458107
97	0x3c4e0353	0.012574035
98	0x3ecbd3ba	0.39809972
99	0x3f1fc767	0.6241364
100	0xbebe8ccd	-0.37216797
101	0xbdc0b138	-0.09408802
102	0xbf1651b3	-0.58718413
103	0x3f185e76	0.59519136
104	0x3ec2c01e	0.380372
105	0x3f3f1520	0.7464161
106	0x3e2fa9e8	0.17154658
107	0xbeb3a7f3	-0.35089073
108	0xbf106130	-0.56398296
109	0xbd3967b1	-0.045264903
110	0x3f256131	0.6460143
111	0x3f3439e9	0.70400864
112	0xbeb0d14f	-0.3453469
113	0xbd5d61e0	-0.05404842
114	0xbef588b3	-0.47955856
115	0xbe8b5099	-0.2720993
116	0xbf2bcd2b	-0.67109936
117	0x3ed271f3	0.4110256
118	0x3ea4303e	0.32068056
119	0x3cd65cdb	0.026167324
120	0xbf32f8da	-0.6991097
121	0x3dfce626	0.12348585
122	0xbe1f4004	-0.15551764
123	0xbf0c1dfe	-0.54733264
124	0xbf172a13	-0.59048575
125	0x3eb095d6	0.34489316
126	0x3f2f8eeb	0.6857745
127	0xbd861456	-0.065468475
128	0x3f064d27	0.52461475
129	0x3d90fc3e	0.070793614
130	0x3f1b1b3f	0.6058845
131	0xbef2071d	-0.47271052
132	0xbf057ceb	-0.52143735
133	0x3ec7b44a	0.39004737
134	0xbcbd6620	-0.023119986
135	0xbead40a3	-0.33838376
136	0xbe8f19e6	-0.27949446
137	0x3f12a268	0.5727906
138	0xbf0ffd95	-0.5624631
139	0x3cc1dc80	0.023664713
140	0xbf0e73d5	-0.55645496
141	0xbede2910	-0.43390703
142	0xbe04da34	-0.12973863
143	0x3e377d16	0.1791881
144	0xbe074240	-0.13208866
145	0x3dff8b7f	0.12477779
146	0x3e29b680	0.16573524
147	0x3e94c052	0.2905298
148	0xbf21f547	-0.6326489
149	0x3f35ed32	0.71065056
150	0x3f10ba1f	0.56534
151	0xbba324f9	-0.0049787727
152	0xbf248a2f	-0.6427335
153	0x3ee3a242	0.4445973
154	0x3e80cae0	0.2515478
155	0xbdd81960	-0.10551715
156	0x3c7bd440	0.015370429
157	0xbf3f48db	-0.74720544
158	0x3dbb9090	0.091584325
159	0x3f18e06e	0.5971745
160	0xbf1ab0d7	-0.60426086
161	0xbf3ed55b	-0.74544305
162	0xbefb1676	-0.49040574
163	0x3e6497b5	0.22323497
164	0x3eaff562	0.343669
165	0xbdfe17e8	-0.124069035
166	0xbe52e554	-0.20595294
167	0xbe0539fd	-0.13010402
168	0xbf1f74f0	-0.6228781
169	0x3f3049db	0.68862695
170	0xbe4fd740	-0.20296955
171	0x3ea3d6f9	0.3199995
172	0xbea0d5ab	-0.31413016
173	0x3df0a42a	0.11750062
174	0xbe955f4c	-0.29174268
175	0x3f26bd43	0.6513254
176	0x3e28a2d4	0.16468364
177	0xbe7add1e	-0.24498412
178	0x3f31ec49	0.6950117
179	0xbd64ad40	-0.055829287
180	0xbe58e10e	-0.21179602
181	0x3f298a0d	0.66226274
182	0x3f09f755	0.53893024
183	0xbeebae96	-0.46031636
184	0xbd09db30	-0.0336563
185	0x3eccb0a3	0.39978513
186	0xbc95d6c0	-0.018290877
187	0x3ee2ffc6	0.44335765
188	0xbd110440	-0.035404444
189	0x3e066c25	0.13127191
190	0xbe12106c	-0.14264077
191	0xbe40fb7e	-0.18845937
192	0xbf1ea30e	-0.6196755
193	0xbf1d4521	-0.6143361
194	0xbe212594	-0.15736991
195	0x3ece3ada	0.40279275
196	0x3f077697	0.5291533
197	0x3e39c66a	0.18142095
198	0x3d282dd0	0.041059315
199	0x3ec8659b	0.3914002
200	0xbecc2fe0	-0.39880276
201	0x3f4cd725	0.80015785
202	0x3e89166e	0.26774925
203	0x3dce6116	0.100771114
204	0xbf08b4f2	-0.534011
205	0xbea2194d	-0.31659928
206	0xbe560e3c	-0.20903867
207	0xbe8611cd	-0.26185456
208	0x3d8eb670	0.06968391
209	0x3f3a90dd	0.72877294
210	0x3efd679a	0.49493104
211	0x3ea137ce	0.31487888
212	0x3e03ddd4	0.1287759
213	0x3efef5b7	0.4979684
214	0xbd6606a0	-0.05615866
215	0xbca24a29	-0.019810753
216	0x3e67d3ac	0.2263934
217	0xbeb5018f	-0.35352752
218	0x3e297f14	0.16552383
219	0x3dc7adce	0.097499475
220	0xbe8b026b	-0.27150282
221	0x3e4e3124	0.20135933
222	0x3f06445f	0.52448076
223	0xbf337fad	-0.7011669
224	0xbe7e04be	-0.24806497
225	0xbcaf6c93	-0.021414077
226	0xbe8d82ce	-0.2763886
227	0x3f106af8	0.5641322
228	0x3e5cfaa4	0.21579987
229	0xbdaf3d22	-0.08556582
230	0xbf181cc7	-0.5941891
231	0xbebaac37	-0.36459514
232	0xbf3141e2	-0.69241154
233	0xbeeea833	-0.466127
234	0x3e89f07c	0.26941288
235	0x3daefb70	0.08544052
236	0x3e10b7dc	0.14132637
237	0x3b7ef6c5	0.003890441
238	0xbd1426c0	-0.036169767
239	0x3ea5e2e2	0.3239966
240	0x3f2e1e6f	0.6801519
241	0x3eda500e	0.42639202
242	0xbe2391bc	-0.15973562
243	0x3eb3eb74	0.35140574
244	0x3ac00000	0.0014648438
245	0xbded0972	-0.11574067
246	0xbf2ff383	-0.68730944
247	0x3f033c3b	0.5126378
248	0xbf04762f	-0.51742834
249	0xbe3db8d0	-0.18527532
250	0x3ed20b4a	0.41024238
251	0x3e9d9586	0.3077814
252	0xbf092510	-0.5357218
253	0xbe69268e	-0.22768614
254	0xbe9b887c	-0.30377567
255	0xbf026a74	-0.50943685

fc_1.bias f4 [128]
0	0xbdcbbe70	-0.099484324
1	0xbf0119e8	-0.50430155
2	0x3e8bf37c	0.273342
3	0x3ddbe44b	0.10736903
4	0xbeb96f42	-0.36217695
5	0x3ef2fe4b	0.47459635
6	0xbea7f9c8	-0.32807755
7	0xbf20e136	-0.62843645
8	0xbe8ae3ac	-0.27126825
9	0xbda948a0	-0.08265805
10	0x3d2bdc1f	0.04195797
11	0xbd46aff0	-0.04850763
12	0xbe00cb98	-0.12577665
13	0x3edcf04f	0.4315209
14	0x3e27b8b4	0.16379052
15	0x3e937061	0.28796676
16	0x3ea6d003	0.32580575
17	0x3d95c11d	0.07312224
18	0x3f19324f	0.5984239
19	0xbf23ec23	-0.6403219
20	0x3e7d2bb6	0.24723706
21	0xbdc134ca	-0.09433897
22	0xbeaa104a	-0.33215553
23	0x3f2dbac7	0.67863125
24	0x3e54f841	0.20797826
25	0x3ed5ddc2	0.4177075
26	0xbec684b7	-0.38773128
27	0x3f2d9de2	0.67819035
28	0x3ec91813	0.3927618
29	0x3ea636d5	0.3246371
30	0x3f1a9354	0.60381055
31	0x3e5302a9	0.20606484
32	0xbe855989	-0.26044872
33	0x379cf97f	1.871283e-05
34	0x3ea8948e	0.32925838
35	0xbee94e6a	-0.45567638
36	0x3e9c4561	0.30521682
37	0xbf25b0c3	-0.6472284
38	0xbef5edba	-0.48032933
39	0x3f12e338	0.5737796
40	0xbe4dc3a8	-0.20094168
41	0x3e08d621	0.13362934
42	0xbe5e229c	-0.2169289
43	0x3e83e0f6	0.2575757
44	0xbefc207f	-0.49243543
45	0xbe5b0b0c	-0.21390933
46	0xbe25dce0	-0.16197538
47	0xbf06d39e	-0.5266665
48	0x3f29a8b9	0.66273075
49	0x3de0ef9c	0.10983202
50	0xbeb7278e	-0.35772365
51	0xbdc2f6a8	-0.09519702
52	0x3f032b74	0.5123818
53	0xbc5c7540	-0.013455689
54	0x3ee8d38f	0.45473906
55	0xbeee064c	-0.4648918
56	0x3df838f3	0.12120237
57	0x3f119cec	0.5688007
58	0x3f18590c	0.59510875
59	0x3f0ec12f	0.55763525
60	0x3eb9d0d9	0.3629215
61	0xbcf0fa40	-0.029416203
62	0x3e8b6d98	0.2723205
63	0x3d90830e	0.07056247
64	0x3eb23cba	0.34811956
65	0xb9b96d3f	-0.00035367344
66	0x3f10fab4	0.5663254
67	0x3ee5f59b	0.44913945
68	0x3e01deba	0.1268262
69	0xbeaa733d	-0.33291045
70	0xbed3d52e	-0.4137358
71	0x3e238a36	0.15970692
72	0x38abf7de	8.200084e-05
73	0x3e3e998e	0.18613264
74	0x3ed43e88	0.41453958
75	0x3ca4e121	0.020126881
76	0x3ec380f1	0.38184312
77	0xbe2c7414	-0.16841155
78	0x3ed9146e	0.423984
79	0x3e8326fa	0.25615674
80	0x3ef0675f	0.46953866
81	0xbd560d0e	-0.052258544
82	0xbf272024	-0.6528342
83	0x3ebf97cc	0.374205
84	0x3a9194aa	0.0011106927
85	0x3f086153	0.53273505
86	0x3ead4e80	0.33848953
87	0x3ef9747c	0.48721683
88	0xbe5b6bc4	-0.21427828
89	0xbe9328cb	-0.2874206
90	0xbe3d0678	-0.18459499
91	0x3e8712af	0.26381442
92	0x3ec1862b	0.37797675
93	0xbeeeb74b	-0.46624216
94	0x3f18f057	0.5974173
95	0x3f331461	0.6995297
96	0xbea66ecc	-0.32506406
97	0x3f36f094	0.71460843
98	0x3deed5df	0.116618864
99	0x3ecf6fe3	0.4051505
100	0xbe8d6f32	-0.27623898
101	0x3e349301	0.17634203
102	0x3e592be3	0.21208148
103	0xbf1bf98d	-0.6092766
104	0x3f22e60c	0.63632274
105	0xbe367778	-0.17819011
106	0xbe81eadf	-0.25374505
107	0x3e976063	0.29565725
108	0xbf039ea2	-0.5141393
109	0x3c9bb1a2	0.0190056
110	0xbe8f876c	-0.28033006
111	0x3dc1bd04	0.0945988
112	0x3eeab78b	0.45843157
113	0xbe990e3e	-0.29893678
114	0x3f0aca94	0.5421536
115	0x3e3dff24	0.1855436
116	0x3e728600	0.2368393
117	0xbe2b6530	-0.16737819
118	0x3f028c59	0.50995404
119	0xbeb61404	-0.35562146
120	0xbddebe19	-0.10876102
121	0xbd28fd93	-0.041257452
122	0x3ecc304c	0.39880598
123	0x3e4258ab	0.18979137
124	0x3edbdae9	0.42940453
125	0xbec3bb0e	-0.3822865
126	0xbe2649cc	-0.16239089
127	0x3f13fe4a	0.5780989

fc.weight f4 [1, 128]
0	0x3d96b799	0.07359237
1	0x3cd003c4	0.02539242
2	0x3d5388c1	0.05164409
3	0xbd66bdf6	-0.056333505
4	0x3c9fe2b8	0.019517288
5	0x3d33fd49	0.043942723
6	0xbd56f07f	-0.05247545
7	0x3d4b5132	0.04963798
8	0x3d34b636	0.044119082
9	0xbda857cc	-0.08219871
10	0xbd94964f	-0.072552316
11	0x3cc5ef40	0.024161935
12	0xbd2018a0	-0.039085984
13	0xbc1f66e4	-0.009729121
14	0x3d0f88c4	0.03504254
15	0xbcd2e8dd	-0.025745803
16	0xbcbecbb9	-0.023290502
17	0x3e4fcb3c	0.20292372
18	0x3cf2415c	0.029572181
19	0xbd5646e1	-0.05231369
20	0x3d5efd46	0.05444076
21	0xbe07b11e	-0.13251159
22	0x3d8ef6c7	0.06980663
23	0xbda4cff3	-0.08047476
24	0x3c0b76e1	0.00851223
25	0x3d568975	0.052377183
26	0x3cda73f8	0.026666626
27	0xbd8402e4	-0.06445864
28	0x3ab22988	0.00135927
29	0x3d218d19	0.0394412
30	0x3d4f6380	0.050632
31	0xbd0c801b	-0.03430186
32	0xbf09cfc7	-0.5383267
33	0xbdcecdad	-0.10097823
34	0x3d111ae0	0.03542602
35	0xbd1e719f	-0.038682576
36	0x3ca8c4a2	0.020601574
37	0x3d23ca4e	0.039987855
38	0xbc5944e0	-0.01326105
39	0x3ca1e9e2	0.019764844
40	0x3cfd8f08	0.030951992
41	0x3c426481	0.011864782
42	0xbdb34a95	-0.0875446
43	0xbd4225a7	-0.04739919
44	0x3d59b426	0.05315032
45	0x3d7ce686	0.06174328
46	0xbb6254a0	-0.0034535304
47	0x3c4276a8	0.01186911
48	0x3bec847c	0.007217942
49	0xbdc96372	-0.09833421
50	0x3b22d280	0.0024844706
51	0xbdcded3f	-0.10055017
52	0xbce08355	-0.027406374
53	0x3d37493a	0.04474757
54	0x3da7ed17	0.08199518
55	0x3d44d35a	0.048053123
56	0x3c13534e	0.008992029
57	0x3d8b2cda	0.06795664
58	0xbd2f9868	-0.042869955
59	0xbd1b8fab	-0.03797881
60	0x3daf0156	0.08545177
61	0xbd29eb3e	-0.04148411
62	0x3d5704d1	0.052494828
63	0x3d098bad	0.03358047
64	0x3ba30dba	0.0049760016
65	0xbc1cc117	-0.009567521
66	0xbd50b33f	-0.050952192
67	0xbd4053ec	-0.046955034
68	0x3c62a8a2	0.0138341505
69	0x3cf545e4	0.029940553
70	0x3b1c44e0	0.0023844764
71	0x3d5d0159	0.053956363
72	0xbd356f92	-0.044295855
73	0xbca9c9f3	-0.02072618
74	0xbd5d4663	-0.054022204
75	0x3c89048e	0.016725805
76	0x3cf52b8c	0.029927991
77	0xbc914750	-0.0177342
78	0x3df3004b	0.1186529
79	0x3bec9669	0.0072200787
80	0x3df9c738	0.12196201
81	0x3cec4d14	0.028845347
82	0x3d2d00fe	0.042237274
83	0x3dcf1b9b	0.10112687
84	0xbe087ab2	-0.13328055
85	0xbcd18318	-0.025575206
86	0x3c20d84f	0.009817197
87	0x3d7d6e87	0.061872985
88	0x3d5bc642	0.05365587
89	0x3d87c769	0.06629831
90	0x3cbdb7ea	0.023158986
91	0x3d563502	0.052296646
92	0xbd912bd8	-0.07088441
93	0xbc289470	-0.0102892965
94	0x3d7597ba	0.05995915
95	0x3d8b1732	0.067915335
96	0x3d8cfd69	0.06884272
97	0x3d84a7e3	0.06477334
98	0x3cbb953e	0.022898313
99	0x3c12054b	0.008912395
100	0xbe8e9e24	-0.27855027
101	0xbd89f64c	-0.067364305
102	0x3ddc6014	0.10760513
103	0xbbc972e0	-0.0061477274
104	0xbd376816	-0.044777
105	0x3d7d21f2	0.06179995
106	0x3eefc7f3	0.46832237
107	0x3b039a14	0.0020080851
108	0xbd1fa7a2	-0.038978226
109	0xbbe13f32	-0.0068739885
110	0xbcc4c0d4	-0.024017729
111	0x3dbe3a45	0.09288458
112	0xbb896691	-0.004193135
113	0xbd11939f	-0.035541173
114	0x3d687c5c	0.056759223
115	0x3d30739d	0.043079007
116	0x3d8a450d	0.06751452
117	0x3d4f6dce	0.050641827
118	0x3d204329	0.03912655
119	0x3ca9febc	0.02075135
120	0x3d0834a1	0.033253316
121	0x3ce94714	0.028476276
122	0xbd0789e0	-0.033090472
123	0x3d1eb82f	0.03874987
124	0x3d27b4ed	0.04094403
125	0x3c51f1e0	0.012814015
126	0x3d631ad2	0.0554455
127	0xbd53095f	-0.05152261
