Model/003230_5264.pth (torch, 4687 bytes, 7 tensors)

lstm.weight_ih_l0 f4 [8, 5]
000000 29 13 05 3f c8 11 0c bf 33 4a 3c 3e 4d f7 01 be
       0.5198236 -0.5471463 0.1838768 -0.12691994
000010 83 b4 a2 bc d0 34 d6 bd b9 e1 7b be 5b bf 0b be
       -0.019861465 -0.10459292 -0.24597825 -0.13647215
000020 53 e1 20 3f a8 bd 4a 3e 18 ce bb bd 20 1e fb bc
       0.6284382 0.1979891 -0.09170169 -0.030654013
000030 18 14 f5 be 66 c5 c5 3e 9b fa 12 3f 2e 8d da 3e
       -0.47866893 0.38627166 0.57413644 0.42685837
000040 d4 44 be be b8 04 13 bf 91 15 30 bf c0 eb fa bc
       -0.37161887 -0.57429075 -0.6878291 -0.030629992
000050 a8 d3 bc bd 01 61 31 3e d1 00 a7 3e 02 97 82 3e
       -0.09220058 0.1732216 0.3261781 0.25505835
000060 21 a7 21 bd 3c 34 1b 3e 2c 65 09 3f df 82 be be
       -0.039466027 0.15156645 0.5367 -0.37209222
000070 04 0d c7 3d 4d da f6 3e 45 2a c0 be 85 07 11 bd
       0.097192794 0.48213425 -0.3753225 -0.03540756
000080 f1 b6 5c 3f ce 11 33 3d e0 59 37 be e8 47 52 be
       0.86216646 0.04371815 -0.17905378 -0.20535243
000090 58 4b 36 3f 11 4b 17 3e 75 66 92 3e a5 d9 85 3d
       0.71208715 0.1477473 0.28593794 0.06535653

lstm.weight_hh_l0 f4 [8, 2]
000000 8c 36 1a 3e ca f4 fa 3e e8 c0 19 3e 52 6a ec 3e
       0.1505987 0.49014884 0.15014994 0.46174866
000010 bd 4b 1d 3f 57 4a 20 bf 60 8e 6f bd cc dd 2b be
       0.6144369 -0.62613434 -0.05848539 -0.16783828
000020 f2 4c f4 3e 4b d8 c0 be 53 e5 82 be 9e 2d c0 3e
       0.47714955 -0.37665018 -0.25565585 0.37534803
000030 6d 8b 08 3f 50 b8 0a bf fe a2 f4 3e 5e 73 ab 3e
       0.53337747 -0.5418749 0.47780603 0.33486456

lstm.bias_ih_l0 f4 [8]
000000 21 23 d3 bd 08 43 09 be a6 a0 ae 3e 40 2b 19 bc
       -0.10309435 -0.13404477 0.3410694 -0.0093486905
000010 44 09 25 3f 72 b0 f0 3e 30 6d a8 be 5e 90 ba be
       0.64467263 0.47009617 -0.32895803 -0.36438268

lstm.bias_hh_l0 f4 [8]
000000 ff 64 58 3e f9 41 b6 be 93 9b 26 bf 18 36 c7 bd
       0.21132277 -0.35597208 -0.6508114 -0.097271144
000010 3e 23 bb 3e 43 f4 79 3e 0e bd b5 3d ec 07 ee 3d
       0.36550325 0.24409585 0.0887395 0.11622605

fc_1.weight f4 [128, 2]
000000 82 00 a5 bd 3e 8c 99 be 53 fa 26 3f 7c 2d 51 be
       -0.080567375 -0.2998981 0.65225714 -0.20427507
000010 be 5e f3 be fc 53 d6 3d 6e fc 12 bf 96 a2 5d 3e
       -0.4753322 0.104652375 -0.5741643 0.21644053
000020 7a 4c f2 be e0 52 ea be 08 1c 8c be ab 9c 08 bf
       -0.47323972 -0.45766354 -0.27365136 -0.53364056
000030 37 21 14 bf 9d 87 75 be 81 f3 26 bf 2d c8 29 3f
       -0.5786318 -0.23977514 -0.6521531 0.6632107
000040 d2 7a b0 3e ff 52 1a 3f d0 ae 97 bd 00 10 46 3b
       0.34468704 0.6028289 -0.0740639 0.003022194
000050 16 43 ab bf bf 3f 31 bf 98 26 88 3e 96 b9 92 3e
       -1.3379848 -0.69237894 0.26591945 0.28657216
000060 be 6c 2d 3f dd 2b 2f 3f 29 1c 9e bd 5e 8b e7 3e
       0.6774405 0.68426305 -0.07720215 0.45223516
000070 75 c7 d5 3d 81 64 eb be 2c b2 5f 3e ae 98 b4 3e
       0.10438434 -0.45975116 0.21845311 0.35272735
000080 eb ba 7f 3e 4b 57 5d 3d 34 8c 89 3e 8e 17 af be
       0.24973647 0.054038327 0.2686478 -0.34197658
000090 cf bc bb bd fb e6 14 3f cd a1 05 3f ce 53 b1 3e
       -0.09166872 0.5816495 0.52200013 0.3463425
0000a0 7b 6b 91 be 0d 54 ec bd f1 e5 2e bf c8 cb 83 3d
       -0.28402314 -0.11539469 -0.6831961 0.064353526
0000b0 bf 86 2a be b1 a8 c3 3e 30 b7 46 3f 16 98 3a 3f
       -0.16652964 0.3821464 0.7762327 0.72888315
0000c0 b8 e8 11 3e f8 24 08 3f 0b eb 65 3e f1 86 1d bf
       0.14248931 0.5318141 0.22452943 -0.6153403
0000d0 19 e5 c4 bd b8 56 c1 be 64 95 11 3f cc 71 28 bf
       -0.096140094 -0.37761474 0.56868577 -0.6579864
0000e0 fd 06 f9 3e 6d 36 ea 3e f5 49 1c bf 89 92 c4 be
       0.48638144 0.4574465 -0.6105035 -0.38393047
0000f0 96 99 2a 3f 45 6f 9b 3e 78 31 f9 be cb 88 0b 3c
       0.66640604 0.3035833 -0.48670554 0.008516501
000100 fb d5 14 3f 86 b6 c9 3e a7 77 0c 3f c9 3e 13 bf
       0.5813901 0.39397067 0.54870075 -0.5751768
000110 92 1d ef be cc 03 1b 3f 29 0a e5 bc f5 3d 17 bf
       -0.46702248 0.6055267 -0.027958946 -0.59078914
000120 02 06 6e 3e 1a 7c 28 3f fe 87 66 bd b8 90 3c 3f
       0.2324448 0.65814364 -0.056282036 0.73658323
000130 1f 47 24 bf d2 83 0d bf 96 fb e2 3e 62 b8 c9 3e
       -0.6417102 -0.55279267 0.4433257 0.39398485
000140 c0 e2 4b be 58 8f db 3d 90 ed 4e be 91 24 ab be
       -0.19910717 0.107207 -0.2020781 -0.33426335
000150 94 ea 3a 3f a4 63 1e 3f 2a 35 31 3f 08 59 24 3f
       0.7301419 0.6187079 0.69221747 0.6419835
000160 e8 04 f0 be 38 2e 09 bf 18 8c b0 3f 51 d4 37 be
       -0.46878743 -0.5358615 1.3792753 -0.17952086
000170 58 cb 7d be 42 30 c1 3e 6d b5 0f 3f f6 c9 99 be
       -0.247846 0.3773213 0.5613621 -0.30036896
000180 9b 34 bc 3e 27 2a 21 3f 63 b0 00 bf 3d 43 85 be
       0.36758885 0.62954944 -0.50269145 -0.2602786
000190 22 65 27 3f 06 c0 0d 3f e0 11 93 be c6 f0 e3 3e
       0.6538869 0.5537113 -0.28724575 0.44519633
0001a0 5f ad 09 be 23 d8 90 3e 87 59 f8 be 6e 9c b6 be
       -0.13445042 0.282899 -0.48505804 -0.3566622
0001b0 c0 e2 0e be c5 03 29 3f 05 1a 19 3f 81 e7 c0 3e
       -0.13953686 0.66021377 0.5980533 0.37676623
0001c0 d6 3a 0a bf ba 91 a3 bb 48 1f 19 bf 55 d2 27 bf
       -0.53996027 -0.004991737 -0.59813356 -0.65555316
0001d0 f5 94 06 3f b3 c2 0d 3f 2e da b3 3e 62 d6 e7 3e
       0.5257104 0.5537521 0.35127395 0.4528075
0001e0 22 43 03 bf 56 b4 73 be 71 68 94 be 53 22 35 3f
       -0.5127431 -0.23799261 -0.28985932 0.707555
0001f0 d4 e6 b6 3e cd d6 dc be 2e 1a d7 3e b0 f0 2b be
       0.35722983 -0.4313263 0.4201216 -0.16791034
000200 cb 18 03 3f ec ff 65 3d a9 28 29 bf be 57 87 3e
       0.51209706 0.05615227 -0.6607767 0.2643413
000210 0e 28 47 3e 06 7a e7 bd 68 6f 53 3e ed b1 29 bf
       0.19448873 -0.11302571 0.20647967 -0.6628712
000220 b0 af 51 3e 2f d0 2a bf dd 21 48 3e e0 07 a2 3e
       0.20477176 -0.6672391 0.19544168 0.31646633
000230 5a f9 f9 be a7 72 0b 3f 3b 43 a6 be 58 1a d5 bd
       -0.48823053 0.5447182 -0.32473168 -0.10405415
000240 68 2a d5 bd b9 39 3e be 7f 7a f3 3e 1d d6 d3 3e
       -0.10408479 -0.18576707 0.47554395 0.41374293
000250 1d 87 02 bf 4f a3 27 be ff 39 16 3f ac 85 7b bd
       -0.50987417 -0.16370891 0.58682245 -0.061406776
000260 f5 8b d2 be 81 bb 93 3e 02 6c e8 be 8e 7d c3 3e
       -0.41122404 0.28853992 -0.45394903 0.38181728
000270 cc 39 05 3d 23 c4 ab be 56 26 b9 bf 1c 54 f5 3d
       0.032525823 -0.33548078 -1.4464824 0.11978933
000280 20 c7 22 3e 80 90 67 3e 34 d3 d7 be a7 58 8e 3e
       0.15896273 0.22613716 -0.42153323 0.2780201
000290 22 a5 26 bf 50 ea c1 bd 57 2f 63 3d ce 00 1d 3f
       -0.6509572 -0.0946852 0.05546507 0.6132935
0002a0 6b fd a5 be 66 4c 5d 3e 3a 4d 90 be a1 e0 e9 bd
       -0.32419905 0.21611175 -0.2818392 -0.11419798
0002b0 e2 ae d5 3e 17 7f ca be 8a d6 0c bf c1 f7 f5 3e
       0.41734987 -0.39550087 -0.5501486 0.48040584
0002c0 a3 de ac 3e 37 93 1c 3f 11 a0 89 be 01 9c 2e bf
       0.33763608 0.6116213 -0.26879933 -0.68206793
0002d0 15 a3 26 3e 0d b3 60 3f f4 5c d9 3e 4f f4 81 3e
       0.16273148 0.8777321 0.4245373 0.25381705
0002e0 d0 c4 25 3d 10 ee 61 be ac 87 ec be 94 87 f0 3d
       0.0404709 -0.2206347 -0.4619726 0.117446095
0002f0 ac ee 7a be 49 43 b2 3e 0c c7 a7 be 3e 71 6c be
       -0.24505109 0.3481696 -0.32769048 -0.23090073
000300 b7 f3 12 3f a9 61 d8 be f3 f5 d9 3e 79 96 3c 3e
       0.5740313 -0.4226201 0.42570457 0.18416776
000310 c0 be db bd 78 7d 24 be bf e6 cd 3e 24 3c b4 3e
       -0.10729742 -0.16063488 0.40215108 0.35202134
000320 ea 3b 90 3e dd 5e 0e 3f 67 89 07 3f 7b 27 0c 3f
       0.2817071 0.556135 0.52944034 0.5474774
000330 7a a7 86 be f9 d2 26 bf 19 bb 17 3f d5 84 6a 3e
       -0.2629965 -0.6516567 0.59269863 0.22902234
000340 ef b0 bb be b6 a9 be 3e 62 00 e2 3e 08 99 c8 3d
       -0.36658427 0.37238854 0.44140917 0.097948134
000350 92 fb 31 3f 5f 2c d8 3e 6f af 50 3f aa 4e 01 3d
       0.6952449 0.42221352 0.8151769 0.03156916
000360 70 bf 29 3f 7a 21 fa be c9 17 96 3e 7b 1d 6b 3e
       0.66307735 -0.48853666 0.29315022 0.22960465
000370 0f b3 f3 be 2a ba 9b 3e 8c 83 38 be 50 4a 88 bd
       -0.47597548 0.3041547 -0.18018931 -0.06654799
000380 c4 6b 15 bf 4b 85 29 bf 65 7f 06 3f 58 ae 89 3d
       -0.5836756 -0.66219014 0.5253814 0.067227066
000390 e1 d1 19 3f 70 d4 34 3f 1e 5b 92 be 0a 27 f7 be
       0.60085875 0.70636654 -0.28585142 -0.48271972
0003a0 f4 c3 ff be 8e e9 5d be 1d 49 24 3f 35 12 28 3f
       -0.49954188 -0.21671125 0.6417406 0.6565278
0003b0 36 e0 d5 3e 13 25 e6 be aa 78 1e 3f 50 19 34 be
       0.41772622 -0.4495016 0.6190287 -0.17587781
0003c0 5c 51 0f 3e 18 51 1c bf 82 98 7b 3e 51 d0 3e 3e
       0.1399588 -0.6106124 0.24569896 0.18634154
0003d0 00 ed af be 04 8e 70 3e 2e 59 10 3e 2a ae fa be
       -0.34360504 0.23491675 0.1409652 -0.48961002
0003e0 0c 75 d3 3d 3d 2c f0 be 7b eb 41 bf 46 b6 d0 be
       0.10325059 -0.4690875 -0.7574994 -0.40764064
0003f0 5c 1e 8b 3e 88 2d 76 be 0f 35 87 3e e5 f8 66 3f
       0.271716 -0.24040806 0.26407668 0.9022353

fc_1.bias f4 [128]
000000 da d0 e9 3d 03 59 8c be 57 38 23 3f 33 7d 31 3f
       0.114167884 -0.2741166 0.6375784 0.69331664
000010 34 b9 55 be ab 92 b5 3e 6f b9 16 3f fe a5 1b 3f
       -0.2087143 0.3546346 0.588767 0.6080016
000020 a6 cc 09 bf 98 a1 dd bd 61 97 ee 3d ee d7 e6 be
       -0.53827894 -0.10821837 0.11649967 -0.45086616
000030 3f c7 24 3f 69 0f ef 3e 62 a3 0c 3e b5 b7 a8 be
       0.64366525 0.46691445 0.137342 -0.32952657
000040 63 4c f4 bc 8c 4c 2e bf 26 a7 89 37 5b 09 34 bf
       -0.02982158 -0.6808555 1.6409507e-05 -0.70326775
000050 d2 f5 13 3e 48 a8 ce be 0b a1 4f be 70 f5 db 3e
       0.14449242 -0.40362763 -0.20276277 0.4296069
000060 95 ef ec b8 a7 5c 00 3f 4e 9f bb 3e d6 ac 7e 3c
       -0.000112979826 0.50141376 0.36644977 0.015544137
000070 de c3 bd be 1a 87 e5 be 70 7f 3e bb 97 fb 20 3f
       -0.37063497 -0.44829637 -0.0029067658 0.62883896
000080 9d 5d e1 be 9b f1 2a bf 42 7b e1 be 80 06 05 3f
       -0.44016734 -0.6677491 -0.4403935 0.51963043
000090 ae cc 94 3e af 10 f5 3e 39 98 ad be d2 72 b2 be
       0.29062408 0.4786429 -0.339052 -0.34853226
0000a0 0a 39 e0 be d3 89 b2 be c7 02 ff 3e 10 78 0b bf
       -0.43793517 -0.34870777 0.49806806 -0.54480076
0000b0 68 c8 aa bd be 19 8b be 28 6a 9c 3e b2 7a 15 3f
       -0.08339006 -0.27168077 0.3054974 0.58390343
0000c0 bd b7 06 bc 04 a1 13 bf af 29 f7 ba ed 47 c6 3d
       -0.008222518 -0.57667565 -0.0018857027 0.096816875
0000d0 68 b1 30 3f 3e df 11 bf 5d f1 06 bf 21 bd a6 be
       0.690207 -0.56981266 -0.5271204 -0.3256617
0000e0 76 14 30 3e 13 5a c4 3e c0 cc 21 bf b6 51 08 bf
       0.17195305 0.3834997 -0.6320305 -0.5324968
0000f0 8c 92 64 be 01 67 26 3f e0 9d 6d 3c ba 38 05 bf
       -0.22321528 0.6500092 0.014502972 -0.5203968
000100 e3 b6 1f 3f d1 2d 1a bf 88 39 12 3f 4f ea 1b bf
       0.6238844 -0.6022616 0.57119036 -0.609044
000110 85 c4 08 3f cb 60 f1 3c fa fd 1b bf 89 5b 29 bf
       0.53424865 0.0294651 -0.6093441 -0.66155297
000120 19 e9 16 3f 80 90 ce b9 2d bb 58 3e 5f 12 2d be
       0.5894943 -0.00039399043 0.21165152 -0.1690154
000130 2c 23 08 3f 8f e1 1b bf ed 88 04 3f e3 10 31 3d
       0.5317867 -0.6089105 0.5177143 0.043228995
000140 08 58 3a be ba 17 a2 3e eb 5b 12 bf 56 ed 4c 3e
       -0.18197644 0.31658727 -0.57171506 0.20012411
000150 59 e8 1e 3e d1 a7 81 3e 26 c2 33 bf 09 14 f8 3b
       0.15518321 0.25323346 -0.7021812 0.0075707478
000160 ac ef c6 3c 21 9c 28 3f 29 42 0d bf 08 76 5c be
       0.024284206 0.65863234 -0.5517908 -0.215294
000170 bc 7b 37 be 2e b4 d3 3d 5a 52 0d 3f ec cc 79 be
       -0.17918295 0.10337101 0.55203784 -0.24394578
000180 97 ba ca 3e e6 45 0b 3f 93 81 92 be cc 81 ee 3e
       0.39595482 0.5440353 -0.28614482 0.46583402
000190 b1 73 fe be 27 42 b8 3b 03 98 f5 be 6c 78 27 3f
       -0.4969764 0.0056231203 -0.47967538 0.65418124
0001a0 7e cd 1f bf af 18 32 be fc 4e ae 3e a0 97 a0 bb
       -0.6242293 -0.17392229 0.34044635 -0.0049008876
0001b0 e1 b9 74 bd bc 45 16 3f 48 7e cf be b8 c4 fd be
       -0.05974758 0.58700156 -0.40526032 -0.49564147
0001c0 df 5c ab be 57 9e d2 be df 5c e3 bb 4a e9 92 3e
       -0.33469293 -0.4113643 -0.0069385613 0.2869361
0001d0 48 57 74 be dc f6 fd be 89 5a 1f bf 63 39 0a 3f
       -0.2386142 -0.496024 -0.6224752 0.53993815
0001e0 95 f2 e3 be 87 26 13 3f 15 60 dc be d9 87 c3 3e
       -0.44521013 0.57480663 -0.43042055 0.3818958
0001f0 99 27 da 3e d0 5e 16 3f d0 ed 56 bd a8 4b bf be
       0.42608336 0.5873842 -0.05247289 -0.3736241

fc.weight f4 [1, 128]
000000 f4 22 ac bd 80 fa c8 3b 9b 6a 09 bd ea 5a 64 3d
       -0.08405104 0.0061333776 -0.033548933 0.055750765
000010 fa 23 75 3d ad 2d 9c 3d 6c 85 9a bd 4d 47 79 bd
       0.059848763 0.076258995 -0.075449795 -0.060859013
000020 00 86 9a bd c0 c3 6b bb 39 29 08 be 10 e9 1c 3c
       -0.0754509 -0.003597483 -0.13296975 0.009577051
000030 a3 31 7f 3d 6c 23 7b 3d c3 79 bb 3d 5e 40 73 3d
       0.062303197 0.061313078 0.091540836 0.059387557
000040 26 b7 b2 ba 05 1e 2c bd 47 86 e1 bc e5 54 ad 3d
       -0.0013634905 -0.042020816 -0.027529849 0.08463458
000050 1e db 6e bd 09 f7 9f 3d 52 7c 67 be 9d 9a ca 3d
       -0.058314435 0.0781079 -0.22606018 0.098927714
000060 70 d8 db 3d 99 97 64 3d 92 f6 8a bc 5e 46 9f 3e
       0.107346416 0.055808637 -0.016963277 0.31108373
000070 28 4f b9 3e 81 f0 a8 3d aa 1f 01 3e b6 2c 99 bd
       0.36193204 0.082489975 0.12609735 -0.07479231
000080 07 48 ad 3d 00 fe c7 3a c7 23 c5 ba 4e ed 12 ba
       0.08461004 0.0015258193 -0.001504057 -0.0005604819
000090 16 a4 36 3d ad 4c a9 3c bf 89 9c bd 6c 6f b4 bd
       0.04459008 0.020666445 -0.076434605 -0.088103145
0000a0 70 8c 9b 3c 93 8f a3 3d 43 15 80 3d 15 7b 81 bc
       0.018987864 0.07986369 0.06254055 -0.01580576
0000b0 af 8f 81 bd 2a c4 8d 3e a5 ac cd 3c 41 6a b2 3c
       -0.063262336 0.27688724 0.025106737 0.021779181
0000c0 39 33 ae 3d 5a 00 b3 bd 1e 39 07 3e ce b1 bd bb
       0.08505864 -0.087403014 0.13205382 -0.0057890182
0000d0 45 b9 6a 3d 80 bb 7d bc 30 73 3c 3c ed fa 13 be
       0.057305593 -0.015486598 0.011502072 -0.1445119
0000e0 c8 75 aa bc 34 64 84 bd 45 67 9f 3d 6a 04 3f 3d
       -0.020808116 -0.06464425 0.07783369 0.04663507
0000f0 78 ee 35 3c 21 e9 8d 3d a6 9e 83 3d b9 83 56 bd
       0.011104219 0.069292314 0.06426744 -0.052371714
000100 fe bc 0c bd 0e 0b 4b bd 61 4c 4d 3c 58 a3 fd 3c
       -0.034359924 -0.04957109 0.012530417 0.030961677
000110 ec 31 42 bd 28 e3 4f 3c a6 27 71 3d e0 fa 8a 3b
       -0.04741089 0.012688436 0.058875702 0.0042413324
000120 0f f3 a1 bd 82 d5 46 3e 50 eb 97 bd f4 66 42 bd
       -0.07907688 0.19417384 -0.07417929 -0.047461465
000130 84 60 33 3d 14 52 85 bd 40 f4 8a bc af 99 3a be
       0.043793216 -0.06509796 -0.01696217 -0.18222688
000140 46 14 76 3d fe 3e 3a bd 54 ab d2 3c 0e 30 0b 3c
       0.060077928 -0.04547023 0.025716461 0.008495344
000150 f0 04 9e 3c 94 60 af bd 87 50 08 bd c0 bd 54 be
       0.019289464 -0.08563343 -0.03327992 -0.20775509
000160 10 43 27 bd 4e a0 8e bc 23 df c2 3f 27 0c a3 3e
       -0.04083544 -0.017410424 1.5224346 0.3184521
000170 6c 2c df 3c 80 da 75 bd ee 09 9b bd f8 56 12 bc
       0.027242862 -0.06002283 -0.07570253 -0.008931868
000180 e2 65 4b 3c 8c 60 6a 3d 30 1a ae bd b3 7d 81 3d
       0.0124144275 0.05722098 -0.085010886 0.06322803
000190 7d d5 03 bd 34 28 ef bb 77 fc 9f bd 06 db 33 3d
       -0.03218602 -0.0072984938 -0.07811826 0.04391005
0001a0 e6 58 3d bd 4e d9 80 bc 8b b2 1b 3c 26 dc 10 3e
       -0.04622736 -0.015728619 0.009503017 0.1414648
0001b0 cf cd 91 3d 95 d4 db bc e0 61 bb 3b 1c 79 8b bc
       0.07119333 -0.026834765 0.0057184547 -0.017025523
0001c0 b0 5a d6 3b b0 80 0e bd 04 44 05 3e f6 79 a3 bc
       0.0065415725 -0.034790695 0.13014227 -0.019955616
0001d0 13 68 31 bd aa 25 4f 3f 80 50 f0 3a d6 0d 99 3d
       -0.043312144 0.80916846 0.0018334538 0.07473342
0001e0 c6 6e 3a 3d eb e7 a8 bc f8 12 99 3c 6f 53 0f bd
       0.045515798 -0.0206184 0.018685803 -0.034991678
0001f0 69 57 a0 bd ef f0 7c bc d4 54 db 3c f9 62 af 3e
       -0.07829172 -0.015438302 0.026773848 0.34255198
