Model/003540_43.pth (torch, 4687 bytes, 7 tensors)

lstm.weight_ih_l0 f4 [8, 5]
000000 1d 50 08 3f 0e 48 aa 3c ec 8a 05 3e 00 96 b7 3e
       0.53247243 0.020786311 0.13041276 0.35856628
000010 49 a1 8e be 3b 4f fb bd 1e 54 0d bf 99 0d 25 be
       -0.27857426 -0.122709714 -0.5520648 -0.16118468
000020 0d 02 c8 be 77 9e c1 3d e3 fc 31 3f 08 ef 21 bf
       -0.39064065 0.09454053 0.695265 -0.6325536
000030 81 e9 ae be 36 33 ab 3e 5c 2d 7d be db e6 d3 be
       -0.34162524 0.33437508 -0.24724334 -0.41387066
000040 ad 5b dc be 08 62 8b be 28 26 b4 bd 08 cf cc 3d
       -0.43038693 -0.2722323 -0.0879634 0.100004256
000050 00 31 29 bf 57 a7 24 bf e7 a6 12 3f 1a 66 41 3f
       -0.66090393 -0.6431784 0.5728592 0.7554642
000060 76 01 e1 3c db b1 24 bf b4 e6 19 3f 29 63 59 be
       0.027466517 -0.64333886 0.6011765 -0.21229233
000070 5c 62 f9 bd eb b5 10 3f 24 6f aa be fc f8 dd 3e
       -0.12176964 0.56527585 -0.3328792 0.43354023
000080 17 b5 11 be 4a 17 02 bf 0a 9e 01 3f 7e d2 e0 bd
       -0.14229237 -0.50816786 0.50631773 -0.10977648
000090 eb cb f5 be 38 84 41 3e 5e 23 7e 3e c0 ea 96 be
       -0.4800714 0.18898094 0.24818179 -0.29475975

lstm.weight_hh_l0 f4 [8, 2]
000000 58 ed 38 3e 4d 0a 04 3f 17 ed 0b 3f 4c 4d 0f bf
       0.1805929 0.5157822 0.54658645 -0.5597732
000010 2b 87 0c bf f6 15 c4 3e a0 1d 1f bf 0f 2a 13 bf
       -0.5489375 0.38298005 -0.6215458 -0.5748605
000020 27 a6 03 3f 5c 5a 27 3e 9e aa f8 3e 0c e1 6e be
       0.51425403 0.16343063 0.4856767 -0.23328036
000030 f4 d2 3b be 78 47 88 bd 78 22 3a 3e 14 8b 1e bf
       -0.18342191 -0.066542566 0.18177211 -0.61930966

lstm.bias_ih_l0 f4 [8]
000000 c0 e4 1d 3d 7b b4 a2 3e b6 b6 ea 3e f8 da 8a 3d
       0.03854823 0.3177832 0.45842522 0.06780046
000010 9d d1 11 be 48 37 d4 be 16 48 68 3d 0e 5d 46 3d
       -0.14240117 -0.41448426 0.05670937 0.048428588

lstm.bias_hh_l0 f4 [8]
000000 ae f8 04 3f 76 e7 20 bd d8 c0 77 be 4a 18 a4 3e
       0.51941955 -0.03928324 -0.24194658 0.3204978
000010 cf e2 59 3e b2 62 14 bf 00 dd 2b bf ee ea 13 bf
       0.21277927 -0.579631 -0.67134094 -0.5778035

fc_1.weight f4 [128, 2]
000000 59 9c 0b 3f 43 b9 fc 3e b4 75 4c be d0 51 5d 3d
       0.5453544 0.49360093 -0.19966775 0.0540331
000010 c0 2f fb 3c c5 ba 05 3f 31 cd 22 3f f6 26 81 3e
       0.030662417 0.5223811 0.6359435 0.25225037
000020 69 f2 31 3f 5e 62 d3 3e b7 49 99 3c dd 35 4b 3e
       0.69510514 0.41285986 0.018711908 0.19844766
000030 93 4f 2a 3e f7 0c 10 3f 54 8a 22 3f b7 e7 da be
       0.16631918 0.5626978 0.6349232 -0.4275491
000040 63 0b 8d 3d 6e a4 9f bd d8 4c 82 3e af 8f 1a bf
       0.068869375 -0.07795034 0.25449252 -0.60375494
000050 8c 30 08 3f 16 b3 24 3e d2 f2 87 3e c4 eb 08 be
       0.53199077 0.16083941 0.26552445 -0.13371187
000060 ec ed 07 3e 8b 1c 19 3f e5 14 33 bf c9 36 94 be
       0.13274354 0.5980918 -0.6995376 -0.28948048
000070 d7 cb 2a 3f 9f 05 34 3f 1f d4 ff 3d 9c bc dc 3e
       0.66717285 0.7032108 0.12491631 0.43112648
000080 81 61 d3 be f6 65 08 3e 6d 9e 1d 3f c0 16 4d 3e
       -0.41285327 0.13320145 0.61569864 0.2002821
000090 d0 eb 3e 3d 62 d7 d1 3e e8 9d ae 3d 76 a3 0b bf
       0.046611607 0.40984637 0.08526212 -0.54546297
0000a0 18 55 21 bf 98 2a 92 3d 63 e9 0c 3f 66 6e 07 bf
       -0.6302047 0.0713703 0.5504362 -0.5290283
0000b0 1c 9d 2f 3f 28 12 86 3d af 48 98 be 9f d7 57 3e
       0.68599105 0.06546432 -0.29742953 0.21078347
0000c0 97 65 11 be 56 72 01 be 80 6b ef bd 04 a5 1c bf
       -0.1419891 -0.12641272 -0.11690426 -0.61189294
0000d0 79 ec 30 3f d1 de 34 be 41 47 07 3f c8 d0 00 bf
       0.6911083 -0.17663123 0.528431 -0.50318575
0000e0 6f 07 1c 3c 7b 41 f6 be f4 09 76 3e 63 6e 1f 3f
       0.009523257 -0.48096833 0.24027234 0.6227781
0000f0 3f 24 da bc f9 e7 f4 be 90 74 22 be ed a9 15 3f
       -0.026628612 -0.4783323 -0.15864778 0.5846241
000100 ee d9 04 3f 6c 39 e9 3e 79 43 f3 be 8e 30 3b be
       0.51895034 0.45551622 -0.47512415 -0.18280241
000110 c7 c7 34 3e 95 be 34 be ba 9a 62 be 04 30 2d 3e
       0.17654334 -0.17650826 -0.22129336 0.16912848
000120 c0 bf b0 3d 63 ef 25 3f 8b c3 16 3f 02 8a f4 be
       0.086303234 0.648184 0.58892125 -0.47761542
000130 40 94 b7 be 38 c4 23 bf 10 a6 4f bd a0 ba 5e 3d
       -0.35855293 -0.6397128 -0.05069548 0.0543772
000140 10 8d 75 3e 2d 76 0a 3f 16 56 ba be b0 fd 8f 3e
       0.23979592 0.5408657 -0.36393803 0.28123236
000150 da 98 42 3e 9e 32 06 3e f3 1d c7 3e c9 6c 1c 3d
       0.1900362 0.13105246 0.38890037 0.038189683
000160 33 ea f5 3e b0 ce 09 3f d0 e7 37 be e8 1a 47 3e
       0.48030242 0.53831005 -0.17959523 0.19443858
000170 4f ce 93 3d 6a f8 16 bf 75 78 33 3f 00 d3 a9 3d
       0.072170846 -0.589728 0.7010568 0.08292198
000180 8d 8e 2d bf 1a b2 d7 3e 71 44 a5 3e ca f5 2c be
       -0.6779564 0.42128068 0.3227878 -0.16890636
000190 66 9b bf be 0c e6 42 be 02 13 6d bd 75 63 de 3e
       -0.37423247 -0.19033068 -0.057879455 0.43435255
0001a0 fa d2 c4 3e f5 cb a2 be df d1 c5 be cd 58 11 3f
       0.38442212 -0.31796232 -0.3863668 0.56776124
0001b0 14 29 2e 3f af f4 a6 3e 88 0c c7 bd 2c e9 04 bf
       0.6803143 0.32608554 -0.09719187 -0.5191829
0001c0 2e 85 3e be 98 39 9d be a5 e6 0f bf 5d 1c 22 3f
       -0.18605492 -0.30708003 -0.5621131 0.6332453
0001d0 f1 94 90 be 28 ac 9e be cc 12 bb 3e 98 42 c0 be
       -0.28238633 -0.3099072 0.36537778 -0.37550807
0001e0 59 96 78 3e 3f 4b c5 3e 92 02 d8 3e fb 2f 26 bf
       0.24276103 0.3853397 0.4218946 -0.6491696
0001f0 22 6e e0 3e 0a 98 32 be 86 9c f3 3e a0 34 e0 3c
       0.43834025 -0.17440811 0.47580355 0.027368844
000200 68 ae 3d bd 6a 89 8d 3e 05 96 2c 3f 48 20 36 3e
       -0.046308905 0.276439 0.6741641 0.17785752
000210 ff 3f 0c 3f 72 15 ef 3e 93 34 28 bf 8b 5c 05 bf
       0.5478515 0.4669605 -0.6570522 -0.52094334
000220 99 a8 f9 be a9 d4 ae 3e 60 c7 d1 3d bc b6 bf be
       -0.48761442 0.34146622 0.10243106 -0.37444103
000230 e0 bd 48 3d 47 9f 0f bf 84 90 d3 3e 52 78 2e bf
       0.049009204 -0.5610241 0.41321194 -0.68152344
000240 ce 7b db 3e ae 18 81 be 28 6a 2d 3e 28 cf 15 3e
       0.42867893 -0.25214142 0.16935027 0.14629805
000250 97 73 81 be 0e d4 25 3d c8 b9 b8 3e ea 80 2a 3f
       -0.252835 0.040485434 0.3607924 0.6660296
000260 90 c2 0f 3d b8 e3 ac be 0e a9 8a 3e 80 e0 95 be
       0.03509766 -0.33767486 0.27082103 -0.29272842
000270 19 69 b4 be 1f c8 10 3f a1 83 15 bf 55 d9 34 3f
       -0.35236433 0.5655536 -0.58403975 0.7064412
000280 ab 19 31 bf 48 ee 7f 3e 31 a4 f5 3e 58 e3 1d be
       -0.6917979 0.24993241 0.4797683 -0.15418756
000290 ef 06 12 be ee c8 cd be ef 43 2d bf 63 c4 27 bf
       -0.14260457 -0.4019236 -0.67681783 -0.6553404
0002a0 b7 74 6f be 02 1f 69 be 50 ce 74 3d 84 c3 1d bf
       -0.23384367 -0.22765735 0.059767067 -0.6162646
0002b0 71 b5 6f 3e 01 12 b9 be 1c f5 c7 3e 56 24 0e 3e
       0.23409058 -0.36146548 0.3905419 0.13881049
0002c0 60 0b a6 bd a4 e2 66 3e b3 dd 00 3f 20 c6 76 bd
       -0.08107638 0.22547394 0.50338286 -0.06024754
0002d0 07 58 95 3e cd ea e8 3e bc 11 b4 3d e3 bb 16 3d
       0.29168722 0.4549164 0.08792445 0.036800276
0002e0 84 67 42 be e8 d0 0a be 5c 42 25 3f a7 d4 28 bf
       -0.189848 -0.13556254 0.6455438 -0.6594948
0002f0 bd 34 36 3f d4 15 20 bf 18 5f a8 3d 56 b1 cd 3e
       0.7117422 -0.6253331 0.08221263 0.4017436
000300 d5 d0 2d 3f a3 02 d7 bd 73 05 99 be af 4a e1 3e
       0.6789678 -0.1049855 -0.2988697 0.44002292
000310 9a 6c 0f bf 1c 8a 82 be 8d bf 2d be 07 5f 27 3f
       -0.5602509 -0.25495994 -0.16967602 0.65379375
000320 94 3d 24 bf 92 bf a3 3e 0c 68 37 be a1 a1 23 bf
       -0.6415646 0.31982094 -0.17910784 -0.639185
000330 3e 48 16 3e cd cb 16 bf 56 7d d1 3e 14 f3 4b 3e
       0.14675996 -0.58904725 0.40915936 0.19916946
000340 c2 80 eb 3e e0 58 30 3e fd cd ee 3e 11 ff f1 be
       0.45996672 0.17221403 0.46641532 -0.47264913
000350 b6 30 8f 3e 94 ff 34 bf 26 c4 d7 3e 5e 0a d8 be
       0.2796685 -0.7070248 0.42141837 -0.4219541
000360 70 38 78 be 00 f4 fa ba b7 3c 02 bf 28 d5 3d be
       -0.24240279 -0.0019146204 -0.50873893 -0.18538344
000370 2a 5f b1 3e a0 c0 ec bc 28 58 1e bf 4d 25 34 be
       0.34642917 -0.028900445 -0.61853266 -0.17592354
000380 f0 66 72 be d0 72 ad be 01 d4 b4 be f5 73 ab 3d
       -0.2367208 -0.33876657 -0.35317996 0.083717264
000390 d7 f4 ae bd 22 20 83 bd 79 6c 10 3f 1d 0b 1d 3f
       -0.08542793 -0.06402613 0.56415516 0.6134508
0003a0 fd bc 2a bf bd 6b b3 bd b8 5a cd be ac ec 69 3e
       -0.66694623 -0.08760784 -0.40108275 0.2284419
0003b0 00 7a ae 3d 20 34 1f 3e f5 ee df be 70 94 86 bd
       0.085193634 0.15547228 -0.43736997 -0.06571281
0003c0 4c 71 42 be c0 ba 0b bd 38 a6 c0 3e 45 7a 2d bf
       -0.18988532 -0.034113646 0.37626815 -0.67764693
0003d0 59 46 08 bf 90 a4 35 bf 70 81 0e bf d0 0a 94 be
       -0.5323234 -0.7095423 -0.55666256 -0.289145
0003e0 4b 4f fd be ae e0 81 be 23 6e 0e bf 4e 64 b5 3e
       -0.49474558 -0.2536673 -0.55636805 0.3542809
0003f0 67 8b 93 3e 4a b4 92 be c0 b7 93 3c a0 8a a0 3c
       0.28817293 -0.28653175 0.018031955 0.019597352

fc_1.bias f4 [128]
000000 29 c1 ad bc 09 7a 8e be 40 40 d4 be 1c 50 90 be
       -0.02121027 -0.2782748 -0.4145527 -0.2818612
000010 42 af 55 be 1a 57 eb 3e 75 f6 35 3d 50 bf 5a 3e
       -0.20867637 0.4596489 0.044424493 0.21362042
000020 00 df 2c 3f 5b d1 c6 be 9c aa c9 3e 5f 69 bb be
       0.6752777 -0.388316 0.39387977 -0.3660383
000030 1c 73 b4 3e 33 7e d2 3e 92 08 27 3f a9 67 16 3f
       0.3524407 0.41111907 0.6524745 0.5875192
000040 ca d9 e7 3d 44 0b 11 be fe 2a d8 be 7c a7 15 be
       0.11320837 -0.14164454 -0.422203 -0.14614671
000050 61 92 13 bf 06 dd 0a bf 2b 8a b4 3d 79 3c 36 3f
       -0.5764523 -0.54243505 0.08815416 0.71186024
000060 67 3f 1e 3f 70 39 4d be 7c a7 a7 3e 20 a1 f9 bd
       0.61815494 -0.20041442 0.32744968 -0.12188935
000070 37 a6 1f 3c 77 a4 1b bf 31 d0 20 3f 2b 40 06 3f
       0.009744219 -0.6079783 0.62817675 0.5244166
000080 c1 11 18 3f c0 6a be 3e 52 8d 47 3e f7 11 dd be
       0.5940209 0.3719082 0.19487503 -0.4317777
000090 3b d6 9a be d6 02 81 be 00 71 d7 bd 20 89 d6 be
       -0.3024157 -0.25197476 -0.105196 -0.41901493
0000a0 4e a8 ac be 60 5a 21 be 4a 5b ff bc eb 67 65 bd
       -0.33722156 -0.15757132 -0.03117146 -0.056007307
0000b0 1b 9a fa 3e 58 86 8e bd 99 c5 34 3f 40 bc 3b be
       0.48945698 -0.06959218 0.7061401 -0.1833353
0000c0 7a 6f 84 bc bd cd 01 3e 04 2d c7 be 36 87 06 3f
       -0.016166437 0.12676139 -0.38901532 0.52550066
0000d0 b5 96 de be 22 8a bf be 2f 8d 13 3e 80 14 db bc
       -0.43474355 -0.37410074 0.14409326 -0.026743174
0000e0 21 95 11 3f a8 98 34 bf 7c ec 2d be 6f ed 08 3f
       0.5686818 -0.70545435 -0.16984743 0.53487295
0000f0 bb f6 88 3e 68 8f cf bd ca 25 1a 3f 5f 1d ac be
       0.2675074 -0.101347744 0.6021391 -0.33616158
000100 9b 38 2d 3f 50 e6 8a be 39 fa 00 bf 3d 30 f1 3e
       0.676645 -0.2712884 -0.5038181 0.47107115
000110 d8 61 4e 3d 18 a8 e8 bd 22 33 08 bf 51 bf 37 3d
       0.05038628 -0.11360186 -0.5320302 0.044860188
000120 78 21 03 be 38 cb c3 be ab 3d eb 3e 70 e6 0a 3f
       -0.12805736 -0.3824098 0.45945486 0.5425787
000130 d0 e5 58 3c d5 7b cd 3e 8d cd b6 be 20 e3 ff bd
       0.013238385 0.4013354 -0.35703698 -0.124944925
000140 e8 2b bf bd a4 e2 fd 3e 95 b9 8f 3d 28 96 46 3e
       -0.09334546 0.49586976 0.07017819 0.19393218
000150 9e 29 0c 3f 20 5d 3a bd 92 a7 2d 3f e7 5e fe 3e
       0.54751 -0.045498967 0.67833817 0.4968178
000160 18 6b 4f be f9 9a 13 bf d9 f0 93 3e 21 fc 95 3d
       -0.20255697 -0.57658345 0.2889469 0.073234804
000170 8e 3f ac be 6c d9 13 3f 8c 02 2d 3f 45 7d ac be
       -0.33642238 0.57753634 0.6758201 -0.33689323
000180 62 48 d7 b9 66 3d ea 3e 64 98 10 bf 0f 05 bf bd
       -0.00041061925 0.45749968 -0.5648253 -0.09327137
000190 b2 f8 16 bf 96 b3 fc be c0 39 8b 3d b8 70 78 be
       -0.5897323 -0.49355763 0.06798124 -0.24261749
0001a0 b3 f9 2e bf 6f d0 e4 3d 56 3a 5f be 64 1b 03 be
       -0.6834976 0.11172568 -0.21799597 -0.12803417
0001b0 d8 e2 7d be 97 1e 13 bf 22 e1 ba be 1e b5 18 3e
       -0.24793565 -0.5746855 -0.36499888 0.1491284
0001c0 e0 b0 08 bd 35 54 09 3f 25 8a 96 3e b7 95 2d bf
       -0.033371806 0.53644115 0.2940227 -0.6780657
0001d0 41 c0 a1 3c ac 7b 00 3f c4 3e ec be 79 84 82 be
       0.019744994 0.5018871 -0.46141636 -0.25491694
0001e0 23 09 12 bf 4a 30 b3 3c 9c bc 9e 3e 70 36 4c bd
       -0.5704519 0.021873612 0.31003273 -0.049856603
0001f0 86 a9 0c bf a0 3c 7a bd 9f fd 34 3e a4 56 20 bf
       -0.5494617 -0.061092973 0.17674874 -0.62632203

fc.weight f4 [1, 128]
000000 df b1 f6 bc d7 e8 6b bd 00 ae ca 3a 11 e4 a9 bd
       -0.030114112 -0.0575951 0.0015463233 -0.08295453
000010 00 c2 34 39 78 6f 55 bd 77 1b 8b 3c 64 79 bb 3b
       0.00017238408 -0.052108258 0.01698087 0.005721258
000020 08 9f 6e 3d ff fe 53 bd cf bf 89 bd 22 15 69 3d
       0.058257133 -0.051756855 -0.06726038 0.05690492
000030 e9 8d 82 3d 96 7e 48 bc 8b 70 05 3d 7e 70 81 bd
       0.063747235 -0.012237212 0.032578032 -0.06320284
000040 94 58 de 3d 64 3a f3 3c e6 99 0f 3d fc b1 d8 3c
       0.10856739 0.029690929 0.03505888 0.026452057
000050 c0 db 96 3a 1e a5 4c 3d 01 a5 c8 bc ce d6 b1 3d
       0.0011509582 0.049962156 -0.024492742 0.08683549
000060 0b e5 b4 bc 52 ca 4d 3d cf 80 f3 3c a2 3c 1b 3d
       -0.022081872 0.050241776 0.029724507 0.03789962
000070 9a 1e 5b bd 86 9c 17 3d 66 10 95 3d 54 c8 7c bd
       -0.05349598 0.037014507 0.072785184 -0.061714485
000080 ed 3e 3d bd 24 3c 84 bc cc 55 1c bd d8 40 0e 3c
       -0.04620259 -0.016141959 -0.03816776 0.008682452
000090 57 cc b2 bd 80 9d 0f 3a 72 82 36 3d 90 50 a2 bc
       -0.08730381 0.00054784864 0.044557996 -0.019813806
0000a0 62 14 2f 3d b1 94 87 3d d5 3b 88 bc 23 b8 8f bd
       0.042744048 0.066201575 -0.016630093 -0.07017543
0000b0 e4 b6 b4 3d ae 3d 66 bd f4 3c e0 3d c7 a4 9c bd
       0.08823946 -0.056211166 0.10949126 -0.07648616
0000c0 d7 86 ed bc 5c 11 58 bc 42 64 60 3d 25 13 8b 3c
       -0.02899496 -0.013187733 0.054783113 0.016976902
0000d0 80 e7 29 bc e1 02 86 3d 7a 8f dd 3d 60 39 7c bd
       -0.010370135 0.06543518 0.108183816 -0.061578155
0000e0 a8 6d fe 3b 9d 42 a4 bd 49 78 94 3d 26 ad 8e 3d
       0.007764537 -0.08020518 0.07249505 0.06966619
0000f0 3c 8d 27 bd 13 35 8f 3d a7 3d c4 3c ec 97 a4 bd
       -0.040906176 0.06992545 0.02395518 -0.08036789
000100 9b 50 85 3c bc 3f c4 3c 2b d5 87 bd 51 4a cb 3c
       0.016273787 0.023956172 -0.066324554 0.02481571
000110 02 37 14 bd f5 94 96 bd e8 ee 20 3c e7 09 ce 3c
       -0.036185272 -0.0735263 0.009822585 0.025151206
000120 a8 74 9f bd e5 a8 a2 3d 92 33 43 bd 61 ea 4e 3c
       -0.07785922 0.0794237 -0.047656603 0.0126291225
000130 0f 1d f4 bc 12 72 b9 3d dc 46 f1 bc 8c 3e f7 3c
       -0.029799012 0.0905496 -0.029452734 0.030181192
000140 c0 13 50 3b 99 74 89 bd 82 28 be 3d 91 4a 58 3b
       0.0031750053 -0.06711692 0.0928507 0.003300343
000150 41 ae 9a 3d be 90 60 3d 62 22 56 3d be b4 ff 3c
       0.075527675 0.054825537 0.052278884 0.031214114
000160 0d fc 86 3d ca a6 b3 bd 04 7e 1a bd 4f 94 6d 3d
       0.065910436 -0.08772047 -0.037717834 0.058002766
000170 25 1b 95 3d dc d8 24 3d cc 94 9c 3d 47 de 8c 3d
       0.07280568 0.040245876 0.07645568 0.068783335
000180 d0 a0 fa 3c 1d d4 15 bd 18 e8 9d bc 9a 4d 92 bd
       0.03059426 -0.03657924 -0.01927571 -0.071437076
000190 b5 e7 86 3d 80 98 1f 3b fc a1 be 3d 36 3f 1f 3d
       0.06587163 0.0024352372 0.0930824 0.038878642
0001a0 74 97 15 3d 0b cb a9 3c 88 44 12 bd 08 7c e6 3c
       0.03652139 0.020726701 -0.035709888 0.028135315
0001b0 b5 e0 84 bd 24 0d a5 3c 56 73 15 3d ba aa d7 bb
       -0.06488172 0.020147868 0.036486946 -0.0065816315
0001c0 4a 36 0d 3d c0 90 53 3c 19 68 80 3d b7 82 0b bd
       0.034475602 0.012912929 0.06269855 -0.034060206
0001d0 07 90 c5 bc e4 42 4c bd 40 82 04 bb b2 76 0b 3d
       -0.02411653 -0.04986848 -0.0020219237 0.034048744
0001e0 00 d1 36 bc 52 7e 3e 3d 1b 27 79 bc 56 e8 64 bd
       -0.011158228 0.046507187 -0.015207077 -0.055885635
0001f0 ae 38 66 3d 9b cb 8a 3d f6 19 82 bc d6 4d 36 3d
       0.056206398 0.06777116 -0.01588152 0.044507824
