Model/004870_40.pth (torch, 4687 bytes, 7 tensors)

lstm.weight_ih_l0 f4 [8, 5]
00000000: 1dcb ffbe 4858 3b3d 74e9 dd3d b9ab 753e
00000010: 48e3 d13d 1e4e fabd 5527 4c3e 0392 2ebf
00000020: b91a bebe b398 343e 80f6 aabc bfb7 eebe
00000030: e44e c1be a711 2c3f c032 b83d 573b 0f3f
00000040: 2b35 063f be51 f5be f879 39be 4093 903c
00000050: 207b db3e 1af5 363f 1a79 ca3d 0485 93be
00000060: 466c 19bf ed48 20be 183a 29bf ed0f 583e
00000070: 0d1e 233f 69c9 0ebf f36f 56bc c5b2 10bf
00000080: 1a01 e9be 5cea 953e 51e9 4e3e fe79 2c3e
00000090: 5403 cebc a6b2 46bd 4226 e53c b394 a93e
-0.4995965 0.04573849 0.10835543 0.23991288 0.102484286 -0.12221931 0.19936879 -0.68191546
-0.37129763 0.17636375 -0.020869493 -0.46624562 -0.377555 0.67214435 0.08994055 0.5594992
0.5242488 -0.47913927 -0.18112934 0.01764834 0.42867374 0.71467745 0.098863795 -0.2881242
-0.5993084 -0.15652819 -0.6610427 0.21099825 0.6371773 -0.5577608 -0.013088214 -0.5652278
-0.45508653 0.29280365 0.2020619 0.16843411 -0.025148071 -0.048510216 0.027972344 0.3312126

lstm.weight_hh_l0 f4 [8, 2]
00000000: cae5 0fbf 2128 0d3f b0f5 54be 877d 083f
00000010: b29c 8c3e b885 06be 9869 86be 7c63 06bf
00000020: d0ba b2bd c054 5b3c 500c 273e c980 113f
00000030: c948 cfbe 0e2c da3e e642 a93e ab0d 053f
-0.56210005 0.55139357 -0.20796847 0.5331654 0.274633 -0.13136947 -0.26252437 -0.5249555
-0.08727038 0.013386905 0.1631329 0.56837136 -0.40485218 0.42611736 0.33058852 0.5197398

lstm.bias_ih_l0 f4 [8]
00000000: 45f1 ae3c 32e9 b5be 6196 09bf deca f73e
00000010: b79a e4bd 9a5f 0abf 7c6c 0b3f 39cf 1d3f
0.02135528 -0.35529476 -0.53745085 0.48396963 -0.11162322 -0.54052126 0.5446241 0.6164432

lstm.bias_hh_l0 f4 [8]
00000000: 6d97 1c3f d9ea ce3e c802 c43d 47d2 0d3f
00000010: a7ef 6dbd 3ded 7f3e 9d58 d6be 8151 24bf
0.6116856 0.4041355 0.09570843 0.5539898 -0.05808988 0.24992843 -0.41864482 -0.64186865

fc_1.weight f4 [128, 2]
00000000: c9b9 a73c acfc b1bc bb25 993e 8474 d63e
00000010: 8945 053f f3b5 ec3e 7857 8a3e 54f6 ad3c
00000020: f305 ef3e 8e4f ebbe 803d 2dbd d618 e93e
00000030: c1f4 f23d fa1c 163e 303e 0d3f 1549 093e
00000040: 409d 703d f874 e4bd 98ca da3e 1bac a0be
00000050: 6b2c 03bf 165a 11bf 5d71 46bd f9d0 77be
00000060: 9dc4 aabe fed1 293f 05d4 273f dabf 9b3e
00000070: 4ff3 a83e 8403 fb3e a7e0 bcbe a245 02bf
00000080: 9430 60be 5cab 283f c3c1 c83e 01a4 2b3f
00000090: 386d db3d fad0 be3e f770 2abf 6609 27bf
000000a0: 208f 88be 5668 cd3d 3cfd aabe 2261 24bf
000000b0: 93e8 c8be beae fa3c d1ba 083f d01f 763d
000000c0: b274 cf3e 4ad0 cb3e 87fa d6bc 230b b4bc
000000d0: 786c 81be c8be 8cbd 3729 b53d f5cf 483e
000000e0: c21f c23e 16dc b03e 842e 00bf 631a 5ebe
000000f0: eb0d f03e b25d 1e3f 528a d6be 367b fdbe
00000100: 444e 93be b533 123f 9a89 15bf 5969 263f
00000110: 98a2 fa3d 4299 cf3e 8c08 1f3f cd90 cb3e
00000120: df7e ea3e 22ee f9be 8b85 2c3d 1678 b03e
00000130: 28a5 c1be 2bc8 dabc 7c6a 1bbf face 6f3d
00000140: 6a8c f83e 4053 d83c 1392 3e3e 4a7f 18be
00000150: b2d6 19be 2085 c43c 58fe 6b3e 4ea6 f2be
00000160: b582 2a3f 20c0 c83d 98b0 b6be 328e a63e
00000170: bcd5 69be 3c9f 05be 0652 c33e 5c4d 0c3f
00000180: 2ad4 d83e 5bac 03bf 885e 9abd 2271 2bbf
00000190: ad95 8d3e 6a04 573e cee8 91be 0223 a83e
000001a0: c859 81be 37af 8a3d 3b97 0fbf 1ffc cabd
000001b0: 13a2 e5be 0924 a9be 2f7d 02bf 0236 b0be
000001c0: b28b d03e bf13 d4be e04b 1eba 5ca9 913e
000001d0: dc78 7abe 20d0 243f f246 0cbf ef15 29bf
000001e0: 6779 133f 5c7e 1a3e d96e f63d 5638 d0bd
000001f0: 04bb 303e b72b 1f3f 0d58 33bf d64f f73e
00000200: d8de 0b3e 387c 0dbf 7a6e f3be f36e 13bf
00000210: 2a5d 31bf 51c8 c9be 43e8 04bf ea28 ecbe
00000220: 8dd4 6d3e be9c 983d 8230 953e 0049 a4bc
00000230: f63c cc3e f121 1b3f 9b2b da3e 29f5 103f
00000240: 1c96 95be 1917 e73d 78ea 1bbf f099 dbbd
00000250: af21 08bf 7c84 8bbd 3261 e63e 1de5 053f
00000260: 2a61 e43e 986a 08bf c808 0a3f 6ca9 71bd
00000270: 9821 c73e 702e 12bf 92d1 623e 6ab8 193f
00000280: d909 043f bff1 293f 6965 27bf e402 183f
00000290: f3bb fe3e d034 c8bd 68f7 6fbe 023d c23e
000002a0: 137d cfbe 30fd b73d 80fd f1bd 0638 9d3e
000002b0: f1eb 033f 04dc f13e f283 933e 5a7c 07bf
000002c0: 2c1a 28bf 12c0 1bbf 9f45 0b3f 0e2b 9abe
000002d0: 7376 d9be a8ec fe3d 9435 083e 1dae 91be
000002e0: 8110 c8be c71d 82be 8826 4b3e 5cd4 40be
000002f0: 5c74 013e 4872 1bbf f062 1cbd 5da5 19bf
00000300: 3c6a 023f 9721 a53e 6f14 e23d e040 243f
00000310: 0c41 03be 57f4 173f 3215 9a3e 7a23 e53e
00000320: 8e19 6a3d ede3 0ebf ecb2 263f 9ae6 303e
00000330: a391 0d3f 501f 003d 766e c23e 1068 1d3d
00000340: 76ae 9c3e 242e 7d3e 903c debe 9850 e43d
00000350: b982 16bf bfe1 12bf b23e cdbe 30ca 21be
00000360: d1f1 12bf c62d eabe f17c 20bf 505a aa3d
00000370: 22e5 e83e 9e11 9e3e a49e f13e e69b fcbe
00000380: 3dc2 0e3f ace4 53be 0c9a 9abe d87b fabe
00000390: 2937 a2bd af08 5f3e e659 973e 4cb3 91be
000003a0: d869 78be c0fb 6c3d 1469 96be 7538 1cbf
000003b0: b4e4 68be 8a03 1f3f fccb 62be 4cdc 333e
000003c0: 00f3 b23c 464b a53e 81e1 babe 5801 853d
000003d0: 9c2b 403e 38a2 d6bd 03a7 95be f39f ccbe
000003e0: 122c fe3e 9023 babe acdc 0bbf b059 0f3d
000003f0: 4195 f1be dc5b e43e d842 21bf acc8 e4be
0.020474331 -0.021726929 0.299116 0.4188577 0.5205923 0.46232566 0.27019858 0.021235622
0.46684226 -0.45959133 -0.04229498 0.4552676 0.11863089 0.14659491 0.55173016 0.13406785
0.058743715 -0.111551225 0.42732692 -0.31381306 -0.5123965 -0.56778085 -0.048447955 -0.2420081
-0.3335313 0.6633605 0.6555789 0.3041981 0.3299813 0.4902612 -0.36890146 -0.508875
-0.21893531 0.65886474 0.39210328 0.67047125 0.10714191 0.3726881 -0.6657862 -0.65248716
-0.26671696 0.10029666 -0.33396327 -0.6421071 -0.3923994 0.030600902 0.5341006 0.060088933
0.4051872 0.3980735 -0.026242508 -0.021977967 -0.25278068 -0.06872326 0.08845752 0.1961058
0.37914854 0.34542912 -0.5007098 -0.21689753 0.4688562 0.6186172 -0.41902405 -0.49508065
-0.2877065 0.5711015 -0.5841309 0.650045 0.122380435 0.40546614 0.62122416 0.39758912
0.4579992 -0.48814493 0.042119544 0.34466618 -0.37821317 -0.026706776 -0.6070936 0.058546998
0.48544627 0.026406884 0.1861041 -0.14892307 -0.15023306 0.02398926 0.23046243 -0.47392505
0.66605693 0.0980227 -0.35681605 0.3253036 -0.2283544 -0.13049024 0.38148516 0.5480554
0.42349368 -0.5143487 -0.07537562 -0.669695 0.27653256 0.20997778 -0.28497928 0.3283921
-0.2526381 0.06771701 -0.56090134 -0.099113695 -0.44850215 -0.33035305 -0.50972265 -0.34416205
0.4073158 -0.41421315 -0.0006038528 0.28449523 -0.24460167 0.64380074 -0.54795754 -0.66049093
0.5760712 0.15087265 0.12032861 -0.10166995 0.17258841 0.6217608 -0.7005623 0.48303097
0.13659227 -0.5526767 -0.47545224 -0.5759117 -0.6928278 -0.39410642 -0.51916903 -0.46124965
0.23225613 0.07451771 0.2913857 -0.02005434 0.3989026 0.60598665 0.42611393 0.56624085
-0.29216087 0.112837024 -0.60904646 -0.107227206 -0.531764 -0.06812379 0.4499603 0.52302724
0.4460538 -0.5328765 0.5391965 -0.058999464 0.38892817 -0.5710211 0.22150257 0.6004702
0.51577526 0.663845 -0.65389115 0.5937941 0.4975277 -0.09775698 -0.23434222 0.3793717
-0.40525112 0.089838386 -0.118159294 0.30706805 0.51531893 0.4723817 0.28811604 -0.5292412
-0.65664935 -0.6083995 0.5440311 -0.30110973 -0.42473182 0.12447482 0.13301688 -0.2845315
-0.3907509 -0.25413343 0.19838917 -0.18831009 0.12642044 -0.60721254 -0.03818029 -0.6001795
0.5094335 0.3225219 0.11039054 0.6416149 -0.12817782 0.5935721 0.30094296 0.4475363
0.057153277 -0.5581654 0.65116763 0.17275468 0.5530035 0.031279862 0.379749 0.03842932
0.30601853 0.24724633 -0.4340558 0.111481845 -0.58793217 -0.5737571 -0.40086895 -0.15799785
-0.5740023 -0.45738047 -0.62690645 0.08318007 0.45487314 0.30872816 0.47191346 -0.4933769
0.55765134 -0.206927 -0.30195653 -0.4892261 -0.07920677 0.21780656 0.29560775 -0.28457105
-0.24259126 0.057857275 -0.29377043 -0.61023647 -0.22743493 0.62114775 -0.22148126 0.17564505
0.021844387 0.32283992 -0.3650017 0.06494397 0.18766636 -0.104801595 -0.29228982 -0.39965782
0.49642998 -0.36355257 -0.54633594 0.034997642 -0.47184184 0.44601333 -0.6299262 -0.4468435

fc_1.bias f4 [128]
00000000: a6e8 183f 455c 303f 902c c23e 2fae e13e
00000010: 4dd9 ad3e d417 d1be 24a5 113f 4f9c fb3e
00000020: 70ac 4dbd 3e13 07bc a03b cfbc b4b3 ba3e
00000030: f8a4 bb3e 7f37 1f3f eb0b da3e 3f0b be3e
00000040: 2648 ee3e 2835 a0bd 3447 27bf 2003 033e
00000050: f12d 643e 469e ebbe f1d1 773e f38b 29bf
00000060: 583d 0bbe 6f4d 0c3e 19c2 273f 8e71 213f
00000070: af33 e8be a3ca 243e 3beb f63e 70a1 81bd
00000080: 759a be3e d13e 853e 1472 25bf 8ac7 0e3f
00000090: 0c53 0fbd 1434 223f 0916 123f 3322 3e3d
000000a0: 53cc 07bf f9de 1d3f dc55 083f c27f 1d3f
000000b0: d2d4 5fbe 76eb 8cbe 64c6 33be 2193 213f
000000c0: 1d0a d8be 3eb3 30bf 56f1 30bb e662 093f
000000d0: 3ee4 4b3e 9ce8 193f b1b9 31bf a37a 293f
000000e0: c8b2 1abe 0b69 473e 018b 0c3f a4f4 1ebf
000000f0: 8ea4 64be 4db2 fa3e 1c11 edbe 960d 9abe
00000100: 4163 07bf 33e2 ab3e 13fb 17bf 3f9a 353f
00000110: 2bae 273f 6053 ebbd 2e83 ddbe 76df 0a3f
00000120: 3be2 0e3e ecde 23bf 9dcb 1a3f 9017 06be
00000130: f8ca 6ebe cf1e a93e 9db8 a63e e9ca 293f
00000140: 630c 27bf 2f9f 0d3f 2d1d b33e 0040 59bd
00000150: fc07 1abe e419 21bf 0cf0 453e 17b3 133f
00000160: 3a0b 07bf 52ab dcbd a871 b7be 9ad6 0dbf
00000170: 5009 bdbd 40df f1be cd47 133f 6883 903d
00000180: b9b7 dc3d a358 b83e d8b7 6cbe 3c7e 48be
00000190: e678 343e ac92 e73e f08e edbe 2b4f c3be
000001a0: 8e0e 1fbf e424 f2be 73a7 96be 1dc1 83be
000001b0: 0f5d e4be c185 28bf b96d 31bf 9ab6 103f
000001c0: 8955 e6be cc4f 293f d1fb c23e a5d4 08bf
000001d0: 5648 19bf d985 34bf f939 133f 6cfc b8be
000001e0: 548a 38be 281d 0c3f 3017 3cbe 6f02 e7be
000001f0: 6ada 00bf 7c5f a6be 6139 773e ac33 c33e
0.59729993 0.6889079 0.37924623 0.44078204 0.3395485 -0.40838492 0.5689261 0.49142691
-0.050213277 -0.008244334 -0.025296986 0.36465228 0.366493 0.62194055 0.42587218 0.37117955
0.4653942 -0.07822639 -0.6534302 0.12794161 0.2228315 -0.4601919 0.2420118 -0.6622917
-0.1359762 0.13701414 0.65530545 0.63063896 -0.4535193 0.16092925 0.48226342 -0.0632962
0.37227216 0.26024488 -0.64627194 0.5577322 -0.03499131 0.63360715 0.5706487 0.046419334
-0.5304615 0.61668354 0.5325601 0.6152307 -0.21858528 -0.27523392 -0.17556149 0.63115126
-0.42195216 -0.690235 -0.0026999316 0.5366653 0.19911286 0.6012056 -0.6942397 0.66202754
-0.15107262 0.19473664 0.54899603 -0.6209204 -0.22328398 0.48964158 -0.46302116 -0.3008849
-0.52885824 0.33571014 -0.59367484 0.70938486 0.65500134 -0.11490512 -0.43264145 0.54247224
0.13953488 -0.64012027 0.6046694 -0.13094926 -0.23319614 0.33031318 0.32562724 0.6632524
-0.65253276 0.5532102 0.34983197 -0.05303955 -0.15042108 -0.6293013 0.19329852 0.57695144
-0.52751505 -0.10774864 -0.358289 -0.5540558 -0.09230292 -0.4724064 0.57531434 0.07056314
0.1077723 0.36005124 -0.23117006 -0.19579405 0.17624244 0.4522909 -0.46398115 -0.38146338
-0.62131584 -0.4729377 -0.2942463 -0.2573327 -0.44602248 -0.6582909 -0.6930805 0.5652863
-0.44987133 0.66137385 0.38082746 -0.5344947 -0.59876 -0.70516735 0.57510334 -0.36130083
-0.18021518 0.5473199 -0.1836822 -0.45119044 -0.50333273 -0.32494724 0.24142982 0.3812536

fc.weight f4 [1, 128]
00000000: 15e6 093d c22b a93c 5a04 16bd fc8e 8c3a
00000010: 777e b73b e1da 953d 292d 973c 2a64 7b3d
00000020: 133d b03d 1017 fc3d 98ce 843c 2909 d73c
00000030: 2ecc 75bc 5a5c c63c d2e9 89bd 85d2 49bd
00000040: 0ae3 2cbc 38d2 2dbd d01b 1ebc e5f1 c33c
00000050: 4815 42bd 8d10 ad3d 2bf4 e5bc 57ea 853d
00000060: 11cd 23bd d5fa 633d c811 39bc 26f2 afbb
00000070: a2af 633d 93cb f43b 2c58 a93c 049e 843c
00000080: d86e 5f3c 8c30 bc3d a8f5 983c ec27 30bd
00000090: eff7 ec3d 55a2 25bd 193a 163d 258e b93d
000000a0: 4cb5 113d 71c8 553d 95d7 893d 3a62 1abd
000000b0: 40b3 9d3a 2099 35bb 6624 573d d9ae 273d
000000c0: ca1e f2bc c019 49bc db41 eb3d 0b3f 20bd
000000d0: 6651 bbbb f35a 94bc 534e b03d 5f02 1a3d
000000e0: 7be4 05bd 77e4 51bd b9af b73c 80c3 463a
000000f0: b3b1 10bd f0c6 4bbd f05f a63b 42f1 553d
00000100: 7631 10bd 3699 73bc a206 013d 25fc d33c
00000110: b3f0 173d 0e01 5b3d 2864 86bd 06e7 6dbc
00000120: f1b7 723d c34d 83bd 3682 2c3d 2a36 0a3d
00000130: f718 883d dd59 fbba d06d 943d 8592 85bb
00000140: a6c8 21bd 2062 2bbd c895 883d 8dcb 9a3d
00000150: 1459 9bbd d167 853d 28b3 d03c e103 d3bc
00000160: 6d3d 4bbd a1d9 05bd dcc6 f7bc c068 02bc
00000170: 363d 8ebd ceda 88bd 228a 913d eecd 48bd
00000180: b724 1a3c 2503 443c d637 03bd e7b8 903d
00000190: 2e91 76bd b2e3 da3d 7b5f 833d 9854 0c3d
000001a0: 168b 6ebd 9c35 86bd 7eeb 6b3d 7e98 033d
000001b0: 15c4 58bd fece 96bd c16f af3d f6a8 7abd
000001c0: 4800 013c bc47 a93d 53db a03d f0ad ea3b
000001d0: af0f 14bd 9236 8dbd 962d 01bd 549a 02bd
000001e0: 4bea a13d 5983 dabc 00ca c3bc 176b 99bd
000001f0: d669 5e3d 9081 9dbc 7694 8dbd 71be 27bd
0.03366669 0.020650748 -0.036625244 0.0010723765 0.0055997926 0.073171385 0.018454151 0.06137482
0.08605399 0.12309086 0.016211793 0.026249485 -0.0150022935 0.024213959 -0.06734051 -0.049273033
-0.010552177 -0.04243681 -0.009650186 0.023919055 -0.047383577 0.084504224 -0.02807053 0.065388374
-0.03999049 0.055659134 -0.011295743 -0.0053694425 0.05558742 0.007470557 0.020671926 0.016188629
0.013637267 0.09188947 0.018671826 -0.043006822 0.11570727 -0.040438015 0.0366765 0.09060315
0.03557329 0.05219311 0.06730572 -0.037691332 0.001203157 -0.0027709678 0.052524947 0.040938232
-0.029555697 -0.012274206 0.1148717 -0.039122622 -0.0057164906 -0.018109774 0.08608689 0.037599918
-0.0326886 -0.05124327 0.022422658 0.00075822324 -0.035325717 -0.04975027 0.0050773546 0.052232035
-0.03520342 -0.014868071 0.031500466 0.025877068 0.037094783 0.053467803 -0.06562072 -0.014520412
0.05925745 -0.06411316 0.042116366 0.03374306 0.06645387 -0.0019176562 0.072475076 -0.0040763044
-0.039497994 -0.041841626 0.066691935 0.075583555 -0.0758535 0.06513942 0.025476053 -0.025758686
-0.049619127 -0.03267825 -0.03024619 -0.007959545 -0.06945269 -0.06682359 0.07106425 -0.049024515
0.009408168 0.01196364 -0.03203567 0.07066517 -0.060197048 0.10687961 0.06414696 0.034260362
-0.05823811 -0.06553194 0.05759763 0.03212785 -0.052921373 -0.073636994 0.08566237 -0.06119629
0.007873602 0.08265635 0.07854333 0.0071618482 -0.03614777 -0.06895174 -0.031537615 -0.03188546
0.07906016 -0.02667396 -0.023900032 -0.07491129 0.05430015 -0.01922682 -0.06913082 -0.040953103
