Model/006040_41.pth (torch, 4687 bytes, 7 tensors)

lstm.weight_ih_l0 f4 [8, 5]
00000000: 37ce 823e 4a99 223f 933d 08be 9119 a03e
00000010: ede7 9f3e 060d 613e cea6 1b3f 7425 eb3e
00000020: 390a 2f3f 573f c5bd 60a6 ba3d 5a44 db3e
00000030: 7c51 343e 4080 cfbd 6a09 e73e 8a89 f3be
00000040: 0088 d8be a02d 87bc f0fe 843d 165f b53e
00000050: 5681 20bf c7f0 8b3e afb4 243f a63b ad3c
00000060: 7474 3e3e 38ee d2be 9cfe d2bd 8ffc 0cbe
00000070: f20c 5cbe 92d6 a1bd 34c2 e5be a853 0b3d
00000080: e24e 083e 2957 12bf 65fa 903e 3c36 1c3f
00000090: 50c6 09bf e713 023f fc9d a0be c4a8 b23d
0.25547954 0.6351515 -0.13304739 0.31269506 0.31231633 0.21977624 0.608014 0.45927012
0.68374974 -0.09631222 0.09113765 0.42825586 0.17609209 -0.101318836 0.4512437 -0.4756587
-0.4229126 -0.016501248 0.06493938 0.35424107 -0.6269735 0.27332136 0.643382 0.021146607
0.18599111 -0.4119737 -0.10302469 -0.13768218 -0.21489313 -0.07902254 -0.44874728 0.034015328
0.13311341 -0.57164246 0.28316036 0.61020255 -0.53818226 0.5081162 -0.31370533 0.08723596

lstm.weight_hh_l0 f4 [8, 2]
00000000: a7c4 033f 754d b8be b442 2bbf 8016 b33b
00000010: fb4a 2b3f 12e6 b23e be59 f03e e05f 943e
00000020: 308e fbbd c82b a43d 9eeb 903e 3079 75bd
00000030: 8028 c33d a0c6 a2bc c8ea 4bbe 20a0 9ebd
0.5147194 -0.35996595 -0.66898656 0.0054653287 0.66911286 0.34941155 0.46943468 0.28979397
-0.122829795 0.08016163 0.28304762 -0.059930027 0.09529209 -0.019870102 -0.1991378 -0.07745385

lstm.bias_ih_l0 f4 [8]
00000000: 6d95 e53e 9163 cabb 1081 183e 050b 173f
00000010: 74d1 b2bd 6006 9a3e 632e a33e 7daf 01bf
0.44840565 -0.00617642 0.14892983 0.5900119 -0.08731356 0.3008299 0.31871328 -0.506584

lstm.bias_hh_l0 f4 [8]
00000000: fde5 123e c219 04bf 8079 9e3d d354 b8be
00000010: ef1d 11bf 3ef1 0d3f 9ad7 febe efe0 49be
0.14345546 -0.51601803 0.07738018 -0.36002216 -0.566863 0.5544623 -0.49773866 -0.19714712

fc_1.weight f4 [128, 2]
00000000: 1e3d b83e b7f1 96be 7321 7e3e 423e 6cbe
00000010: 8f8e bd3e 694c 06bf ccc4 0e3f 58b7 1e3f
00000020: 03e4 31bf d659 833e 104a 23bf 4811 f5bd
00000030: 0a99 293f 22e2 2d3f 0c11 09bf b834 893e
00000040: e03c 2dbf 78d5 34be a048 b5bd 83ed 0d3f
00000050: 8de4 2b3f b617 103f ec41 2abf 7cbf 14bf
00000060: 3566 17bf 9477 98be f0c6 163d a838 f1bd
00000070: 5fd8 06bf 0838 d2bd 8afd fa3e f22b 873e
00000080: 6164 213e d572 1c3e 99ad 07be 872e 34bf
00000090: af86 d0be 8a9d c63e c83e 8c3e 2db3 1b3f
000000a0: 44d0 4f3e d050 c5be 2244 2a3f 0554 f43e
000000b0: 9766 18bc eb74 2ebf dca0 2dbf 5b68 b2be
000000c0: ff1c 48bd 90ee 94be a07c 2d3f 73d0 ab3d
000000d0: ce5f 37be 471d 92be 6ae4 6ebe 09c1 22bf
000000e0: ac3b f9be bfe9 2cbf a40e c53e db12 2e3d
000000f0: 3e6d d6be 2bdc b43d c2d7 56be aa06 e33e
00000100: a31b 183f ab22 98be 94b6 763e b663 f43e
00000110: 8d53 6d3e dc03 be3e e8b6 bf3d 206d 30be
00000120: d656 f4be 3552 d43e 9fce efbe 153f 083d
00000130: dead 0a3f 7453 02be c067 21bc b0db 1f3e
00000140: d454 753e b705 183f be8f 13bf 6fcc 04bf
00000150: ba49 cabe db0f 0b3f 2ca5 ecbe 2bee 673e
00000160: 4dec 013e 2933 173f 765e 0cbf c6b8 ae3e
00000170: 7393 17bf edd6 e13e 326e e53e 2dcf 0c3f
00000180: 0cb8 28be 009c 16ba 9038 3cbd c410 2fbe
00000190: e0fe c0bd a9df 8ebe fa64 b83e a97f 11be
000001a0: 594c 2cbf 807e a6bc ff3a 243f 00d0 9f3d
000001b0: dbcd 19bf 8df1 cdbe 5000 6d3e ba27 093f
000001c0: 4088 1c3f 0d95 a7be 01f9 ab3e 89ef b43d
000001d0: e2bf 923e 072e 193f e4b0 683e 650b 223f
000001e0: a311 86be 5057 aebd 2b11 2b3f 70ec b53e
000001f0: fef2 f43e 3c7a 113f 62f0 b3be 548f b83e
00000200: fd2c 79be 492a 2dbf 4a1e ba3e 696d 98be
00000210: 687e d3bb 84df 02be f0a6 33be 367d f83e
00000220: 4cde 1bbf 8b53 20bd d835 7d3e 3ea1 ffbe
00000230: 8c38 32be 078c 223f 00ad 33bd db33 2fbf
00000240: e4d5 b83e fe7b 2e3e 895d 2abf fe6e ae3e
00000250: 828b 09bf 4892 04bf 4917 a3be cb96 ad3e
00000260: 6dfd 8dbe 59ca f83e 6096 853e 3111 aa3d
00000270: bf08 e8be f019 80bd eaea ccbe 2d04 053f
00000280: 9863 cebd aaa0 a5be a280 eb3e 527a 433e
00000290: 7649 903d 4f75 223f d87d df3e 3141 cc3e
000002a0: aeae febe 961b 85be 5d9e 09be 6f4f 603d
000002b0: 4fe4 923e 5f43 9ebe 5969 dfbe 3ca8 6abe
000002c0: 7c54 173f f4ba 1dbf 7862 4dbe fec6 9f3e
000002d0: 786f 9b3e 56f8 203f f116 06bf 9e6b efbe
000002e0: 5755 50be 387a 20bf 9148 1cbf 0a47 cb3e
000002f0: b221 ee3e e930 173f 6560 1e3f e081 583d
00000300: f2dd 0b3f ae36 eebe 8177 0fbf b6e5 ff3e
00000310: 4c75 e6be 8bde 343f 7151 bfbe fcaa 113e
00000320: c57d 963e c63d a5be daab e83e f236 be3e
00000330: 5ee6 b93e 66a0 ecbe 3ccb 98be 6cd5 7b3e
00000340: c5cf 2bbf 660b b73e 1415 273f 90fa e9be
00000350: e8d3 143e 609b 4dbd d036 69bd d018 19bd
00000360: e500 8fbe 30c8 13bd a423 c93d 117d d0be
00000370: 6414 1dbf 5a18 7abe 377a c4be 59bc 21bf
00000380: 4097 163f 2e4d 1abf 4bdd b3be e0e1 3abe
00000390: 63a2 21bf 2066 ef3d d88a e0bd 720a a63e
000003a0: a94a a23d 27b1 9abe 7a9e e13e 002b 72bb
000003b0: 0027 873e 5729 96be 6675 54be 0a8c d73d
000003c0: 769b 62be f8fc d93d ca46 883e 5015 14bd
000003d0: 00a8 30bc 3f55 1a3f f911 abbe 4e08 c43e
000003e0: 3c68 2a3e 3926 0d3f b5f2 e9be e47c fd3e
000003f0: 6c58 43be a0ef 0dbd a001 6d3d 9ef3 8d3e
0.3598413 -0.2948129 0.24817447 -0.23070624 0.37022826 -0.5246034 0.5576904 0.6199851
-0.69488543 0.25654477 -0.63784885 -0.11966187 0.66249144 0.67923176 -0.53541636 0.26798034
-0.6767101 -0.17659557 -0.08851743 0.5544054 0.67145616 0.5628618 -0.6650684 -0.5810468
-0.5914033 -0.2977873 0.036810815 -0.117783844 -0.52673906 -0.10264593 0.4902156 0.26400715
0.15760948 0.1527818 -0.13249816 -0.70383495 -0.40727755 0.38792068 0.27391648 0.60820276
0.20294291 -0.38538218 0.6651021 0.47720352 -0.009301803 -0.6814715 -0.67823577 -0.34845242
-0.048855778 -0.2908826 0.6776829 0.08389368 -0.1790764 -0.28537962 -0.2332932 -0.635758
-0.4867834 -0.6754417 0.38487732 0.04249845 -0.4188022 0.08831056 -0.20980743 0.44341022
0.5941717 -0.2971395 0.24093086 0.47732323 0.23176403 0.3711232 0.093610585 -0.17229128
-0.477225 0.4146897 -0.46837327 0.033263285 0.5417155 -0.12727147 -0.009851396 0.15611148
0.2395814 0.5938372 -0.5764121 -0.5187444 -0.39509374 0.5432107 -0.46219766 0.22649448
0.12687798 0.5906244 -0.54831636 0.34125346 -0.59209365 0.44109288 0.44810635 0.55003625
-0.16476458 -0.0005745292 -0.04595238 -0.1709624 -0.094236135 -0.27905014 0.3601454 -0.14208855
-0.67304 -0.020323992 0.6415252 0.07803345 -0.60079736 -0.4022335 0.2314465 0.5357624
0.611454 -0.32730904 0.33588412 0.0883475 0.2866202 0.5983586 0.22723728 0.63298637
-0.2618533 -0.08512747 0.6682307 0.3553195 0.47841638 0.5682714 -0.35144335 0.3604685
-0.24333568 -0.6764265 0.36351234 -0.29770973 -0.006454278 -0.12780577 -0.1754415 0.48533028
-0.60886073 -0.039142173 0.24727571 -0.49927706 -0.17404383 0.63494915 -0.043866158 -0.684385
0.36100686 0.17039487 -0.66548973 0.34069055 -0.537285 -0.5178571 -0.31853703 0.33904108
-0.2773241 0.4859188 0.2609129 0.0830406 -0.45319173 -0.06254947 -0.40022975 0.51959497
-0.1007759 -0.3234914 0.45996577 0.1908963 0.070452616 0.6346025 0.436507 0.39893487
-0.49742645 -0.2599761 -0.13439317 0.054763254 0.2868981 -0.30910775 -0.4363506 -0.22915739
0.5911329 -0.6161339 -0.20057094 0.31206506 0.3035848 0.6287893 -0.52378756 -0.46761793
-0.20345055 -0.6268649 -0.6104823 0.39702636 0.46510082 0.59059006 0.61865836 0.052858233
0.54635537 -0.46526092 -0.56041723 0.49979943 -0.45011365 0.70652074 -0.37366822 0.14225382
0.2939283 -0.32273692 0.45443612 0.37151295 0.3630857 -0.46216124 -0.29842556 0.24593133
-0.67113906 0.35750884 0.6526654 -0.45698977 0.14533961 -0.050197005 -0.05693704 -0.03737718
-0.2793037 -0.036079586 0.09821251 -0.40720418 -0.6135924 -0.24423352 -0.38374493 -0.6317802
0.5882454 -0.60274017 -0.3512977 -0.18250227 -0.6313841 0.11689401 -0.10963982 0.32429844
0.079243965 -0.30213282 0.4406622 -0.00369519 0.26396942 -0.29328415 -0.20747909 0.10524757
-0.22129616 0.10643953 0.26616508 -0.036153138 -0.010782242 0.60286325 -0.3341215 0.38287586
0.16641325 0.5513645 -0.45692983 0.49509346 -0.19076699 -0.034652352 0.057862878 0.27724928

fc_1.bias f4 [128]
00000000: f267 f8be 8759 053f f429 7c3d 6ff3 27be
00000010: a21d 1ebf 23e2 e2be b4e0 85bd 4ac6 1fbf
00000020: d734 26bf 2879 c9bd b612 d53e ffe3 21bf
00000030: 460f 593e b832 e4be 389d 2ebf 3d95 24bf
00000040: 338a 143f 6d78 c63e c1e6 f1be e596 ef3d
00000050: 4c9c b4be 5244 043f f8bb c03e 16dc 2b3f
00000060: 65bc cd3e 5c91 273f 2731 f73e 3014 da3e
00000070: 865c c53e 9912 d43e cc97 f23d b8c8 d2bd
00000080: 0cea 23bf 9c52 45be 728f 2a3f b430 93be
00000090: 8ec5 203f 66fc 083e c47d 82be 8f9b f7be
000000a0: 35d3 86be 8db5 18bf f756 8f3e 2d31 823c
000000b0: be3c 203e 8621 82be 8ddc da3e cb76 34bf
000000c0: 70ea 16bd 78b8 8bbd 006d 41bc 7f9b 313e
000000d0: 2435 27bf a812 34bf 1240 2e3e 4cb5 0a3f
000000e0: 4ced ddbe 8dba 1fbe 5d72 8bbe fe4e c83e
000000f0: 7fe5 b6be f497 ab3c 5d25 a53e f1b9 823e
00000100: 6fef bb3e c442 eebe c29b 273e c85e 1fbe
00000110: 50d1 b13d 8a40 04bf 3e1f e6be f478 13bf
00000120: 7189 8b3e 578e 25bf cebb 97be 51f3 033e
00000130: 8126 153f 7182 aabd 407f 8ebc d9a0 a8be
00000140: 1944 d1be ea03 d63e 228b 3e3e e802 d83e
00000150: 44f2 25be d2ae ca3e 24ac 93bd 4edb cebe
00000160: 35b9 283f e386 a5be 2182 0c3f 94ef a6be
00000170: de5d cb3e d799 f4be 3c81 6ebe 81de fbbe
00000180: 71df 33be 0cca 2f3e a602 2cbf 1ac4 13bf
00000190: 40f4 36bd 0275 c7be 00c6 4c3e 44e0 44be
000001a0: 6976 84be 0f8b 923e 99f5 1bbf 2866 2bbf
000001b0: 58ce ebbe 5cbf 9c3d 0f89 163f 8c1f b53e
000001c0: 4ded bd3e 22f7 1e3e bdc8 27bf 0846 f3be
000001d0: 36d9 2a3f f795 17bf d158 05bf 6bc1 913e
000001e0: f649 0abf 1573 c8be 106d 21be 7ae1 96be
000001f0: 9b4e 973e a922 ac3e 9741 8cbe cf8f a8be
-0.48516804 0.5208973 0.061563447 -0.16401456 -0.61763966 -0.44313154 -0.06536999 -0.6241194
-0.6492438 -0.09837562 0.41615838 -0.6323852 0.21197233 -0.44569945 -0.68208647 -0.6429022
0.58023375 0.38763753 -0.47246364 0.11698703 -0.35275495 0.5166675 0.3764341 0.671327
0.40182796 0.65456176 0.48279688 0.42593527 0.38547152 0.4142044 0.11845359 -0.1029219
-0.64029 -0.19269794 0.6662513 -0.28748095 0.62801445 0.13377532 -0.25486577 -0.4836087
-0.26333013 -0.59652025 0.27996036 0.01589259 0.15648171 -0.254162 0.42746392 -0.70493764
-0.03684467 -0.06822294 -0.011805773 0.17344473 -0.6531546 -0.7034097 0.17016628 0.5418289
-0.43345106 -0.15598507 -0.2723569 0.39122766 -0.35721967 0.02094648 0.32255068 0.25532487
0.3670611 -0.46535313 0.1636801 -0.155635 0.08682501 -0.5166098 -0.4494571 -0.57606435
0.27253297 -0.6467032 -0.2963547 0.12885787 0.5826188 -0.08325661 -0.017394662 -0.32935217
-0.40872267 0.4179986 0.18607762 0.42189717 -0.16205698 0.39586502 -0.072105676 -0.4040169
0.65907604 -0.32329473 0.5488606 -0.3260466 0.39720052 -0.4777362 -0.23291487 -0.49193195
-0.17565705 0.17166919 -0.6719154 -0.577211 -0.04466653 -0.38956457 0.19997406 -0.19226176
-0.2587159 0.28621718 -0.6092163 -0.66952753 -0.46055865 0.076536864 0.58802885 0.3537563
0.3709511 0.15523961 -0.6554068 -0.47514367 0.6673769 -0.59213203 -0.5208865 0.2846788
-0.54019105 -0.391503 -0.1576426 -0.294689 0.2955216 0.33620194 -0.2739379 -0.32922217

fc.weight f4 [1, 128]
00000000: 6709 a9bd 8676 593d 9da3 8e3d 8988 0d3d
00000010: 88d1 71bc 40fe e8ba 998b 70bd cc4e c23c
00000020: 0024 d33a c41f 9a3c aa79 043d 00e1 9cbd
00000030: 5ca4 2e3d 1d43 19bd 988d b4bd 1e2b 3b3d
00000040: 2c27 c63b ba0c a8bc a0b2 1dbb 38b1 a93d
00000050: 1e00 413d c969 0c3d ed78 603d 1cab 163d
00000060: 8812 64bd 3d10 34bb 4297 983d 7dd0 2a3d
00000070: be30 debc 8f57 203d db1c c53d 856f 55bd
00000080: 2609 89bd 097f 8fbd 5b75 f1bc e09f 63bc
00000090: 5a8b 523c fe90 c33d 488a c13d b01e 5e3c
000000a0: 0053 f0ba 70d9 a8bd b5fe 79bd 3da9 0e3d
000000b0: 6b53 703c 68ea 5bbd 6020 cc3d e051 2abc
000000c0: 0524 ae3d e4d4 10bd d83b d93c 458a c73d
000000d0: 7c84 cdbc b24b 1b3d 32ca d93d 505d 01bd
000000e0: bd7a dbbc d751 42bd c022 8e3a fd9d b63d
000000f0: c6f1 013d 02ab a2bc f938 65bd b6b8 61bd
00000100: ebe5 243d 408d e33b 342e 00bc 4413 55bd
00000110: 6641 ac3c a1da 9fbd f0cb a3bb eecd a7bd
00000120: a21e 703d 402b ffbb 2efa 75bd 6b6f c83d
00000130: 6c7e 2e3d 9966 77bd 2903 9c3d c23f 303d
00000140: d5fb 8f3d 6a5a 31bb 080a 45bd 0455 8bbd
00000150: a81f fabc 03c7 423d c609 cc3b f2b3 303d
00000160: 74dd 09bd 9599 a4bd e485 d7bc 8902 8f3d
00000170: 1259 263c bba0 8b3d 701b f43c f3ee 9f3d
00000180: 11ab 2e3d 4ccb ab3d 18ea 7fbc ed45 b0bd
00000190: a82e 3cbc 424d 293d 6ec9 b63b 464c 23bd
000001a0: 9c01 bb3c 6319 dcbc eb9d 83bd e8ce 94bc
000001b0: ddaa 82bd 9961 f83c db03 8bbd ff1e e93c
000001c0: 9c64 99bb f66e aa3d 183c 2abd f0be bdbb
000001d0: 33bd 81bd a84a 163c 415c 89bd 2627 103d
000001e0: 118f 1ebd 6ecc 76bd 8821 84bc 70f5 5abd
000001f0: aa35 cc3d 2147 cd3d b253 583d 3d87 ab3d
-0.082537465 0.05309155 0.069648005 0.03455404 -0.014759429 -0.0017775968 -0.05872688 0.023719214
0.0016108751 0.018813975 0.03234259 -0.07660103 0.042637214 -0.03741752 -0.08816069 0.045695417
0.00604715 -0.020513881 -0.0024062768 0.08285755 0.047119252 0.034280572 0.054802824 0.036784276
-0.055681735 -0.00274755 0.07450725 0.041702736 -0.027122851 0.039146002 0.09624644 -0.052108306
-0.06691198 -0.07006652 -0.029474905 -0.013893098 0.012850607 0.095491394 0.09450203 0.013557121
-0.0018335283 -0.08244598 -0.061033923 0.034829367 0.014668326 -0.053690344 0.099671125 -0.010395497
0.08502964 -0.03535928 0.026517794 0.0974317 -0.025087588 0.037913986 0.10634269 -0.03158313
-0.026791925 -0.04744133 0.0010844097 0.089168526 0.031724714 -0.019856934 -0.055962536 -0.055107795
0.04025833 0.0069443285 -0.007823516 -0.052020326 0.021027278 -0.07805372 -0.0049986765 -0.08193575
0.058622964 -0.007787138 -0.060053043 0.09786876 0.042601034 -0.06040058 0.0761779 0.043029554
0.07030455 -0.0027061948 -0.04810527 -0.06803325 -0.030532673 0.047553074 0.006226751 0.04314036
-0.03365846 -0.08037106 -0.026308961 0.069829054 0.010153072 0.06817766 0.02979824 0.07809248
0.04264361 0.08388385 -0.015619777 -0.08607087 -0.011485733 0.041333444 0.0055782115 -0.039867662
0.022827916 -0.026867574 -0.06426605 -0.018165067 -0.06380246 0.030319976 -0.06787845 0.028457163
-0.004681183 0.08321945 -0.041561216 -0.005790584 -0.06334915 0.009173073 -0.06707049 0.035193585
-0.038710658 -0.060253553 -0.01612927 -0.053456724 0.09971173 0.100233324 0.052814193 0.08375404
