Model/006380_4296.pth (torch, 4687 bytes, 7 tensors)

lstm.weight_ih_l0 f4 [8, 5]
00000000: 71d0 b93b 9528 b7be f322 99be 57e7 79be
00000010: dde4 f0be 3643 943e c2eb 07bf 8c90 3e3e
00000020: 05eb c73e db77 acbc edd9 c3be 5fc6 013f
00000030: 1e14 a03e b2f1 12bf ff1d 273f 8020 b2bb
00000040: 2b22 92be 8e22 ab3e d8e5 f6bd e60c 923e
00000050: f60f e43e a08a 763e 914a a43e b063 98be
00000060: e403 01be 9ddb 233e eeb8 1ebe 1106 c93e
00000070: b5f3 813e ce9e e3b9 c932 08bf ff4f 1cbf
00000080: 8b31 c93e f3e0 1f3f 4657 3d3f feee adbd
00000090: 4d24 f1bd 7af2 373f c45b 17be 5822 313b
0.0056706 -0.3577315 -0.29909477 -0.24404655 -0.4704961 0.28957528 -0.5309411 0.18609828
0.39046493 -0.021053245 -0.38252202 0.50693315 0.31265348 -0.5740005 0.65280145 -0.005436003
-0.28541693 0.334248 -0.12055558 0.28525466 0.44543427 0.24076319 0.3208814 -0.29763556
-0.1259914 0.16001745 -0.15500233 0.3926244 0.25381246 -0.00043415133 -0.5320249 -0.61059564
0.3929561 0.6245262 0.73961294 -0.0849285 -0.11774502 0.71854365 -0.147811 0.0027028527

lstm.weight_hh_l0 f4 [8, 2]
00000000: 7077 bb3d 80ec 6cbe 0a75 18bf 5ed6 15bf
00000010: 3478 3e3e e074 5abe 2caa 80be a6fa cf3e
00000020: e0d6 ecbd 4fa9 1d3f 53ad 1c3f 626f e03e
00000030: 7f0f 13bf c785 073f 7a4c 00bf 34cb afbe
0.0915364 -0.23137093 -0.5955359 -0.58530223 0.18600541 -0.21333647 -0.2512983 0.40620917
-0.11564422 0.6158647 0.6120197 0.43834978 -0.5744552 0.52938503 -0.50116694 -0.3433472

lstm.bias_ih_l0 f4 [8]
00000000: cbec 24be 36fd 1d3f 906e 1e3e e047 e3bd
00000010: e638 993e 70e5 ae3e 29cd 5abd 41bd 04bf
-0.16105954 0.61714494 0.15471864 -0.110976934 0.29926223 0.34159422 -0.053418312 -0.5185128

lstm.bias_hh_l0 f4 [8]
00000000: 1e73 2a3f d201 1e3f 2c08 0f3e 6d90 153f
00000010: ebff b1be 8fc9 713e 690b 093d 205e b13e
0.66581905 0.6172153 0.13967961 0.584235 -0.34765562 0.23612045 0.033458147 0.34642124

fc_1.weight f4 [128, 2]
00000000: 9ff5 6abe 9ee3 06bf 8354 99be b38e d3be
00000010: c9cd 1c3f cdfa 85bd 15a5 f8be a9ec ba3e
00000020: 7275 efbe f777 6c3e 9471 0cbf 3edf 57be
00000030: 438d c9be 03aa 26bf f7b2 38bb 83bb 9dbe
00000040: 0f0f 5bbf d8af 533f 43b2 bdbe 0649 3a3e
00000050: 5de0 07bf 9c0e 3d3e 50c7 523d 2b73 c6be
00000060: 400d 01bf d30b 8c3e bb42 93be 3006 25bf
00000070: 2fd3 123f 000e 643d fcc8 513e 695c 0abf
00000080: 0ef1 a43e 1fa9 97be cc5e 163e 0507 253f
00000090: dee8 17bf 6ab3 e6be 27ff 0f3f b6f9 5cbe
000000a0: 03d3 16bf ae81 3a3f a80d 9d3d c6db cd3e
000000b0: 4017 8ebd 2c57 953e 8aa4 a23e 1c40 073e
000000c0: 8db1 1ebf a185 cf3e 5ab6 14bf 4ad4 f6be
000000d0: 157b 1f3c d9b7 91be 913f b2be 2400 513f
000000e0: e0ee 0bbe 3154 27bf e819 3fbe 9d92 bcbe
000000f0: da58 21bf eacd 42bf 26cc 5cbe f030 c63d
00000100: 4978 b7be 722e 263f a0e0 c1be 8971 9abd
00000110: 2c3f 21bf f8c3 0dbf 76ae f1ba ba6b a4be
00000120: c620 343f 73ee 513d ead8 293f ef3e 263f
00000130: 184c 2ebf cd7c 17be 5f22 19be 891f fc3d
00000140: b6d6 9b3e 5214 913e 495f 7cbd 07b2 903e
00000150: dec8 2dbf d240 bf3e 2e6d 8bbe 5565 d7be
00000160: 322b 82be 2d3a 68be 2e21 d73e 075b 1bbf
00000170: a22f 2bbf 9e84 19bf bd72 e53d 2214 073e
00000180: d07b 17be 5474 1b3f dda6 0b3f 3ef3 a63e
00000190: 2029 3cbe b93f a1be 1883 a73d cc9e 08be
000001a0: 2f0a 07be a048 863e 4009 aebd 7eb6 1fbf
000001b0: a66e a93e d35f 563f c957 5d3d 60db a1be
000001c0: 2190 2b3f c211 94be e0f4 af3c 78d6 da3d
000001d0: 905c ddbd b7c8 13bf 66d4 84be 5956 1ebf
000001e0: 9463 0ebf 5841 c1be 9670 05bf 46ca d23e
000001f0: 3977 1d3f 9873 8cbe 80f3 56bc c63d c83e
00000200: bc5d cfbe 50eb 29be c954 163f 1f25 28bf
00000210: 2ed8 563d c970 2e3e e767 0bbf 66b7 783e
00000220: d849 aa3d 5017 22bd 1c3b debe 6fe0 58bd
00000230: bf81 3a3e d2a9 6cbe af11 67be 1a44 83be
00000240: c915 f63e cd68 183f 8e29 80bf 7f31 3b3f
00000250: 4c36 4a3e 71c2 153f ec51 e53e b53c b6bd
00000260: bfed 33bf 7428 27bd 00f2 7ebe 9906 70be
00000270: c809 e9be 9eb2 6fbe bd32 373f bf16 333f
00000280: d191 76be e4c8 11be 0c14 273e c733 99be
00000290: 1da7 11bf e7fd 66be 147c 90bf 603d 6f3f
000002a0: 9ba8 27be 62a0 f3be 7f87 3a3f 0070 91be
000002b0: 402e cabe cef1 b33e 4038 38bd eec0 20bf
000002c0: 177a adbe 7429 683f 6487 323e c5cb c43e
000002d0: 2aa2 f1bd 8e48 773e c189 e4bc d17e ab3e
000002e0: f075 a9be df7c f1be 5670 2e3f 3045 4c3f
000002f0: 2776 083f 1815 a8be 36c5 29bc 981c 173e
00000300: 9328 203f a2ad 1bbf 60b5 42be fac7 ffbe
00000310: 66d8 173f ad1a ea3d 586b 2e3e da74 e9be
00000320: 7e30 5ebd 86b5 2d3d 2d55 a0be ff1c 2f3f
00000330: 9235 a93e 44a7 073e 0d90 1b3e 01d6 853e
00000340: ea02 f83e 102c 863e 0c82 4c3e bc95 78be
00000350: fa96 e1be 87bf 0abf 0120 bdbd edce 983e
00000360: 0e35 fcbe 3532 2bbf 1460 e53e c83c 59be
00000370: c92c 1cbf 40ab 96bd 8a61 0a3f d074 10be
00000380: a0ef b73d 34f0 673e 67f4 d13e b140 04bf
00000390: 0d05 11bf 4252 f9be ce35 a83e 40a5 833e
000003a0: 9e09 f3be c8a7 113f 3459 a2bf 812c 173f
000003b0: e468 d13e 0261 703e c2d4 003e ac26 133d
000003c0: 856a 82bd 10a7 43be 00d6 7fbd 173e 9cbe
000003d0: 2e4f db3e 6763 833e cac1 0a3f 825b 373f
000003e0: 9603 d63e 3d83 19bf 00d6 d2ba 22eb 833e
000003f0: 7523 8cbe 55da 37bf c176 0d3f 3071 3f3f
-0.2294526 -0.52691066 -0.2994729 -0.41319808 0.61251503 -0.06541977 -0.48563448 0.36508682
-0.4676929 0.23092638 -0.54860806 -0.21081254 -0.39365587 -0.6510317 -0.0028182843 -0.30807123
-0.8556985 0.8269019 -0.37050065 0.18191919 -0.53076726 0.18462604 0.05145961 -0.3875974
-0.5041084 0.2735277 -0.2876185 -0.64462566 0.5735349 0.055677414 0.20486826 -0.54047257
0.3221516 -0.29621217 0.146846 0.64463836 -0.593397 -0.45058757 0.56248707 -0.21579632
-0.5891573 0.72854125 0.0766862 0.40206736 -0.06938028 0.2916807 0.31766158 0.1320805
-0.6198967 0.40531638 -0.58090746 -0.4820884 0.009733935 -0.28460577 -0.34814122 0.8164084
-0.13665342 -0.6536284 -0.18662226 -0.36830607 -0.630262 -0.7609545 -0.21562251 0.09677303
-0.35833958 0.6491462 -0.37866688 -0.07541186 -0.6298702 -0.5537715 -0.0018438834 -0.3211344
0.7036251 0.051252794 0.6634661 0.6493978 -0.6808486 -0.14793701 -0.14954518 0.12310702
0.3043725 0.28335816 -0.06161431 0.28260824 -0.67884624 0.3735414 -0.27231735 -0.42069498
-0.2542358 -0.22678442 0.42017502 -0.6068577 -0.66869557 -0.5996798 0.11203525 0.13191274
-0.14793324 0.6072438 0.5455149 0.32607454 -0.18375063 -0.3149393 0.08179301 -0.13341826
-0.13187478 0.26227283 -0.08497858 -0.62387836 0.3309223 0.83739966 0.054038797 -0.31612682
0.670168 -0.28919798 0.02147907 0.10685438 -0.108086705 -0.5772814 -0.25943297 -0.61850506
-0.55620694 -0.37745166 -0.5212492 0.41169947 0.61510044 -0.2743194 -0.013119578 0.3910963
-0.405012 -0.16593671 0.5872312 -0.6568164 0.05245226 0.17035212 -0.5445542 0.24288711
0.08314866 -0.039573014 -0.43404472 -0.05294841 0.18213557 -0.23111656 -0.2256534 -0.25637895
0.48063496 0.59534913 -1.0012681 0.731224 0.19747275 0.5849982 0.44789064 -0.08898298
-0.70284647 -0.040810063 -0.24897003 -0.23440017 -0.45515275 -0.23407981 0.71561795 0.6995658
-0.24079062 -0.1423679 0.16316241 -0.29922315 -0.5689562 -0.22557794 -1.1287866 0.93453026
-0.16372912 -0.475833 0.72863 -0.28405762 -0.3948841 0.3514542 -0.04497552 -0.6279439
-0.3388221 0.9068825 0.1743446 0.38436714 -0.117985085 0.24148771 -0.027897717 0.3349519
-0.33097792 -0.47165582 0.6814016 0.7979307 0.53305286 -0.32828593 -0.01036196 0.14757001
0.6256191 -0.6081182 -0.19014502 -0.49957258 0.5931457 0.11430869 0.17033136 -0.45596963
-0.054245465 0.042409442 -0.31314984 0.6840362 0.33048683 0.132474 0.1519167 0.26139835
0.48439723 0.26205492 0.19971484 -0.24275869 -0.44060498 -0.541985 -0.0923462 0.29845372
-0.49259228 -0.66873485 0.44799864 -0.21214592 -0.61005837 -0.07356882 0.5405508 -0.1410706
0.08981252 0.22650224 0.41006777 -0.5166121 -0.5664833 -0.4869557 0.3285355 0.25712013
-0.47468275 0.5689664 -1.2683473 0.5905228 0.40900338 0.23474506 0.1258116 0.035925552
-0.06367973 -0.19106698 -0.062459946 -0.3051612 0.42833847 0.25661775 0.5420195 0.71624005
0.4179961 -0.5996588 -0.0016085505 0.2576533 -0.27370802 -0.71817523 0.5525933 0.74782085

fc_1.bias f4 [128]
00000000: e6fe 003f 9aea 70be 1b33 9e3e c7d2 8a3d
00000010: 3237 193f a4a6 d3be 8282 c3be 781a d13e
00000020: 6bda d3be fb58 e13e e5af 853e 6458 efbe
00000030: 1bd6 fe3e e403 b1bb b817 3dbe 324e cfbe
00000040: 0c0c 51be 6818 cebe a5ed 2abf b44e 6dbe
00000050: bb06 e83e b4f3 0fbf 2bab e7be cc90 34bf
00000060: 9742 153f 39f9 fa3e 9dd5 b13e f5e8 133f
00000070: bc6a 7cbe 0e32 593e f6a7 8e3d ebda d4be
00000080: a0e1 023f fc2b cc3e 68b8 ce3c 2682 e23e
00000090: 4325 f23d d89b f13e 9974 313f 5830 f83e
000000a0: 1443 15bf e95a 153f 441b 1abf 8fee ca3e
000000b0: 0fe9 9f3e 8ba7 2abf 30f3 fdbd adde 5d3e
000000c0: aec5 d93e 070b 193f b070 83bd 80b2 80bd
000000d0: cefb 843e 72e4 12bf e0e1 6dbe 0d90 d53e
000000e0: 238b 21ba e033 8fbe 960b 5ebe 2147 83be
000000f0: ad7b 05bf 6705 d7be e919 bfbe d630 ccbe
00000100: e59f e73e 2a32 c83e d109 ca3e 46ef 2f3e
00000110: a137 cebe 5026 eb3d 067d 113e 3e18 d13e
00000120: 3030 213f 7c8e 94be 501f 1ebf 40c6 b33d
00000130: dfaa 4e3e 6151 0d3f 75dd 0bbf 6443 203e
00000140: be42 173f a257 0fbf 5598 4d3e 4629 53be
00000150: bb07 163f 8b94 853d 2148 e0be aee6 02bf
00000160: ace1 77be 2f75 2039 6c01 eb3e eb5a ce3e
00000170: 3100 5c3e 04e7 483b b017 b5be b7bd 253e
00000180: 34cf 5bbe 1c6a 0abf fb4a 823e 0431 51be
00000190: 3adb c83e 0c3f 053e d77f 04bf fdd5 18be
000001a0: 8235 76be 700a d3be 376d c83e 5c8a 2a3e
000001b0: 8f6f fcbe 643d 113f 5648 54be 7427 723e
000001c0: d9df 9dbe 79e9 1d3f d9c0 1e3e d461 2cbf
000001d0: a6d1 e83d bbcc 9dbe 381d 00be 7d1f 243f
000001e0: 3cf3 1e3f 8037 15bd 0a09 0abe aba6 223e
000001f0: fe99 6cbe f457 41be f7de d23e 94d9 173b
0.50388944 -0.23526993 0.30898365 0.06778484 0.59849846 -0.41338074 -0.38185507 0.40840507
-0.41377577 0.440132 0.2611076 -0.46747124 0.49772725 -0.005402075 -0.18466079 -0.40489346
-0.20414752 -0.40252995 -0.66768867 -0.23174554 0.45317635 -0.56231236 -0.45247778 -0.7053344
0.58304733 0.49018267 0.34733286 0.5777734 -0.24650091 0.212105 0.0696563 -0.4157327
0.51125526 0.39877307 0.025234416 0.4423992 0.11823513 0.47189212 0.6931854 0.48474383
-0.5830548 0.5834184 -0.60197854 0.3963513 0.31232497 -0.666619 -0.123999 0.21666975
0.4253363 0.5978245 -0.06417978 -0.06284046 0.25973362 -0.5737983 -0.23230696 0.41711465
-0.00061623956 -0.27969265 -0.21684107 -0.25640205 -0.5214184 -0.4199631 -0.37324455 -0.3988101
0.45239177 0.39100772 0.39460614 0.1718112 -0.40276816 0.11481917 0.14207849 0.40838808
0.62964153 -0.29014957 -0.6176653 0.087780476 0.2018237 0.552023 -0.5463479 0.15650707
0.59086215 -0.5599309 0.20077641 -0.20621213 0.58605546 0.06522473 -0.4380503 -0.5113324
-0.2420718 0.00015302443 0.45899522 0.4030374 0.21484448 0.0030655274 -0.35369635 0.16185652
-0.2146576 -0.5406816 0.2544783 -0.20428854 0.39229757 0.13012332 -0.5175757 -0.1492538
-0.24043849 -0.412189 0.39145824 0.16654342 -0.49303862 0.567343 -0.20730719 0.23647863
-0.30834845 0.61684376 0.15503253 -0.67336774 0.11368112 -0.3082026 -0.12511146 0.6411055
0.62089896 -0.036429882 -0.1348001 0.15883891 -0.23105618 -0.18881208 0.41185734 0.0023170458

fc.weight f4 [1, 128]
00000000: c09b 38bd 0f21 8b3d bec8 73bd 8b7b de3d
00000010: 4073 8e3d 2017 f3bb 2b01 a5bd 833b 6e3d
00000020: cac2 f83e 9c3e 37bd 283f 74bd b9f4 a53d
00000030: 98ae c43b fdda 9ebb 706a 8cbc f4ba 8abc
00000040: 0e17 71bd d833 adbd b05a e23b 4896 0fbd
00000050: cc3a 693d c64b 54bd 1b95 a8bd a7a1 a3bd
00000060: 0176 553b 5f52 6c3c 72c6 9e3c 3c60 893d
00000070: 9e8e 343d 8359 cfbd 76cc 9fbd dd77 86bd
00000080: d438 943d 2880 71bd 4f6a 7cbd b602 c5bc
00000090: d3fe 8f3d f3af 3e3c 1336 92bd f262 523d
000000a0: a7d0 973d bb10 083d ccf2 983c ddd3 873d
000000b0: 1baf 8e3d 8245 403d 38a3 6dbc e400 77bd
000000c0: 7454 823d 92ad 8e3d 00fc 143a f6af 4f3d
000000d0: 2ce0 ae3d 2633 373d 9619 753e be3c 893a
000000e0: 5ea0 cc3d 092d 8c3d 16ff d7bc 1910 0bbd
000000f0: 005f 79bc 053e abbd 3c99 e13c 805e e6ba
00000100: 331f aebd c031 bcbd 5add 5e3d 7443 083d
00000110: 30f4 2e3c 6583 203d 0a25 5fbd 763b b0bd
00000120: 2ffe 11bd 1a48 d63e 354a 8a3d e1f0 293d
00000130: 1134 01bd 7696 0cbd 803c 95bc 896b c33d
00000140: b213 343d 5ca7 0a3d 9647 84bd 4c3a f43e
00000150: ecb6 96bd 3696 b13c 7c5e ad3c 7ee5 483d
00000160: 702e 023f 93bc 303e 56d0 c2bc ed7c 303d
00000170: c239 14bc 2a00 013e a00e f2bb 4352 c03b
00000180: a1ca 893d 35fa 8e3d fcc4 37bd 9484 3abd
00000190: d73b 1c3c a19d 863d 603f 0bbb bb60 2ebf
000001a0: c8ea f33c 3276 3d3d 07be 883d 82f9 8fbb
000001b0: 20f8 39bc ecab 3a3d 5bcc 893d 9b77 12bd
000001c0: e0ec 9dbd 8b26 9ebd fe1f d13c 50fb 93bd
000001d0: e25d 0e3d 09b5 823f 5a32 73bf 8c3d dfbc
000001e0: 97a9 aa3d c4ad 8cbc 85d9 7dbf 83d5 a33d
000001f0: ef17 aabd 4ffc 973d 2f8a 2abd 1c04 1e3e
-0.04507041 0.06793415 -0.059517615 0.10863408 0.06955576 -0.007418528 -0.080568634 0.058162224
0.48586112 -0.044737443 -0.059630543 0.08103318 0.0060022585 -0.004847883 -0.017140597 -0.01693485
-0.058859877 -0.08457154 0.0069077834 -0.03505543 0.05694084 -0.051830076 -0.082315646 -0.07989817
0.0032571557 0.014423936 0.019381735 0.067078084 0.044081323 -0.10124495 -0.0780267 -0.06565831
0.072374016 -0.05896011 -0.06162482 -0.024049144 0.07031026 0.011638629 -0.0713922 0.051363893
0.07412844 0.03321908 0.018670462 0.066322066 0.069669925 0.046941288 -0.014504246 -0.060303584
0.063637644 0.069667 0.0005683303 0.05070492 0.08538851 0.044726513 0.23935542 0.0010470373
0.09991525 0.06844527 -0.026366752 -0.0339509 -0.015220404 -0.08361439 0.027538888 -0.0017575771
-0.085020445 -0.091891766 0.054410316 0.033267453 0.010678336 0.039187808 -0.054478683 -0.08605091
-0.0356428 0.41851884 0.06752435 0.041489486 -0.031543795 -0.03432318 -0.018217325 0.09541995
0.043964095 0.033851013 -0.064589664 0.47700727 -0.07359108 0.021678071 0.021163218 0.049046986
0.5085211 0.17259435 -0.023780983 0.04308789 -0.009046974 0.12597719 -0.0073869973 0.0058691814
0.067281015 0.06981317 -0.044865593 -0.045536593 0.009535751 0.06573034 -0.0021247491 -0.6811635
0.029775038 0.046255298 0.0667687 -0.0043937573 -0.0113506615 0.045574114 0.06728431 -0.035758596
-0.07711196 -0.07722195 0.02552795 -0.072256684 0.034757502 1.0211498 -0.94998705 -0.027251028
0.08333128 -0.017172702 -0.99160033 0.079997085 -0.08305346 0.07421171 -0.04163569 0.15431255
