Model/006840_3979.pth (torch, 4687 bytes, 7 tensors)

lstm.weight_ih_l0 f4 [8, 5]
0	0x3e4e0225	0.20118006
1	0xbdc8a140	-0.09796381
2	0xbe83e0ec	-0.2575754
3	0xbf32f9aa	-0.6991221
4	0x3d85a03b	0.06524702
5	0xbf0837b3	-0.5320999
6	0x3f0e6169	0.55617386
7	0x3db2f513	0.087381504
8	0x3edd5bce	0.43234104
9	0x3d960259	0.073246665
10	0xbeca6a96	-0.39534444
11	0xbf26cedd	-0.651594
12	0x3edaaa66	0.4270813
13	0xbe5c8e58	-0.21538675
14	0x3dd69df8	0.10479349
15	0x3f043325	0.5164054
16	0xbf25db56	-0.64787805
17	0xbf0911e7	-0.5354294
18	0xbe5dd9bc	-0.2166509
19	0x3e1fc028	0.15600646
20	0xbf1576d7	-0.5838446
21	0x3da33ee7	0.07970982
22	0xbe2e99cb	-0.17050855
23	0xbf3a1fc7	-0.7270474
24	0xbeb16742	-0.34649092
25	0x3f1ae952	0.6051227
26	0x3f01f079	0.5075756
27	0x3db21a84	0.08696464
28	0xbdd3b5af	-0.10337388
29	0xbbc72f76	-0.006078656
30	0x3d1debf0	0.038555086
31	0x3ebf6ab0	0.37386084
32	0xbf2daa63	-0.67838115
33	0xbdc454ed	-0.09586511
34	0x3e88328b	0.2660106
35	0x3efe927f	0.49721143
36	0x3e90a5ed	0.2825159
37	0xbe83d543	-0.25748643
38	0x3e238493	0.15968542
39	0xbcdca44f	-0.026933817

lstm.weight_hh_l0 f4 [8, 2]
0	0xbf07b78f	-0.53014463
1	0x3e1762c0	0.14783764
2	0xbeee9fb4	-0.4660622
3	0xbe9cc5fd	-0.30619803
4	0x3ec37662	0.38176256
5	0xbefdc40e	-0.4956364
6	0x3eb28246	0.34865016
7	0x3f2f26d5	0.6841863
8	0xbf1cbd82	-0.61226666
9	0x3ec90e96	0.3926894
10	0xbe9f60d3	-0.3112856
11	0x3eca3c9a	0.3949936
12	0xbf205e3c	-0.6264379
13	0x3e8040c2	0.25049406
14	0xbd47c1d0	-0.04876882
15	0x3de9c398	0.1141426

lstm.bias_ih_l0 f4 [8]
0	0x3c9238e2	0.01784939
1	0xbefdd7e8	-0.49578786
2	0x3e92083c	0.28521907
3	0x3e87daec	0.26534212
4	0xbd7ff936	-0.062493525
5	0x3e4106c8	0.18850243
6	0x3eb750f0	0.35803938
7	0xbed6a61b	-0.41923603

lstm.bias_hh_l0 f4 [8]
0	0x3e88cf33	0.2672058
1	0x3e948ffc	0.290161
2	0xbf0d1fd4	-0.5512669
3	0x3ed4c08a	0.41553146
4	0x3e89efe5	0.26940838
5	0x3f6c1d6b	0.9223239
6	0x3efa876e	0.4893145
7	0x3e316005	0.17321785

fc_1.weight f4 [128, 2]
0	0xbe8c24c1	-0.2737179
1	0xbf26bb4c	-0.6512954
2	0x3ecb6200	0.39723206
3	0xbee522a8	-0.44753003
4	0xbe9c70fb	-0.30554947
5	0xbee2e0c9	-0.44312122
6	0xbf2509ac	-0.64467883
7	0xbf2236b9	-0.6336475
8	0xbecd899a	-0.40144044
9	0x3db725e7	0.08942776
10	0xbe4d5c94	-0.20054847
11	0x3ec34efe	0.38146204
12	0xbe72113a	-0.23639384
13	0x3effa7c6	0.49932688
14	0x3f0f9535	0.56087047
15	0xbe1f3798	-0.15548551
16	0x3e64c310	0.22340035
17	0xbee733b3	-0.4515663
18	0xbed13de1	-0.40867522
19	0x3e1b4678	0.151636
20	0xbce8e6b6	-0.028430324
21	0x3ea9bb8f	0.33150908
22	0x3e836e6f	0.25670192
23	0x3e07dad5	0.13267072
24	0xbf287c8a	-0.6581503
25	0x3f21ef94	0.6325619
26	0x3ecb120e	0.39662212
27	0xbf15e5b2	-0.5855361
28	0x3e541ccf	0.20714115
29	0x3e3837ac	0.17989987
30	0x3f2eeb24	0.68327546
31	0xbfdf1161	-1.7427179
32	0x3de3b2e6	0.111181065
33	0xbf1430da	-0.5788704
34	0x3ee59726	0.4484188
35	0xbeede151	-0.46460965
36	0x3e886cd1	0.2664552
37	0x3f04b6d9	0.51841503
38	0xbf17793e	-0.59169376
39	0xbe90eb8a	-0.28304702
40	0x3ef25696	0.47331685
41	0x3e839d8a	0.2570613
42	0x3e8583f3	0.26077232
43	0x3ea249af	0.3169684
44	0x3ef3269e	0.474904
45	0x3f1cf189	0.61306053
46	0x3f3301a4	0.6992438
47	0x3f00a4e4	0.50251603
48	0x3f153ba9	0.5829416
49	0xbe6f79c2	-0.2338629
50	0x3e84b0ef	0.2591624
51	0x3f35ab2a	0.709643
52	0x3ed0c72e	0.40776962
53	0xbe7ed8bc	-0.24887365
54	0xbef0eb9c	-0.47054756
55	0x3ed37a16	0.41304082
56	0x3e89977b	0.26873383
57	0x3e8db19e	0.27674574
58	0x3f0bee3e	0.54660404
59	0x3dc3959e	0.095500216
60	0xbf11b722	-0.56920063
61	0xbeb31294	-0.3497511
62	0xbf049547	-0.5179028
63	0xbea6ab13	-0.32552394
64	0x3f1baae0	0.6080761
65	0xbb96ed3d	-0.0046059177
66	0xbe377c5a	-0.1791853
67	0xbed61338	-0.41811538
68	0x3cbe2ce9	0.023214774
69	0xbf2be49d	-0.6714571
70	0xbe99328d	-0.2992138
71	0xbf1893a5	-0.5960029
72	0xbe2c9749	-0.16854586
73	0x3edb9722	0.42888743
74	0x3f3c6ca6	0.73603284
75	0x3f211ae8	0.6293168
76	0xbf28681b	-0.6578385
77	0x3f483474	0.7820504
78	0xbef62d82	-0.48081595
79	0x3e9a402a	0.30127078
80	0x3b7e8f24	0.0038842643
81	0xbee07436	-0.43838662
82	0xbe249197	-0.16071163
83	0x3e40d1f5	0.18830092
84	0xbf1c3d4b	-0.61031026
85	0x3f3644c8	0.711987
86	0xbf0b5547	-0.54427
87	0xbd936bf0	-0.07198322
88	0x3e49b368	0.19697344
89	0xbe42c634	-0.19020921
90	0xbf007846	-0.5018352
91	0x3d72d598	0.05928573
92	0xbf327f4d	-0.69725496
93	0xbee64156	-0.44971722
94	0x3e155f44	0.14587122
95	0x3e655e14	0.22399169
96	0xbea51fd9	-0.3225086
97	0x3ec800a0	0.39062977
98	0x3e20b690	0.15694642
99	0xbecb26a2	-0.39677912
100	0xbd819c78	-0.06328672
101	0x3d926ef8	0.07150072
102	0x3ec7b949	0.3900855
103	0x3ebc1529	0.36734894
104	0xbec781ba	-0.3896616
105	0x3ebfa472	0.3743015
106	0xbeffe7f0	-0.49981642
107	0x3f279d21	0.65474135
108	0xbf2a57d8	-0.6654029
109	0x3d9dbcc0	0.07702017
110	0x3f009418	0.50225973
111	0xbe19e3a7	-0.15028249
112	0xbe542467	-0.20717011
113	0xbdd4d3e2	-0.10391976
114	0x3e041fd4	0.12902766
115	0x3e8ce856	0.27521008
116	0xbd5ab620	-0.053396344
117	0xbe8a63af	-0.27029178
118	0xbf0d6d8a	-0.5524527
119	0x3e3cb8b0	0.18429828
120	0x3e1684a9	0.14699043
121	0x3e4463c3	0.19178681
122	0xbe926b71	-0.28597596
123	0x3f4c3f84	0.7978442
124	0x3e1bfe00	0.15233612
125	0x3d106353	0.035250973
126	0xbe189e1f	-0.14904068
127	0x3f401385	0.75029784
128	0xbab39600	-0.001370132
129	0xbe76f6ba	-0.24117556
130	0xbe225808	-0.15853894
131	0x3da25bb0	0.07927644
132	0x3bbedd0c	0.0058246907
133	0xbeca8975	-0.39557996
134	0x3ef9fb1d	0.48824397
135	0xbe8201b8	-0.25391936
136	0xbe5f3d36	-0.21800694
137	0xbf1eae8e	-0.619851
138	0x3ef23256	0.47304028
139	0xbe80d9ae	-0.25166076
140	0x3f1f65cb	0.622647
141	0x3d664ff6	0.0562286
142	0x3e847094	0.2586714
143	0x3e11aee1	0.14226867
144	0xbeffa7f2	-0.4993282
145	0xbed0bc01	-0.40768436
146	0x3d326600	0.043554306
147	0xbdfc46f8	-0.12318224
148	0x3ef0683a	0.4695452
149	0x3e9f497e	0.31110758
150	0x3f2f3c71	0.684516
151	0x3eda3f3e	0.42626375
152	0x3f206853	0.62659186
153	0x3ef7cba0	0.4839754
154	0x3e3d6d34	0.18498689
155	0xbf29096f	-0.6603002
156	0xbf1c6691	-0.61094004
157	0x3df383b8	0.11890358
158	0xbc842228	-0.016129568
159	0x3c890bce	0.016729262
160	0xbe86b87f	-0.26312634
161	0x3c75dda7	0.015006459
162	0x3f16b68f	0.5887231
163	0x3f4c0678	0.7969737
164	0x3ed9d6e6	0.42546767
165	0x3e5c2f9c	0.21502537
166	0x3ef58bf8	0.4795835
167	0x3f47443c	0.7783849
168	0xbec7078e	-0.3887295
169	0xbea7df46	-0.32787532
170	0xbe81b98c	-0.25336874
171	0xbd0b2330	-0.033969104
172	0x3e435fd7	0.19079529
173	0xbf3f35b7	-0.7469134
174	0x3f107064	0.56421494
175	0xbdbe5abf	-0.09294652
176	0x3f139543	0.5764963
177	0xbe5c3011	-0.21502711
178	0x3cf979e0	0.030453622
179	0xbf186a10	-0.5953684
180	0x3dd1727b	0.102269135
181	0x3f09e146	0.53859365
182	0x3ed966a2	0.42461115
183	0x3f5e105b	0.86743706
184	0x3f3063df	0.6890239
185	0x3ecd228f	0.4006543
186	0x3f085521	0.53254896
187	0x3e2bc94a	0.16776004
188	0x3d8b63ea	0.068061665
189	0x3f532583	0.82479113
190	0x3f1b7473	0.6072456
191	0xbea69ed6	-0.32543057
192	0x3e8ed7ca	0.2789901
193	0x3f172197	0.5903563
194	0x3eaccc61	0.3374968
195	0x3f2eff5b	0.6835839
196	0x3f292ab9	0.66080815
197	0xbf0fe1d6	-0.56203973
198	0xbeca1aa6	-0.39473456
199	0x3f16895f	0.5880336
200	0x3e0bcd7f	0.1365261
201	0xbe6c9971	-0.23105408
202	0xbf18a7bb	-0.59630936
203	0xbef09d39	-0.4699495
204	0x3f12f9bb	0.5741231
205	0x3f0be263	0.54642314
206	0xbda0e920	-0.07856965
207	0x3eb7a216	0.3586585
208	0x3e7d0850	0.24710202
209	0x3e8f39fc	0.27973926
210	0x3f249649	0.64291817
211	0xbef7eb9b	-0.4842194
212	0x3f055b67	0.52092594
213	0xbfb6a815	-1.4270045
214	0xbee9f287	-0.45692846
215	0xbe8482f9	-0.25881174
216	0xbe33f229	-0.17572846
217	0xbe7753ba	-0.24153033
218	0x3eaa3cea	0.332496
219	0x3ed2e60f	0.41191146
220	0xbea8284d	-0.32843247
221	0xbe331f39	-0.17492379
222	0xbeb19986	-0.34687442
223	0xbcf1241e	-0.029436167
224	0x3d510280	0.051027775
225	0xbef589ba	-0.4795664
226	0x3de1d11c	0.110262126
227	0x3e4fb7ac	0.20284909
228	0x3eabf571	0.33585694
229	0xbeaa4c21	-0.33261207
230	0xbd981048	-0.074249804
231	0xbf3c4c8d	-0.7355431
232	0xbf0c9e83	-0.5492937
233	0xbf162fc0	-0.5866661
234	0x3efc3784	0.49261105
235	0x3eded1cd	0.4351944
236	0x3e1721bd	0.14758964
237	0xbdc4bb7d	-0.09606073
238	0x3e98d4fa	0.29849988
239	0x3f2db0b7	0.6784777
240	0xbef46d3c	-0.4773959
241	0xbecf37fa	-0.40472394
242	0xbea6bfd6	-0.32568234
243	0x3d881150	0.06643927
244	0x3f04db8f	0.5189752
245	0xbf60e31e	-0.87846553
246	0x3f0f7fad	0.5605419
247	0x3f2ebfcb	0.682614
248	0xbe6ceb06	-0.2313653
249	0x3d765a10	0.060144484
250	0x3f291e43	0.660618
251	0xbe92205e	-0.2854032
252	0xbf21b81a	-0.6317154
253	0xbe8d9f77	-0.27660725
254	0x3d82484a	0.06361444
255	0x3e50ea99	0.20401992

fc_1.bias f4 [128]
0	0xbc28ebf9	-0.0103101665
1	0x3f2cf31e	0.6755847
2	0x3ee118b1	0.4396415
3	0xbee8c142	-0.45459944
4	0xbcde4397	-0.027131839
5	0xbf02c42e	-0.51080596
6	0xbeb16ad6	-0.34651822
7	0x3ef3f41e	0.47647184
8	0xbea586e3	-0.32329473
9	0xbedc0f2d	-0.42980328
10	0x3e326346	0.17420682
11	0x3f0589b4	0.52163243
12	0x3ebe092f	0.37116382
13	0xbf18b4dd	-0.59650975
14	0x3e7d469e	0.2473397
15	0xbe168cf6	-0.1470221
16	0x3eba47d3	0.36382923
17	0xbe9c911c	-0.3057946
18	0x3f08f2c4	0.5349543
19	0x3e845b86	0.25851077
20	0xbe855abd	-0.2604579
21	0x3e304b43	0.1721621
22	0x3e2b631e	0.16737029
23	0x3e371acf	0.1788132
24	0xbf1c9e60	-0.6117916
25	0x3e137974	0.144018
26	0x3f061c4b	0.5238692
27	0xbf02dac5	-0.51115066
28	0x3ea0f38e	0.31435817
29	0x3e902f79	0.2816122
30	0x3e555b41	0.20835592
31	0x3f0237c6	0.50866354
32	0x3e1ff9db	0.15622656
33	0x3f1dbc10	0.61615086
34	0x3ecff2c1	0.40614894
35	0xbe3778cc	-0.17917174
36	0x3d12f825	0.03588118
37	0xbd4c2706	-0.049841903
38	0x3eccbf93	0.3998991
39	0xbed1ed43	-0.4100133
40	0x3f123676	0.5711435
41	0x3eaf9ff6	0.34301728
42	0x3f19ca6d	0.600745
43	0xbed3b386	-0.41347903
44	0xbf116244	-0.56790566
45	0x3f2e7a87	0.6815571
46	0x3f1291bc	0.57253623
47	0xbe22912c	-0.15875691
48	0xbe638490	-0.22218537
49	0xbee16132	-0.44019467
50	0xbe629458	-0.22126901
51	0x3f27eec1	0.65598685
52	0xbe04d8c3	-0.12973313
53	0xbed56c81	-0.41684344
54	0xbf29a222	-0.6626302
55	0x3eed039c	0.46291816
56	0x3e5bbc93	0.21458654
57	0xbec42555	-0.38309732
58	0xbec985d0	-0.39359903
59	0xbed97865	-0.42474666
60	0x3eaf499b	0.34235844
61	0x3ce35be0	0.02775377
62	0x3dbe4ff7	0.09292596
63	0xbeaad179	-0.3336294
64	0xbe6760ec	-0.22595567
65	0xbf11a4a8	-0.5689187
66	0x3ebbe317	0.36696693
67	0x3f2d8097	0.6777434
68	0xbf1b554f	-0.60677046
69	0xbe5ab4c8	-0.21358025
70	0x3f0b0154	0.542989
71	0xbe138cb2	-0.1440914
72	0xbf1d8d64	-0.6154387
73	0xbf15a295	-0.58451205
74	0xbf0eeb24	-0.55827546
75	0xbf0f14bc	-0.55891013
76	0x3e7d6f57	0.24749504
77	0x3f233646	0.6375469
78	0xbe917c13	-0.28414974
79	0x3ebceb5d	0.36898318
80	0x3f28854b	0.6582839
81	0x3d0312f0	0.032000482
82	0x3dfac03e	0.122436985
83	0x3f0d0354	0.55083203
84	0x3e9b1fb9	0.3029764
85	0xbeb98d25	-0.36240497
86	0x3ef506ee	0.4785685
87	0x3f0439a3	0.51650447
88	0x3dee0372	0.11621751
89	0xbddaa2e8	-0.10675603
90	0xbe3ed65e	-0.18636462
91	0xbca004ad	-0.01953348
92	0xbe9b951c	-0.303872
93	0xbdc4c8e2	-0.09608628
94	0xbc8fdbb5	-0.01756082
95	0xbf18513b	-0.5949895
96	0x3ebedc62	0.37277514
97	0xbc7c2abe	-0.01539105
98	0xbf1e1aa3	-0.61759394
99	0xbf29784e	-0.66199195
100	0x3dffb5c2	0.124858394
101	0x3f1c7d6d	0.61128885
102	0xbf16e33a	-0.5894047
103	0xbe47f9ef	-0.19528936
104	0xbf0fcb6a	-0.5616976
105	0x3e873f84	0.26415646
106	0xbe29631b	-0.16541712
107	0x3ee67149	0.45008305
108	0x3f1914ac	0.5979717
109	0xbe650ea9	-0.22368874
110	0x3f2c1bde	0.6723002
111	0x3eac1107	0.3360674
112	0xbddc4840	-0.10755968
113	0x3d9bca09	0.076068945
114	0x3f18cc21	0.59686476
115	0x3f1ce5d3	0.61288184
116	0xbf12ebf4	-0.57391286
117	0x3f189702	0.5960542
118	0x3d889163	0.06668355
119	0xbeeb9200	-0.46009827
120	0xbe07c694	-0.13259345
121	0xbf1db5e8	-0.6160569
122	0x3e14ee8b	0.14544122
123	0xbeccc222	-0.39991862
124	0xbf0d9500	-0.5530548
125	0x3e1debdd	0.15422006
126	0xbf25c4b3	-0.64753264
127	0x3e41b894	0.18918067

fc.weight f4 [1, 128]
0	0x3d883534	0.06650773
1	0xbd88c196	-0.066775486
2	0xbd713332	-0.058886714
3	0xbd990c7d	-0.07473085
4	0xbcdeb515	-0.027185956
5	0x3d274da2	0.04084552
6	0x3cbc02a4	0.022950478
7	0x3ba1ca6b	0.00493746
8	0xbd84f2fa	-0.064916566
9	0xbd067957	-0.032830562
10	0x3c7c034c	0.015381645
11	0x3d9d4df9	0.07680888
12	0x3e10a692	0.14126042
13	0x3cc8d638	0.02451621
14	0xbcb61db1	-0.022230955
15	0xbe30a73f	-0.172513
16	0xbc8af205	-0.016961107
17	0x3b681240	0.0035411268
18	0xbd5c32e4	-0.05375947
19	0xbd7dcef5	-0.061964948
20	0xbd9c6308	-0.07636076
21	0xbc6a0ef9	-0.014285796
22	0x3cdd015a	0.026978184
23	0xbd2a5d9e	-0.041593187
24	0x3d862951	0.06550849
25	0x3dcf326a	0.101170376
26	0xbba30de2	-0.00497602
27	0x3d035f00	0.03207302
28	0x3d08dd43	0.033414137
29	0xbd970489	-0.07373912
30	0x3d8b9783	0.06816008
31	0x3d41e376	0.047336064
32	0x3d2eeb95	0.042705137
33	0x3c372194	0.011177439
34	0xbce4c69b	-0.027926734
35	0x3d8c0585	0.0683699
36	0x3e6c750e	0.23091528
37	0x3f0ab123	0.5417654
38	0x3db13e20	0.086544275
39	0xbd5c79c5	-0.053827066
40	0xbb7c24a3	-0.0038473986
41	0xbd094b25	-0.03351893
42	0x3d40ec7b	0.047100525
43	0xbcd2779c	-0.0256918
44	0x3ccf7238	0.025323018
45	0x3d207641	0.039175276
46	0x3d983c67	0.07433396
47	0xbd13cdc5	-0.03608491
48	0xbcdee091	-0.027206691
49	0xbc372370	-0.011177883
50	0xbcc785ec	-0.024355851
51	0x3da6c7bf	0.08143567
52	0x3dd3dd90	0.10344994
53	0xbc89e40c	-0.016832374
54	0xbd9a759b	-0.07541963
55	0xbbffc732	-0.0078057284
56	0x3d2bad19	0.041913126
57	0x3b628360	0.003456317
58	0x3d8d53fd	0.06900785
59	0xbd9eaea6	-0.07748155
60	0xbd65a84d	-0.056068707
61	0x3e1b7ab7	0.15183531
62	0xbcc8dd34	-0.02451954
63	0x3e8d71f5	0.27626005
64	0x3d18b43a	0.037281252
65	0xbcaebf10	-0.02133134
66	0xbc513e85	-0.0127712535
67	0xbd1b7a79	-0.037958596
68	0x3d89f237	0.06735652
69	0xbcf19c32	-0.029493425
70	0xbc8aa7af	-0.01692566
71	0x3d3e135b	0.046405178
72	0x3c87e310	0.016587764
73	0xbdab3c6d	-0.08361135
74	0xbd7cfad9	-0.061762664
75	0x3da27cc7	0.07933956
76	0xbb1345e0	-0.0022472069
77	0xbdd2ecd9	-0.10299081
78	0xbda06589	-0.07831866
79	0xbd9d7959	-0.07689161
80	0x3cc3a894	0.023884095
81	0x3dec799a	0.11546631
82	0xbd89b650	-0.067242265
83	0x3d44bc8f	0.048031386
84	0x3cc21297	0.023690505
85	0xbc17e960	-0.0092719495
86	0xbd126048	-0.035736352
87	0x3d0e337a	0.03471706
88	0xbdea3315	-0.114355244
89	0x3db024c1	0.0860076
90	0x3e981c73	0.29709205
91	0x3e9e2d95	0.3089415
92	0xbdd07e72	-0.101803675
93	0xbdd89712	-0.105756894
94	0x3e2a9897	0.16659771
95	0xbd937f18	-0.072019756
96	0xbb263ae6	-0.0025364696
97	0x3e194fdc	0.1497187
98	0xbd928f25	-0.07156209
99	0x3d46b1c2	0.048509367
100	0xbda0dd0f	-0.078546636
101	0x3d078927	0.033089783
102	0xbd1b0e39	-0.03785536
103	0xbb1e16f8	-0.0024122577
104	0x3d0c2738	0.03421709
105	0xbc220bc6	-0.009890502
106	0xbe51bbb0	-0.20481753
107	0x3d872ae0	0.06599975
108	0xbd231cf3	-0.03982253
109	0xbcb95fd0	-0.022628695
110	0xbd10fd0c	-0.035397574
111	0xbd886ef0	-0.06661785
112	0xbd54af1f	-0.05192482
113	0x3d652027	0.055938866
114	0x3cbf674d	0.023364687
115	0xbd9ce151	-0.07660163
116	0xbd3e24d2	-0.046421833
117	0x39e5749a	0.0004376516
118	0x3c3c7787	0.011503107
119	0x3d50cf8e	0.05097919
120	0xbdaa2ae4	-0.08308962
121	0xbd1030fc	-0.035202965
122	0xbdb301d9	-0.08740587
123	0xbcdc0666	-0.02685852
124	0xbdb3cb5f	-0.08779024
125	0xbde85e10	-0.11346066
126	0xbc9c19dc	-0.0190553
127	0x3d0ef361	0.034900073
