Model/007340_4089.pth (torch, 4687 bytes, 7 tensors)

lstm.weight_ih_l0 f4 [8, 5]
0	0x3c6eefca	0.014583537
1	0x3ebfc927	0.37458155
2	0x3e9d021b	0.3066567
3	0x3ec0b98e	0.37641567
4	0x3db06a31	0.086140044
5	0xbf30657d	-0.6890486
6	0x3ec34389	0.38137463
7	0x3e64a140	0.22327137
8	0xbf1fe13b	-0.6245305
9	0x3da47bb6	0.080314085
10	0x3f06d4eb	0.5266864
11	0x3e5ae344	0.21375757
12	0x3ec57ede	0.38573354
13	0xbf1ccf13	-0.6125347
14	0x3e47ed1c	0.19524044
15	0x3e6e5fac	0.23278683
16	0xbf33787c	-0.7010572
17	0xbf1968a2	-0.5992528
18	0x3d8049f8	0.062641084
19	0xbeb55674	-0.3541752
20	0x3e51cba1	0.20487835
21	0x3ea5589b	0.32294163
22	0x3b97e252	0.004635134
23	0x3e1052fc	0.14094156
24	0x396e14c4	0.00022705185
25	0x3b597b45	0.0033185047
26	0x3f215a50	0.6302843
27	0x3d0c252f	0.03421515
28	0x3e7e3814	0.2482608
29	0x3ae7a508	0.0017673085
30	0x3ec5317b	0.38514313
31	0xbd992c27	-0.074791245
32	0xbcf4aa19	-0.029866265
33	0xba469744	-0.0007575641
34	0xbd017157	-0.03160223
35	0xbeb7ebf4	-0.35922205
36	0x3ee70c06	0.4512636
37	0x3f69179b	0.91051644
38	0xbc613fec	-0.01374815
39	0x3ee37a09	0.44429043

lstm.weight_hh_l0 f4 [8, 2]
0	0x3d389470	0.045063436
1	0xbe01c830	-0.12674022
2	0x3da5fff8	0.08105463
3	0x3f01fcfd	0.50776654
4	0xbe9a7a5c	-0.30171478
5	0x3eed5e46	0.46360987
6	0x3f16e04b	0.58935994
7	0xbdfbfea0	-0.12304425
8	0xbee76601	-0.4519501
9	0xbf26db1c	-0.65178084
10	0x3e468630	0.19387126
11	0x3e0dd578	0.13850963
12	0xbe8bd3ec	-0.2731012
13	0x3e9af27e	0.30263132
14	0x3d01d2a0	0.03169501
15	0xbed86c23	-0.42270002

lstm.bias_ih_l0 f4 [8]
0	0xbed9ae6f	-0.42515895
1	0xbedde0b0	-0.43335485
2	0x3e8ce5ac	0.27518976
3	0xbe1f52bc	-0.15558904
4	0x3f1e2766	0.6177887
5	0x3e9efe39	0.31053331
6	0x3f2b6b20	0.66960335
7	0x3f4ec814	0.80774045

lstm.bias_hh_l0 f4 [8]
0	0x3f1b6fde	0.6071757
1	0x3da3916b	0.07986721
2	0x3e58e3b0	0.21180606
3	0xbef624e2	-0.48075014
4	0x3dc36da7	0.09542399
5	0x3f245d69	0.6420503
6	0x3ea8d7dd	0.3297719
7	0x3f241636	0.6409639

fc_1.weight f4 [128, 2]
0	0x3f143d85	0.5790637
1	0xbebdfb9d	-0.37106028
2	0x3e290dd8	0.16509187
3	0x3eed1d3a	0.4631136
4	0x3d9d77f0	0.07688892
5	0x3f335b3b	0.7006108
6	0x3b9bda80	0.004756272
7	0x3e82aa62	0.25520617
8	0x3e6ce3c0	0.23133755
9	0xbf0acd7b	-0.5421979
10	0xbef044e3	-0.46927556
11	0xbefb6137	-0.49097607
12	0xbf8a23ba	-1.0792153
13	0x3eefb9f2	0.46821553
14	0x3ecd3b0c	0.40084112
15	0x3f342041	0.70361716
16	0x3ed771ae	0.42078918
17	0x3f4a56ff	0.79038996
18	0x3e110262	0.14161065
19	0x3e548e02	0.20757297
20	0xbf587000	-0.845459
21	0x3f023de1	0.5087567
22	0xbdf31a8f	-0.118703
23	0x3e923f76	0.28564042
24	0xbf1a94c3	-0.6038324
25	0x3e9511fa	0.29115278
26	0x3d459456	0.048237167
27	0xbf71d39b	-0.9446351
28	0xbe1e1348	-0.15437043
29	0x3f0cd391	0.55010325
30	0xbcd452a0	-0.025918305
31	0xbe3bf96c	-0.18356866
32	0x3f0b1053	0.54321784
33	0x3f1f997c	0.62343574
34	0x3f3b7e90	0.73239994
35	0x3e439ddb	0.19103186
36	0x3e63956b	0.22224967
37	0x3effb44a	0.49942237
38	0x3e4d5b8c	0.20054454
39	0x3f1ad2d6	0.6047796
40	0x3efd09bc	0.4942149
41	0x3eb602a2	0.35548884
42	0xbe5bf265	-0.21479185
43	0xbf24b28b	-0.64334935
44	0xbeac0f95	-0.33605638
45	0xbeaa7a6e	-0.3329653
46	0xbef58d66	-0.4795944
47	0x3f1a47ad	0.6026562
48	0xbe9f9ad1	-0.31172803
49	0x3f271319	0.65263516
50	0x3f305cd8	0.6889167
51	0xbea68abf	-0.3252773
52	0x3d9a1de8	0.075252354
53	0x3e45a654	0.1930173
54	0x3e6079b0	0.2192142
55	0xbe87756f	-0.26456782
56	0x3f157e85	0.5839618
57	0x3f23cdea	0.63986075
58	0xbf05c024	-0.5224631
59	0x3d75b7e7	0.059989836
60	0xbe0a9430	-0.13533092
61	0xbf1d42da	-0.6143013
62	0xbf166114	-0.5874188
63	0xbf1b0296	-0.6055082
64	0x3f1238c5	0.57117873
65	0xbf30cf45	-0.6906627
66	0x3e9bf6c3	0.30461702
67	0xbdb3582f	-0.08757054
68	0x3d0b9d34	0.034085467
69	0xbe204280	-0.15650368
70	0xbf16dcc9	-0.5893064
71	0x3f131873	0.5745918
72	0xbeaf4a6f	-0.34236476
73	0xbe189dcc	-0.14903945
74	0xbf193148	-0.5984082
75	0xbea29f76	-0.31762284
76	0xbf0dfc28	-0.55462885
77	0xbf886c92	-1.0658133
78	0x3f44a93c	0.7682073
79	0x3dc1ecce	0.09468995
80	0xbf247245	-0.6423686
81	0xbee990d7	-0.45618317
82	0xbef15383	-0.47134027
83	0xbe70733a	-0.23481455
84	0xbf0aafa0	-0.5417423
85	0xbe090368	-0.13380206
86	0x3f17e921	0.593401
87	0x3f1f6cfb	0.62275666
88	0x3f2ce79b	0.675409
89	0x3f120379	0.5703655
90	0xbe80b2b1	-0.2513633
91	0xbf3186ee	-0.6934651
92	0x3ed84b6a	0.42245036
93	0x3f3f8480	0.74811554
94	0x3ef746ef	0.48296306
95	0x3ef6b9f3	0.48188743
96	0xbf1a3b95	-0.60247165
97	0x3e927d98	0.28611445
98	0x3f593975	0.848533
99	0x3e0a52ca	0.13508144
100	0x3ec0c6dc	0.37651718
101	0xbf306e80	-0.6891861
102	0xbf25fd16	-0.64839303
103	0xbe225a24	-0.15854698
104	0x3f063d61	0.52437407
105	0xbec2c3b9	-0.3803995
106	0xbe22b984	-0.15891081
107	0xbf316088	-0.6928792
108	0xbf0866b1	-0.53281695
109	0x3f12e24d	0.5737656
110	0xbecbcefa	-0.39806348
111	0x3e58cfbd	0.21172996
112	0xbed82e0b	-0.42222628
113	0xbe8bd1de	-0.27308553
114	0xbd9ea33f	-0.077459805
115	0xbef048b0	-0.46930456
116	0x3e475525	0.19466074
117	0x3f22a984	0.6353991
118	0xbf21c543	-0.6319162
119	0x3f436e14	0.7633984
120	0xbdc96d88	-0.098353446
121	0x3ec123a6	0.3772251
122	0xbf2aa784	-0.6666186
123	0xbe2626a8	-0.16225684
124	0xbe3a1146	-0.18170652
125	0x3e5b6b69	0.21427692
126	0x3ef497f9	0.47772196
127	0xbef7f7ee	-0.48431343
128	0x3e3f189c	0.18661731
129	0x3f0f0449	0.55865914
130	0x3ee8a5c1	0.4543896
131	0xbf03bae8	-0.5145707
132	0x3eb3a97a	0.35090238
133	0x3cc0bc93	0.02352742
134	0xbf0f6c5a	-0.56024706
135	0xbf4a1065	-0.78931266
136	0xbd969008	-0.073516905
137	0x3f08f367	0.534964
138	0x3ee44ca6	0.44589728
139	0x3e5d6988	0.21622288
140	0xbee333c1	-0.44375423
141	0x3de62808	0.11238104
142	0xbf21210d	-0.62941056
143	0xbf030eba	-0.51194346
144	0xbf24c56c	-0.6436374
145	0xbe9c7561	-0.30558303
146	0x3d8adce8	0.06780416
147	0xbf0be12b	-0.54640454
148	0xbe809752	-0.25115448
149	0xbf1f22eb	-0.62162656
150	0x3d8ca3be	0.06867169
151	0x3f2cf45c	0.6756036
152	0xbefacdce	-0.48985142
153	0xbf1878c6	-0.59559286
154	0x3efbd470	0.49185514
155	0xbf2394a1	-0.63898665
156	0x3f14c97a	0.5811993
157	0x3ef84a13	0.48494014
158	0x3ea858c6	0.3288023
159	0x3e1ce35c	0.15321106
160	0x3dcce4f8	0.1000461
161	0xbe4b6d64	-0.19865948
162	0x3f3dc74b	0.7413222
163	0xbe2a7303	-0.16645436
164	0x3e9ac8e2	0.30231386
165	0x3ed3ce72	0.41368443
166	0xbee22043	-0.4416524
167	0xbe9eaff8	-0.30993629
168	0xbf0aa137	-0.54152244
169	0xbdc2b5b8	-0.09507316
170	0xbedcb4f3	-0.43106803
171	0xbee7248c	-0.4514507
172	0xbf2744fd	-0.6533964
173	0x3de1d830	0.110275626
174	0x3e478824	0.19485527
175	0xbf2c7603	-0.6736757
176	0x3e7a5a14	0.24448425
177	0x3c6d2380	0.014473796
178	0xbd2fb800	-0.042900085
179	0xbd447cb0	-0.047970474
180	0xbe9294a5	-0.28629032
181	0xbf0871aa	-0.5329844
182	0x3dbd85de	0.09254049
183	0xbf0bafed	-0.54565316
184	0x3eb0e121	0.3454676
185	0xbed68ca1	-0.41904166
186	0xbe744ca8	-0.23857367
187	0x3e0e7cc8	0.13914788
188	0xbef47d8e	-0.4775204
189	0xbe47cb2c	-0.19511098
190	0x3dae4e18	0.08510989
191	0x3e7c59f4	0.2464369
192	0xbcb412c2	-0.0219816
193	0x3f793064	0.97339463
194	0x3f29cec8	0.6633115
195	0xbf6addd6	-0.91744745
196	0xbefad679	-0.48991755
197	0x3f1e0baa	0.6173655
198	0x3ef6dfa2	0.48217493
199	0xbd809170	-0.0627774
200	0xbdeab34d	-0.1145998
201	0xbee773ba	-0.4520548
202	0xbf0afc9f	-0.5429172
203	0x3f0454d8	0.5169196
204	0x3e218fa5	0.15777452
205	0x3f5dd822	0.8665792
206	0x3eaf1eb6	0.34203118
207	0x3e85624c	0.26051557
208	0xbe86ef2f	-0.26354358
209	0x3ee28f7e	0.442501
210	0xbf47d82a	-0.78064215
211	0xbe8f74ce	-0.28018802
212	0x3f4c8c24	0.7990134
213	0xbe2f68a9	-0.17129768
214	0xbe6fbc3a	-0.23411646
215	0x3ee58c7c	0.44833744
216	0x3e989494	0.29800856
217	0x3e1f302e	0.15545723
218	0x3e239753	0.15975694
219	0x3da86ea6	0.082242295
220	0xbf2975d6	-0.6619543
221	0xbe28a008	-0.16467297
222	0x3d29d0bd	0.041458834
223	0xbf503c7e	-0.81342304
224	0x3f005c36	0.501407
225	0xbea5d692	-0.32390267
226	0xbd19ed45	-0.037579793
227	0x3f0106d3	0.5040104
228	0x3e0656b2	0.13119009
229	0xbd9f6142	-0.07782222
230	0x3f11ce36	0.5695528
231	0x3f22dcfd	0.6361845
232	0xbdb2ca20	-0.087299585
233	0xbf23ca5b	-0.63980645
234	0x3ee61f2a	0.4494565
235	0xbe746cff	-0.23869704
236	0x3e3e2668	0.18569338
237	0xbf076c40	-0.5289955
238	0x3f67f93d	0.9061468
239	0x3f0cd1b1	0.55007464
240	0xbeed945b	-0.4640225
241	0xbf0a31a5	-0.53982
242	0x3e277a0c	0.16355151
243	0xbe6125bc	-0.21987051
244	0xbf46d232	-0.7766448
245	0x3ef5f7ef	0.4804072
246	0xbf84f04b	-1.0385832
247	0x3f2b33e4	0.66876054
248	0xbf2b5c32	-0.66937554
249	0x3e271e68	0.16320193
250	0xbf0efbd3	-0.55853003
251	0xbee702b8	-0.45119262
252	0xbdd27730	-0.102766395
253	0xbed1ec20	-0.41000462
254	0xbf24da35	-0.6439546
255	0x3d80d2ae	0.06290184

fc_1.bias f4 [128]
0	0x3e233fe8	0.15942347
1	0xbf31a1d6	-0.6938757
2	0xbf174d9e	-0.5910281
3	0xbece6aad	-0.40315762
4	0x3e820259	0.25392416
5	0x3ebf231c	0.37331474
6	0x3c2cba4b	0.010542463
7	0xbd142877	-0.036171403
8	0x3dfc4d68	0.123194516
9	0x3ee74ee6	0.45177382
10	0xbd86f355	-0.06589381
11	0x3ec674dd	0.38761035
12	0x3f2b3e35	0.66891795
13	0x3e01a9eb	0.12662475
14	0x3db246fd	0.08704946
15	0xbf1db8ab	-0.61609906
16	0x3ee0fc28	0.4394238
17	0x3e28f399	0.16499175
18	0x3e7aa74a	0.24477878
19	0x3e43306a	0.19061437
20	0xbeab6b9c	-0.33480537
21	0x3eee7d6d	0.46580067
22	0xbe474cb8	-0.1946286
23	0x3e7261d3	0.2367013
24	0xbed08610	-0.40727282
25	0x3f33af36	0.70189226
26	0xbf28a447	-0.6587567
27	0x3e42b045	0.19012554
28	0x3e3778b8	0.17917144
29	0x3f0576b0	0.5213423
30	0xbe0f3a44	-0.1398707
31	0x3eb7de6a	0.35911876
32	0x3e800d04	0.2500993
33	0x3ed9c9f3	0.42536888
34	0x3ef28686	0.47368258
35	0xbf0f17f0	-0.558959
36	0xbe24ba8c	-0.16086787
37	0x3ef9a3c2	0.4875775
38	0x3ddfd5d8	0.10929459
39	0xbd3d45ff	-0.04620933
40	0xbe92dde2	-0.28684908
41	0x3f0cc861	0.54993254
42	0xbf11c1e2	-0.56936467
43	0x3dfe37a5	0.12412957
44	0x3ec2da5b	0.38057217
45	0xbeb115ad	-0.3458685
46	0x3d6efde5	0.0583476
47	0x3f163520	0.5867481
48	0xbe8b5890	-0.27216005
49	0x3b461ce8	0.0030229632
50	0x3f31f2d5	0.6951116
51	0xbe7252e6	-0.23664436
52	0x3eea49f3	0.45759544
53	0xbd9a47c0	-0.075332165
54	0x3f208c49	0.6271406
55	0x3f1de54d	0.6167801
56	0xbeea27a4	-0.45733368
57	0x3e2e6e40	0.17034245
58	0x3e6037fe	0.2189636
59	0x3c9f56b3	0.019450521
60	0xbe8f7b3f	-0.28023717
61	0xbdaecd40	-0.08535242
62	0x3ee302a1	0.44337943
63	0x3f16e6e2	0.5894605
64	0xbed6f405	-0.41983047
65	0x3ea35df1	0.3190761
66	0x3f2243e1	0.63384825
67	0x3e6a989e	0.22909781
68	0xbf06ed66	-0.5270599
69	0xbee23e30	-0.4418807
70	0xbe8ea54d	-0.2786049
71	0xbf0b2622	-0.5435506
72	0xbf2842ac	-0.65726733
73	0xbdaa3f78	-0.08312887
74	0x3e94b9db	0.29048046
75	0x3f0a9aec	0.5414264
76	0xbe65f622	-0.22457173
77	0xbe2f1187	-0.1709653
78	0x3eaec30b	0.3413318
79	0xbefc127c	-0.49232852
80	0xbf1b2ddb	-0.60616845
81	0x3d1ae8f9	0.037819836
82	0xbf2a492d	-0.6651791
83	0x3e1446a2	0.1448007
84	0xbf018b30	-0.5060301
85	0x3e87c093	0.2651411
86	0x3f06c6ae	0.5264691
87	0xbe1b4038	-0.15161216
88	0xbeeef122	-0.46668345
89	0xbe9cc35c	-0.30617797
90	0x3f0e4cd5	0.55585986
91	0x3f01bf06	0.50682104
92	0x3e8b1359	0.271632
93	0x3d06ccdc	0.032910213
94	0xbe9c7a16	-0.30561894
95	0xbeca9f4c	-0.3957466
96	0xbccf3448	-0.025293484
97	0xbc7cde89	-0.015433916
98	0x3f19bde8	0.600554
99	0xbf28f2f4	-0.6599572
100	0x3e4cf8e6	0.20016822
101	0x3e7cb97e	0.24680135
102	0x3b82d281	0.003992379
103	0x3e4ea422	0.20179799
104	0xbf00b130	-0.50270367
105	0x3f178e81	0.5920182
106	0x3d176fa6	0.03697171
107	0x3f1f0d26	0.6212944
108	0x3ebc2684	0.36748135
109	0x3eedffb6	0.46484154
110	0xbed30c21	-0.4122019
111	0x3ddf5859	0.10905523
112	0x3f15f9b8	0.58584166
113	0xbc4b01eb	-0.012390594
114	0x3ef7210e	0.48267406
115	0x3e5288da	0.20560017
116	0xbf0774ae	-0.52912414
117	0x3e6cc759	0.2312292
118	0xbf09b94b	-0.5379836
119	0xbf00a84a	-0.5025679
120	0x3dc5e63b	0.096630536
121	0xbdd27fa0	-0.10278249
122	0x3eea2161	0.4572859
123	0x3908d7bb	0.00013050337
124	0xbe53dc44	-0.20689493
125	0x3e95a47d	0.29227057
126	0xbe158fdc	-0.14605659
127	0x3ea38753	0.31939182

fc.weight f4 [1, 128]
0	0xbd789afd	-0.060694683
1	0xbc0b33a8	-0.0084962025
2	0x3d1e9622	0.038717397
3	0xbd89a14f	-0.0672022
4	0x3dad6b0b	0.084676825
5	0xbd8118ac	-0.06303534
6	0xbed8e3a2	-0.4236117
7	0xbdc42479	-0.09577269
8	0x3db4a6d7	0.08820885
9	0xbce1360c	-0.027491592
10	0xbef29ee9	-0.47386864
11	0x3c5fd606	0.013661867
12	0xbd789f6f	-0.060698923
13	0xbd8f106b	-0.06985553
14	0x3d82af22	0.0638106
15	0x3c44dcc8	0.012015529
16	0x3da701b5	0.081546225
17	0x3dc58848	0.09645134
18	0x3d84dcf8	0.06487459
19	0xbd07d4e3	-0.03316201
20	0xbdb9d8ea	-0.09074576
21	0xbd44387a	-0.047905423
22	0x3cd76f30	0.026298136
23	0x3db5919b	0.08865663
24	0x3d827951	0.063707955
25	0x3d4e6d26	0.05039706
26	0x3cdeed10	0.02721265
27	0x3da5cfa1	0.08096243
28	0x3ca2fdc6	0.0198964
29	0xbc2d21a0	-0.010567099
30	0x3d9b7805	0.07591251
31	0x3cca9755	0.024730364
32	0xbd3eda81	-0.0465951
33	0xbbec37b5	-0.0072087892
34	0x3c504209	0.0127110565
35	0x3c8cb920	0.017178118
36	0x3daf1241	0.085484035
37	0xbd5dba72	-0.054132886
38	0xbdfcfb43	-0.12352612
39	0x3dbced4a	0.09224947
40	0xbd4cc71e	-0.04999458
41	0x3d630d72	0.055432744
42	0x3d3dd93e	0.046349756
43	0x3c8c21e8	0.017106012
44	0x3dc205b4	0.09473744
45	0x3cdf098c	0.027226232
46	0x3d025ddb	0.03182779
47	0x3b66b183	0.003520102
48	0xbcb33670	-0.021876544
49	0x3e445c9b	0.19175951
50	0xbcbb7587	-0.02288319
51	0x3b702840	0.0036645085
52	0xbce10cff	-0.027472017
53	0xbc4bb628	-0.012433566
54	0x3dab47d4	0.083633095
55	0xbd95a4b3	-0.073068045
56	0xbd96f2e2	-0.07370545
57	0x3add31b3	0.0016875773
58	0xb9e9bd86	-0.0004458243
59	0xbe58d1fb	-0.21173851
60	0xbda53043	-0.08065846
61	0x3d75daf6	0.06002327
62	0xbd7637da	-0.060111858
63	0x3c7c6b61	0.0154064605
64	0xbd1aac96	-0.037762247
65	0x3db1804e	0.0866705
66	0xbd951ab1	-0.072804816
67	0xbe071c35	-0.13194354
68	0x3d1c27c2	0.038123854
69	0x3cee0490	0.02905491
70	0xbd8fe846	-0.070267245
71	0x3d0d767a	0.034536816
72	0x3d0b5bd6	0.03402313
73	0xbd935049	-0.071930476
74	0x3d37d021	0.04487622
75	0x3d6417d3	0.055686783
76	0x3d5fbc46	0.05462291
77	0xbcc123aa	-0.023576576
78	0x3d5f3127	0.054490235
79	0xbd58ca53	-0.052927326
80	0xbd089972	-0.03334946
81	0x3d1f1fbc	0.038848624
82	0xbcff1b90	-0.031141073
83	0xbdae6647	-0.085156016
84	0x3d86e541	0.065866955
85	0x3d8b25ee	0.06794344
86	0xbcaa0933	-0.02075634
87	0x3d5d5eee	0.05404561
88	0x3db1dab9	0.08684296
89	0x3c6542c8	0.013992973
90	0xbd2bbe38	-0.041929454
91	0x3d9a5c65	0.07537154
92	0x3d164a92	0.03669221
93	0x3c1aa129	0.009437838
94	0x3d9a006b	0.07519611
95	0x3d83468d	0.06409941
96	0xbed7224b	-0.4201835
97	0x3eded0f4	0.43518794
98	0xbd35cb18	-0.04438314
99	0xbc33f520	-0.010983735
100	0x3d764121	0.060120706
101	0x3d72ca73	0.059275102
102	0x3e8efdb4	0.27927935
103	0xbc8aa8cd	-0.016926194
104	0x3d2c67c2	0.04209114
105	0xbd9dbf1e	-0.07702468
106	0x3e1deabf	0.1542158
107	0xbd983a7c	-0.0743303
108	0xbb086672	-0.0020813015
109	0x3d87c6d9	0.06629724
110	0xbd86a6c8	-0.0657478
111	0xbdd3fefe	-0.1035137
112	0x3d37acad	0.04484241
113	0xbe1f83fc	-0.15577692
114	0xbd9faad2	-0.07796253
115	0x3cd87807	0.026424421
116	0xbd5be544	-0.05368544
117	0x3da39972	0.07988252
118	0xbd59c98c	-0.053170726
119	0x3e94f76e	0.29095024
120	0xbdbc3019	-0.091888614
121	0x3d89b8c9	0.06724698
122	0xbd04d375	-0.032428224
123	0xbecb486d	-0.39703694
124	0xbdaa76d6	-0.083234474
125	0xbd3a1b2f	-0.04543608
126	0xbd152a98	-0.036417574
127	0xbdae5678	-0.08512586
