Model/008040_5128.pth (torch, 4687 bytes, 7 tensors)

lstm.weight_ih_l0 f4 [8, 5]
00000000: c4a9 633e 15f3 d7be 43a0 533f ab1d cdbe
00000010: ff15 bb3e 23f5 973e 4f7a 30be 9203 1dbf
00000020: 71ba 25be cbc8 12bd 771e 303f 5e23 ca3e
00000030: 2b7b 203f c025 4ebe 69c2 263f c09b 49bc
00000040: 1047 f8be 5aa1 de3e 76cd 78be 74b3 28bf
00000050: 212f e33e db79 04bf c11e c03e bfb0 d43e
00000060: 7565 2f3d 5c7b a73d ac70 d53d 6e83 ae3e
00000070: 90d4 dcbe f067 133c d059 1cbd 6fa4 7dbd
00000080: 6a45 113e 8dde d03d ead7 e5be 86c3 38be
00000090: 47c9 0b3e dd29 2fbf a73d e73e 4d52 9e3c
0.22232729 -0.42177644 0.82666415 -0.40061697 0.3654022 0.29679212 -0.17234157 -0.6133357
-0.16184403 -0.035836022 0.68796486 0.39480108 0.6268794 -0.20131588 0.65140396 -0.0123052
-0.48491716 0.43482476 -0.24297127 -0.65898824 0.44371894 -0.51748437 0.37523463 0.41541097
0.042821366 0.08177826 0.10421881 0.34084648 -0.43130922 0.008996949 -0.03817159 -0.061924394
0.14186636 0.10198698 -0.44891292 -0.18043336 0.13651 -0.68423253 0.45164225 0.019326353

lstm.weight_hh_l0 f4 [8, 2]
00000000: ebd1 153f 3774 173f b52c 26bf 88f3 0ebe
00000010: ec4b 57be b49b a5be 133d bebe a64c 08bf
00000020: 7047 64be c20b ad3e 08ee a6bd 4c51 91be
00000030: f48a 13be f070 55bd 3524 02bf c229 ca3e
0.58523434 0.59161705 -0.6491197 -0.13960087 -0.21025056 -0.32345355 -0.3715597 -0.53241956
-0.22292876 0.33798033 -0.081508696 -0.28382337 -0.14408475 -0.05210966 -0.508365 0.39484984

lstm.bias_ih_l0 f4 [8]
00000000: 6320 52bf 560b 0ebf 4a12 a33e 0df9 073f
00000010: a0af 3cbf ad42 283f 3dd9 b5be f37a 4e3e
-0.8208067 -0.5548605 0.3184989 0.53114396 -0.7370548 0.6572674 -0.35517302 0.20164089

lstm.bias_hh_l0 f4 [8]
00000000: 7ff4 cebe 6383 b03e e877 503e 7452 3fbe
00000010: 089e 213c 254d 293f 2692 5c3c a835 ae3d
-0.4042091 0.3447524 0.2035824 -0.18683797 0.009864338 0.6613334 0.013462579 0.08506328

fc_1.weight f4 [128, 2]
00000000: 5d0c 06bf 85d9 03bf 985b 05be 9fd6 063f
00000010: 4b83 d2be 60b5 15bd 5089 46bd fc24 4ebe
00000020: 312d 29bf d9d4 223f 827e 723f 77ca d83e
00000030: 9ba2 9ebe f0cf 20bf 4031 1abf eb83 21bf
00000040: 9a26 1d3f 2db2 c4be 6005 823e 8816 083e
00000050: 0084 7e3d f07d 0dbe b2a1 973e 5905 34bf
00000060: 1ef7 c83e bdb4 1b3f aadd fc3e 4293 df3e
00000070: 5c8b 72bf 8186 17bf 1696 a43e 1816 d7bd
00000080: cc97 15be 1185 1fbf 0f91 ddbe 2c66 a5bd
00000090: 7736 30be 3b6c 613e f7bb 27bf ba32 32bf
000000a0: 134f 14be 734e 5fbe b8f1 ab3d 4d6c 93be
000000b0: a3c7 0cbf 64ac 31bf fb4c 26bf 6a9e c5be
000000c0: 71d4 653f 1f65 033f 427f b3be 2a75 263f
000000d0: 99cc 0cbf 1e91 fa3e 2b1f b5be 029b f7be
000000e0: 189e f7bd 328f a03e 7572 cabd 08a8 333f
000000f0: 805d b13e a9ab 913e 3c2e dbbe de00 153f
00000100: a021 1dbf c59f 113e 8094 083f 6cef 72be
00000110: a3e5 5e3f db3a 8d3e 4c26 1f3e 8089 2dbc
00000120: 98ad 63be 19d1 97be 87e7 88be 2afa febe
00000130: d7aa 2f3f 6cb8 663e 49cc 3f3f 028f bb3e
00000140: 7a9d 913e 2862 063e 7058 373e c7ec a9be
00000150: 0b15 e0be 757b e6be 6bf1 d1be 9481 1b3e
00000160: 5f5f 3f3d 5bd3 213f 9ced 713e e473 53be
00000170: 24a1 01bf 084a 833d d603 cabe 9354 0f3f
00000180: 5837 123f 8d7f 38bf ca47 cb3e bac9 a43e
00000190: ec80 9cbe 32b3 31bf 4541 0dbf e512 ccbe
000001a0: 381c cd3e 48ea dabe e742 03bf 198b 28bf
000001b0: 3592 bbbe 3ecb eb3e 0db2 b13e d38a efbe
000001c0: 9e19 3ebf 3f51 b13d 1215 8b3e 18e0 66bd
000001d0: c6a2 e3be 83dc e33e e09b a3bc 90dc 6dbe
000001e0: c384 e83e 310a 1abf 526b 4b3f d8e9 abbe
000001f0: 2bbd 01bf 3398 bf3d 5c97 1ebf c0a4 e93d
00000200: cf77 413f 68be 0cbf 6ad7 bbbe d81d 8abd
00000210: f285 c2be 182d e8be 616b 2bbe 778a 063f
00000220: 1d6a 82bf 6eb7 1ebf 800a 233e e601 f4be
00000230: b66e d03e 7152 353e baa4 3ebe 6383 7bbc
00000240: 7762 43be fc5b 20be bf48 5abd b707 26be
00000250: 602d c6be 255f 15be c8e1 993d 7c63 e0be
00000260: fe67 b83e a493 093e 4046 5abd c00c d03c
00000270: 1e82 023f 1951 09bf 781a 81bd d4f3 05be
00000280: dc6b 66be de9f 14be 350b b43e 2386 913e
00000290: ba46 a83e a09f eebd 9816 283e a957 143f
000002a0: f83e d8be c076 0cbc f23c 933e fcd1 42be
000002b0: d095 e3bd 20c4 9d3d 5e2c 8c3e 9ec5 c43e
000002c0: feb4 c23e 2456 8cbe 4a41 64be 30a9 6cbd
000002d0: b6d3 f23e 005e 6c3e f22a 19bf f8f8 9dbe
000002e0: 801a 29bf ebe2 9dbe 5e22 2abf baf7 ce3e
000002f0: ff2a 843f d27e 1b3d 1442 1dbe e2df be3e
00000300: 2464 1ebe 7d73 68bc 6724 1cbf 4d97 c3be
00000310: 2767 433f 2619 eabe 8d49 25bf e694 ac3e
00000320: 7066 0dbf f5c3 19bf d162 e63d a515 85be
00000330: 40c6 b33e 842e 30be cd02 aa3e 506f 57bd
00000340: 3edf 12bf 28c9 053f e2af 95be 69b5 113f
00000350: 4aba 1e3f f870 ae3e 671a e8be e13d 1f3f
00000360: 9a69 833e 52e3 92be bac8 853e 8b6e 533e
00000370: 80aa dfbd c8e3 493e 90a7 663e 6a1f c1be
00000380: b167 5ebf 2abb 21bf 3d38 983f 49ab 6e3e
00000390: 6afe 1bbf beaf 4fbe 4130 983d 4dae 0c3f
000003a0: 9ea4 f7be 8075 4fbc b458 133f 47e4 223f
000003b0: 8929 1cbf 00a5 91bc 31b7 803e e327 6b3e
000003c0: 3094 17bf 4a5a e8be 73c1 803e afa3 c6bd
000003d0: e552 1bbf 963b d63e e882 e1bd 1a5e e1be
000003e0: 3e04 363f c957 cb3d 53dc 013f 1e40 803e
000003f0: d48e 3cbf a14a 473e 2d05 c13e 68f6 11bf
-0.52362615 -0.51503783 -0.13023221 0.52671236 -0.41115794 -0.036549926 -0.048470795 -0.20131296
-0.6608458 0.6360603 0.94724286 0.42341968 -0.30983433 -0.6281729 -0.602314 -0.63091916
0.61387026 -0.38417187 0.25394726 0.13289845 0.062137604 -0.13817573 0.2961555 -0.7032066
0.39251035 0.6082266 0.49387866 0.43667036 -0.94743896 -0.5918961 0.32145756 -0.10502261
-0.14608687 -0.6231242 -0.43274733 -0.08076128 -0.17208277 0.22013943 -0.65521187 -0.6960865
-0.1448329 -0.2180727 0.083957136 -0.28793564 -0.5499212 -0.6940367 -0.6496121 -0.38597423
0.89777285 0.51326174 -0.35058028 0.6502253 -0.5499969 0.4893884 -0.35375342 -0.4836045
-0.12090701 0.3135925 -0.09885112 0.7017827 0.34641647 0.2845128 -0.42808712 0.5820445
-0.6137943 0.14221103 0.53351593 -0.23724145 0.8706915 0.27583966 0.15541953 -0.010591865
-0.2223419 -0.29651716 -0.2673914 -0.49800235 0.68620056 0.22531289 0.7492109 0.36632544
0.28440458 0.13123381 0.1790483 -0.3318846 -0.43766055 -0.45016065 -0.410045 0.15186149
0.046721812 0.6321313 0.23625797 -0.20649678 -0.50636506 0.06410605 -0.39456052 0.55988425
0.571157 -0.7206963 0.39703208 0.32185155 -0.3056711 -0.69414055 -0.5517772 -0.39858165
0.40060592 -0.42756867 -0.5127396 -0.65837246 -0.36634985 0.460535 0.34706154 -0.46785602
-0.7425784 0.086580746 0.27164513 -0.056366056 -0.44460124 0.44504175 -0.019971788 -0.23228669
0.4541379 -0.601718 0.7946063 -0.33576846 -0.5067927 0.093552016 -0.61949706 0.11408377
0.7557344 -0.54978037 -0.36687785 -0.067439735 -0.37992817 -0.45346904 -0.1674018 0.5255503
-1.0188633 -0.6199864 0.15921974 -0.47657698 0.40709466 0.1770723 -0.18617526 -0.015351149
-0.1908053 -0.15660089 -0.053292032 -0.1621388 -0.38706493 -0.14587076 0.075137675 -0.438259
0.3601684 0.13435227 -0.053289652 0.025396705 0.50979793 -0.5363937 -0.06303877 -0.13081294
-0.22502083 -0.1451411 0.351648 0.2842265 0.3286646 -0.1165154 0.16414869 0.5794626
-0.4223554 -0.008573234 0.28757435 -0.19025415 -0.11112559 0.077034235 0.273776 0.3843202
0.3802871 -0.2740947 -0.22290531 -0.057778537 0.47427148 0.23082733 -0.59831154 -0.3085401
-0.6605606 -0.30837187 -0.6645869 0.40423375 1.0325621 0.037962742 -0.15357238 0.37280184
-0.15467888 -0.014187691 -0.60993046 -0.3820137 0.76329273 -0.45722312 -0.64565355 0.3370735
-0.5523443 -0.6006463 0.112493165 -0.25993076 0.3511219 -0.17205244 0.33205262 -0.05259639
-0.5737189 0.52260065 -0.2923575 0.56917435 0.62003005 0.34070563 -0.45332643 0.62203795
0.25666505 -0.28689057 0.26129705 0.20647638 -0.10921192 0.19715798 0.22524858 -0.3771928
-0.8687697 -0.63176215 1.1892163 0.23307528 -0.6093508 -0.20281884 0.07431079 0.5495346
-0.4836778 -0.0126622915 0.57557225 0.63629574 -0.6100088 -0.017778873 0.25139764 0.22964434
-0.5921049 -0.45381385 0.2514759 -0.09699189 -0.6067336 0.41842335 -0.110112965 -0.44017106
0.71100223 0.09928853 0.50726813 0.25048918 -0.7365544 0.19462062 0.3769926 -0.5701661

fc_1.bias f4 [128]
00000000: cbda 1e3f e17d 8abe f2a0 b5be 20c4 4dbd
00000010: edaa a3be 866d 37be 6222 db3e d33d a9be
00000020: d3ae 213e 3a70 10bf 14d5 41be c0e3 94be
00000030: cd78 a9be 4be6 eabe ad42 f83d 7d16 0fbf
00000040: 6c2f cf3e 51de a63e 230a 263f e997 debe
00000050: 4357 193f f178 c5be f026 dabe 7ebc 173e
00000060: 2d76 2fbe 32f5 143f 27fc d2be 52ec be3d
00000070: c008 9abe 8fca 47be 79a2 2e3f cc5c 9a3e
00000080: 505f 093e 5f58 0b3f 170e 9abd a04f 22bf
00000090: ce92 07bf 3005 c1bd 3f51 0fbf e1fb 2abb
000000a0: ced9 18bf d44a 5dbe 36a5 d83d 1425 9abe
000000b0: 3ed3 1ebd 6aeb 76be 7cbd 2fbe dc4e 183f
000000c0: 55d0 bf3d ea91 a1be 67ef d4be 6fbf 02bf
000000d0: 341d 373e b8bb 03bf 3a38 08bf a22c 303e
000000e0: cb72 0c3f a3c3 bb3d a697 bd3e 2c32 53be
000000f0: 477f cb3d 8a46 8b3e 5fc6 033e b2cb 17bf
00000100: 8928 043f b4e4 8bbe a3ae c03e b825 003f
00000110: ff9e a93e facc f13e 5a1d b13e b790 333f
00000120: 512a c73e ce3b 233e 0e4b 2b3f 231e a73e
00000130: fa15 f6be 0e50 d1be 4bc5 913e 407d eabc
00000140: dc67 793e e6e3 d63e 736c c4be 2e18 063f
00000150: 9dd9 d0be 8e7e f9be 80d6 3fbd da1d 8dbe
00000160: 22ee 33bf 91d4 86be 4e78 30bf 0c42 1e3e
00000170: 1ab1 0cbf 9ca0 1bbf b6cb 68be eb3d 05bf
00000180: 57b2 8b3e ae47 cf3c 5c39 923e 69d0 a8be
00000190: ee2d 263f 1781 5e3e d321 cd3e 0e1c 82be
000001a0: ff86 0c3f 59ab 02bf a1ba 3b3b 33cf abbe
000001b0: f2d7 d4be c627 163e 4347 b3be 2706 1ebf
000001c0: bcd1 303e c7d8 80be 6e7f 123f 7501 1abd
000001d0: 44c8 05bf 56a4 8a3e d7f6 20bf 8dec ee3b
000001e0: 7005 f53c 0f4e d13e e61e 05bf dcfe febe
000001f0: 396a 163f 6e23 0abf c015 3f3e a911 c13e
0.620526 -0.27049163 -0.35474354 -0.050235868 -0.31966344 -0.17912874 0.4279967 -0.3305498
0.15789346 -0.56421244 -0.18928939 -0.2908001 -0.33099976 -0.45878825 0.121220924 -0.5589369
0.40465868 0.3259149 0.6485922 -0.43475273 0.59898776 -0.38568833 -0.42607832 0.14817998
-0.17134924 0.5818664 -0.41208002 0.09322418 -0.300848 -0.19510864 0.68216664 0.30148923
0.13415265 0.5443172 -0.07522219 -0.6340275 -0.5295838 -0.094248176 -0.55983347 -0.0026090073
-0.59707344 -0.21610576 0.105783865 -0.30106413 -0.038775675 -0.24113241 -0.17162126 0.5949533
0.09365908 -0.31556636 -0.415889 -0.51073354 0.17882234 -0.5145831 -0.53210795 0.17204526
0.5486266 0.09168174 0.3702976 -0.20624608 0.099363856 0.27202255 0.12868641 -0.5929519
0.5162435 -0.27322924 0.37633237 0.50057554 0.33129117 0.47226697 0.34592706 0.7014269
0.38899472 0.15940782 0.669114 0.3264018 -0.48063642 -0.4088139 0.28470835 -0.028624177
0.24356025 0.41970748 -0.3836399 0.52380645 -0.40791026 -0.48729366 -0.046835423 -0.27561837
-0.70285237 -0.2633405 -0.6893357 0.15454882 -0.54957736 -0.60791945 -0.2273396 -0.52047604
0.272845 0.025302734 0.28559387 -0.32971504 0.64913833 0.21728931 0.40064868 -0.2541203
0.5489349 -0.51042706 0.0028645175 -0.33556518 -0.41571003 0.1466361 -0.35015306 -0.6172814
0.17267507 -0.25165388 0.5722569 -0.037599046 -0.52258706 0.27078503 -0.6287665 0.0072913826
0.02990982 0.40879866 -0.5200027 -0.49803817 0.5875583 -0.5396031 0.1866064 0.37708786

fc.weight f4 [1, 128]
00000000: d5de c83d 83f2 53bd 399f a23d c0f4 98bb
00000010: 0ce5 88bc ff93 513e 7168 0f3d c0a2 fb3c
00000020: 15dc e43c c02e d63a b2e7 57bd 86a8 383d
00000030: 7a23 363d 4d25 90bd 9345 fa3d 5237 003d
00000040: ddae 433d dce3 af3d d6ac 883d d821 73bc
00000050: d1a6 603d 0042 5139 6ee4 273d 55a6 343d
00000060: d9fc 8e3e 4da2 a4bd 400d 7b3c 47b0 05bd
00000070: 6d8e 1cbd a673 82be 7670 06bd baed 89bd
00000080: 5115 333c d10d a43d dea2 b23e fbbe 0cbd
00000090: f2cb d4bc 1b55 963d d2d3 213d 60d0 4a3d
000000a0: b061 07bc c643 f3bc 5f07 32bd 404a 22bb
000000b0: 5482 89be 30ab 023d 81ae b43d b84e f9bc
000000c0: 57d3 7d3d d810 1fbd 803f ae3b 4fad acbd
000000d0: b494 bf3d 8c3d bf3c 834c a8bd 3c3e 813d
000000e0: 631c 90bb 8908 0ebd c790 183d 0544 06bd
000000f0: 6918 413e 9a43 0a3d d509 9bbd b0d1 903b
00000100: d977 da3d 3919 a3bd 2df2 c0bb 6814 d73c
00000110: 2d71 b63d a90c 3f3d d729 54bd b07d 893d
00000120: 70dd f0bc 1d4c bd3d 37b5 8dbd c1ed cd3d
00000130: 3800 b5bd af8e 9ebd b6fb b0bc a620 8abd
00000140: 341a 21bd 1174 61bc 562e 8abd a320 81bd
00000150: 1875 f83c dd5c 92bd 58c6 20bd 805e 50bc
00000160: 40a8 2abb 043b 153d d0bc b63c d7a2 5bbd
00000170: d054 45bc 5455 a8bd 0562 ab3e 30d9 de3b
00000180: a169 253c d133 bdbd 57bb f43c 9f34 8f3d
00000190: 12ea a73c bda4 8b3d 5869 63bd ccf0 eebb
000001a0: f13c 043d 0cd3 9dbd 9189 ecbc 3690 a5bd
000001b0: cb97 a63d cc99 a23d e028 5fbc b7c0 9a3d
000001c0: c550 7c3d 3148 f93e 3aa7 53bd daf2 f0be
000001d0: 2220 43bd a08d 533c 4064 f2ba b7a1 06bd
000001e0: 0589 55bd 4cf8 1bbd d8d4 793c e3f6 3ebd
000001f0: 61ed 9c3d 5011 32bc 984f 57bd b71a ddbc
0.09808127 -0.05174495 0.079405256 -0.0046678483 -0.01671078 0.20466612 0.035011712 0.030717254
0.027936975 0.0016340837 -0.052711196 0.04508259 0.044467427 -0.070383646 0.122203015 0.031302758
0.047774184 0.085883826 0.06673591 -0.014839612 0.05484659 0.0001995638 0.040989332 0.04410394
0.27927282 -0.08038769 0.015322983 -0.032638814 -0.038221765 -0.25478858 -0.032822095 -0.06734796
0.010930375 0.08010448 0.34889883 -0.03436182 -0.025976155 0.07340451 0.03950865 0.049515128
-0.008263037 -0.029695403 -0.04346406 -0.0024763495 -0.26857245 0.03190154 0.088223465 -0.030433044
0.061969128 -0.038834423 0.0053176284 -0.084314935 0.09354535 0.023344778 -0.082177185 0.063106984
-0.004397915 -0.03467611 0.037247445 -0.032779712 0.18856968 0.033755876 -0.07570235 0.004419528
0.106673904 -0.07963795 -0.0058882446 0.026254848 0.08908305 0.046642933 -0.051797714 0.06713426
-0.029402465 0.09243033 -0.069193296 0.100551136 -0.08837932 -0.077420585 -0.0216044 -0.067445084
-0.03933163 -0.013760583 -0.06747119 -0.06305053 0.030329272 -0.071466185 -0.039251655 -0.012717843
-0.0026040226 0.036433235 0.02230683 -0.053622093 -0.012044147 -0.082194 0.3347322 0.006800793
0.010095985 -0.09238399 0.029874487 0.069924586 0.020497356 0.06818531 -0.055520386 -0.007291889
0.03228468 -0.077062696 -0.02887419 -0.08084147 0.08134421 0.07939491 -0.013620585 0.07556289
0.061600465 0.4868789 -0.05167315 -0.4706028 -0.047638066 0.012912184 -0.0018493012 -0.032869067
-0.052132625 -0.03807859 0.0152485 -0.04662217 0.07662464 -0.010868385 -0.05256614 -0.026990278
