Model/008870_3991.pth (torch, 4687 bytes, 7 tensors)

lstm.weight_ih_l0 f4 [8, 5]
00000000: 139a cc3e df05 143e c88d 2d3e de6b 9ebd
00000010: 5cab 9f3c 0b0d ff3e 9660 a9be ffe0 1ebf
00000020: 5225 273f 09ec a1be 53ac 143f 952f 213f
00000030: 30a8 493d 40ce d6bd 6a43 853e 76e3 b6be
00000040: 584c 1cbf e0d2 23be 0003 743b c38d 89be
00000050: a09f ec3d 2b1a 50bd 5ebc 483e ad67 813e
00000060: 2b81 4ebb c51f 003f 7743 173f 9791 debe
00000070: c8ae 84bd 7695 31be 66bc c1be c371 7c3c
00000080: a855 213f 5599 e8be 80fc f0ba 359c b83e
00000090: b14f 043f f109 37be fffb 6b3e b11a 1b3f
0.399613 0.14455365 0.16948617 -0.07735418 0.01949089 0.49814638 -0.33081502 -0.62062067
0.6529132 -0.31625393 0.58075446 0.6296323 0.04923266 -0.10488558 0.26027995 -0.35720414
-0.6105399 -0.15998411 0.0037233233 -0.26865968 0.115538836 -0.050806206 0.19603106 0.2527441
-0.0031510096 0.50048476 0.5908732 -0.4347045 -0.064786494 -0.17342171 -0.3783905 0.015407982
0.63021326 -0.45429483 -0.0018385798 0.36056677 0.516841 -0.17874886 0.23045348 0.605876

lstm.weight_hh_l0 f4 [8, 2]
00000000: c05d 703e 8e92 27bf 972d efbe 7509 32bf
00000010: 8896 12bf 2c60 263e 3993 073f aebe 993e
00000020: a0e6 5b3e e4b1 2f3e fa42 803e e8f8 5b3e
00000030: 3042 e03d a084 363d e068 d43c 5921 013f
0.23473263 -0.65458 -0.4671447 -0.6954568 -0.5726094 0.16247624 0.5295902 0.3002829
0.21474695 0.17157704 0.250511 0.21481669 0.10950124 0.044560075 0.025928915 0.5044151

lstm.bias_ih_l0 f4 [8]
00000000: e398 a4be 6c69 2a3f b008 cf3d f0fb 4cbe
00000010: 49b9 9b3e 668f c9bd 9e09 af3e 40cf d83e
-0.32147893 0.6656711 0.10109079 -0.20017982 0.304148 -0.09841804 0.34187025 0.4234562

lstm.bias_hh_l0 f4 [8]
00000000: a1fe 403f 3c7f debe e0a5 6cbd 00db 033e
00000010: 109c 113f 781c 95bd 3d7f 3cbe b68c 3abf
0.7538853 -0.43456447 -0.05777538 0.1287651 0.5687876 -0.072808206 -0.18407913 -0.7287096

fc_1.weight f4 [128, 2]
00000000: 5ca4 0abe 8c2a 04be aadc b2be c333 b1be
00000010: a9d2 023f 3b73 75be 9011 c83d 28b5 e9bd
00000020: 418c 203f eeed a13e d89e 16be cc74 863e
00000030: c82b 90be deb5 883e f727 97be 1099 81bd
00000040: 001f 30bf 5662 de3e 06b7 9dbe f8d3 cdbd
00000050: 6913 153f b4dc adbe 4272 d5be 4665 7ebe
00000060: c9d9 393f e958 1cbf 00bb 6a3b 40ee e6bc
00000070: f78d 96be 8631 e2be 1491 df3e b153 d53e
00000080: aa2e 793e 805c 8bbe 27f4 dfbe bf4a 3a3f
00000090: 6f43 1ebf 0f3c d63d 121c e23e 68ca bcbe
000000a0: 2e26 a83e 40c4 95bd c19d f7be 3ae3 293e
000000b0: a1d0 cd3e f7ca e83e 596f 323f 500b ba3d
000000c0: c951 523f 02aa 5d3e 9eec d13e fc25 043f
000000d0: 58cb 1d3f 9bd4 14be bc56 18be f74a 273f
000000e0: 5e51 d03e fc1b 53be 54ce 973e 15e3 243f
000000f0: 987f ec3d f8fc 06be ea74 2bbf 2888 5cbe
00000100: 9f51 1b3f fa67 383f 4e38 a4bd 1831 56be
00000110: a246 93be e21e cf3e 78f4 2c3f 2252 683d
00000120: 0bc4 c73e 473c 4d3d 74e8 693e 552a 23bf
00000130: bd7b 2a3e 4401 803d b612 303f 7133 5abe
00000140: b218 113f 98b5 df3e d06c 7b3d 70b9 5a3e
00000150: 7865 a83d 902c d0bd 4c8e aabd 9213 263f
00000160: e731 2bbf d65e 993e 31c1 e9bd 6fd4 d2be
00000170: 628c 27bf 2e5b d13e 321c d43e e604 b93e
00000180: 136a 463e be3c 4c3e 3909 d5bc 9101 913e
00000190: 513f 44bd c70a 0ebd 905c 233d 3afd 003f
000001a0: 697f 133f 00bf 9d3c 0bfb 2d3f f9c1 0fbf
000001b0: e532 dabe fbab 05bf 2884 903e d045 10bf
000001c0: 98f7 0fbf 5a41 24bf e0e4 bc3c 13fe 80be
000001d0: 6062 323f 7610 e63e 5dd0 f0be a4a3 d4be
000001e0: 87c0 26be 5054 22bf 00be 8bba 996a 0d3f
000001f0: ebaf 9dbf e358 813e 9735 593e 4ed4 613d
00000200: 30ac 9fbd bd52 9bbe a8bc 39be 3b0a 9a3e
00000210: b2b8 1c3f 89f6 0fbf 4eb2 a03e 3ce1 43be
00000220: 3382 90be 03f2 1cbf e8e3 9abd 87be 84bd
00000230: d997 9b3e 46ca 8cbd 92ac 2a3f d9db 70be
00000240: 6cf1 3cbe dbdc 093f b2ae 043d ac1a 8b3d
00000250: 0818 e9be 9067 2ebf 643a 223e c0cc 703c
00000260: a357 173f 1c33 493e d725 083f a7fc 1a3f
00000270: 4936 ebbe 20f9 8f3e 9628 c1be d982 0dbf
00000280: 4088 75bd 22ed d33e 4cc0 073f 71dd eb3e
00000290: ef2f 113f 4995 583e 708c 383e 54f3 203e
000002a0: a1a9 0e3f 279a 2f3f 18f7 05bf 4cd2 23bf
000002b0: 7cd1 eabe b0eb e7bd 8835 473e fe43 e53e
000002c0: 2fcf 783f e48b 043f 4ccb c6be 9dbc 51bc
000002d0: bbeb 163f 6232 de3e abee 4b3e fbd2 bc3d
000002e0: d655 40bf 84f3 1abf 1735 203f 08f0 efbd
000002f0: 6e70 a93e 0049 a73b 808b 1bbf 5be8 97be
00000300: 764b b9be a64b ac3e 023d 473e 6d88 f1be
00000310: f040 4cbe f298 e83e 28ee 853e 105a 223f
00000320: fcee 853d f17c 0d3f f580 003f 2092 89bd
00000330: 14ca 5b3e e217 ac3e b70e 113f 1b1e 353e
00000340: 29a3 183f 0696 d5be cd73 343f 74c4 2bbe
00000350: 6afa 03bf 29cf 333f 4381 023f 08c4 28be
00000360: a318 23bf f81a f53d 0ae7 913e b7ee dbbe
00000370: 17bd 90bc 1de2 16bf 129c bf3e 3cf6 fdbe
00000380: 26d5 a43e 6e9f 92bd 92a9 35bf 4594 253f
00000390: 24a3 7a3e 9b4f 193f 6fbb 1f3f 363d ba3e
000003a0: 6d60 75be f396 e6bd 9ae6 343f f7a3 9f3d
000003b0: 9cf1 0ebf e327 cabe a66e 1cbf 9221 1ebd
000003c0: 02d8 413e c24c 2bbe cfd0 95be 5672 993e
000003d0: 734a e2be 7f97 35be 1473 11bf 1cf7 b1be
000003e0: b69c fe3e c84a aabe 3618 8dbc 1b59 02be
000003f0: 6414 87bc 83f2 853e 0dbe 1bbf 7339 eabe
-0.1353926 -0.12906855 -0.34933978 -0.34609804 0.5110269 -0.23969738 0.09768975 -0.11411506
0.6271401 0.31626838 -0.14709032 0.26260984 -0.28158402 0.26701254 -0.29522678 -0.063280225
-0.687973 0.434344 -0.30803698 -0.100501955 0.5823274 -0.33957446 -0.41688734 -0.2484332
0.7259794 -0.61073166 0.0035817027 -0.028189778 -0.29405186 -0.44178408 0.43665373 0.41665414
0.24334207 -0.2721901 -0.4374096 0.72770303 -0.61821645 0.10460674 0.4416204 -0.36873174
0.3284163 -0.07312822 -0.48362544 0.16590586 0.40198234 0.4546735 0.69701153 0.09084189
0.82156044 0.21646884 0.41000837 0.5162046 0.616384 -0.14534228 -0.14876837 0.6534876
0.40687078 -0.20616144 0.29649603 0.64409 0.11547774 -0.13182437 -0.6697527 -0.21536314
0.6067142 0.72033656 -0.08018552 -0.20917165 -0.28764826 0.4045325 0.6756053 0.056718953
0.39016756 0.050106313 0.2284258 -0.6373647 0.16648765 0.062502414 0.6877855 -0.21308686
0.5667831 0.43693233 0.06138307 0.21359801 0.08222479 -0.101647496 -0.08327922 0.6487361
-0.6687302 0.29955167 -0.114138015 -0.411777 -0.6544858 0.40889877 0.4142776 0.3613655
0.19376402 0.19945046 -0.026005374 0.28321508 -0.047911946 -0.034678247 0.039883196 0.50386393
0.5761629 0.019256115 0.67961186 -0.56155354 -0.42616954 -0.52215546 0.28225827 -0.56356525
-0.56237173 -0.6416222 0.023058355 -0.25193843 0.6968136 0.44934434 -0.4703397 -0.41531098
-0.16284381 -0.634099 -0.0010661483 0.5524078 -1.2319311 0.25263128 0.21211849 0.05513411
-0.07796514 -0.30336562 -0.18138373 0.3008593 0.6121932 -0.5623556 0.31386036 -0.19128889
-0.28224334 -0.6130678 -0.07563001 -0.06481653 0.30389288 -0.06874518 0.6666957 -0.23521365
-0.1845147 0.53852624 0.032393165 0.06792197 -0.45526147 -0.68126774 0.15842587 0.014697254
0.591181 0.19648403 0.5318274 0.60541767 -0.45939854 0.28119755 -0.37726277 -0.5527778
-0.05994439 0.41391855 0.53027797 0.46067384 0.56713766 0.21150698 0.18022323 0.15717822
0.55727583 0.6859459 -0.5233016 -0.6399276 -0.4586295 -0.11324251 0.19454014 0.44778436
0.9719114 0.51775956 -0.38826978 -0.012801317 0.58953446 0.43397814 0.19915263 0.09219929
-0.75130975 -0.60527825 0.6258101 -0.11715704 0.3309359 0.005105138 -0.60759735 -0.2966946
-0.36190385 0.33651465 0.19456866 -0.47174397 -0.19946647 0.45429188 0.2615826 0.63418674
0.06539723 0.5526877 0.5019677 -0.06717324 0.21463805 0.3361197 0.5666308 0.17687266
0.5962396 -0.4171602 0.704892 -0.1677416 -0.51553977 0.70237976 0.5097849 -0.1648103
-0.6370947 0.119680345 0.2849658 -0.42955562 -0.01766829 -0.5893877 0.3742376 -0.49601924
0.3219387 -0.07159315 -0.7096187 0.64679366 0.24476296 0.59887093 0.62395376 0.36374825
-0.23962565 -0.1125926 0.7066437 0.07794946 -0.55837417 -0.39483556 -0.61106336 -0.038606234
0.18930057 -0.167285 -0.2926087 0.29970044 -0.44197425 -0.17733572 -0.5681622 -0.34758842
0.49728936 -0.3326018 -0.017223459 -0.12729304 -0.016489215 0.26161584 -0.6083687 -0.45746955

fc_1.bias f4 [128]
00000000: 6e47 5cbe 901d 19be 1f0e bc3e f8be 3cbe
00000010: fe75 3b3e 4a47 78be 150b 853e 3c6e 20be
00000020: 3f2c 2cbf 4a26 31bf 9c66 a8be 9684 8c3d
00000030: 6e45 09be ac7e 34bf 3042 293f b899 403e
00000040: 121c f03e 8871 093e fade 023f 5807 5ebe
00000050: ffd7 13bf 204c c03e 2414 b73e c1f3 cabe
00000060: b58a 3bbe 9faf 333e befc cf3e 9f5c 13bf
00000070: 3a1b c43b 7170 9a3e f789 7e3e 9bd1 33bf
00000080: 73c1 55bb bc4b 0dbb a92e 40bd 8844 5f3e
00000090: 65fd 4b3d bc2e a2be 10b3 983e 4e8c 5e3e
000000a0: 834c e23e 1c25 39be 96f1 0abf 4136 4cbd
000000b0: f5ba 92be 3a0d ee3e 1ec1 15bf 03dc 01bf
000000c0: 9278 943e 4f62 ac3d 7091 223f a9d9 283f
000000d0: c76d c8be 6fd4 c1be d954 20bf 47ea 2cbf
000000e0: 75e3 1a3f b806 ddbe d3ca ca3d 4c80 04bf
000000f0: 2630 7a3e 6408 34bf 82d1 7b3d 4ad8 283f
00000100: 813b 103f 2d0c 0a3f 8005 e13e 717e 15bf
00000110: db7c 063f db6f 0a3f d3fe 4637 3783 31be
00000120: c320 d8be 6559 923d 884f 05be a2c8 bfbe
00000130: dbcc e0be 4276 08bf 08cc 2cbe 6722 193f
00000140: 8173 2abf ca6a 0b3d 2309 0c3f 2c1c 4abe
00000150: c840 22be 7ab3 20bf 2393 dd3e 28fc 77be
00000160: 8b94 f9bb 7d4e 1b3f 6959 e0be aa8b 8e3e
00000170: 97a3 b33e 22ce ddbe 84c9 cabe ece3 a83e
00000180: 20a0 71bd 4ab5 363e 1ec8 ecbe 10e6 f43e
00000190: 92ed 053f 5184 2ebf 9ae2 f3be 63ca 783e
000001a0: 1cbb 3cbe c0fd 4dbe 2902 dcbe 95e1 acbe
000001b0: e4d9 2bbe ba9e e9be 2fad 603e a7bf c5be
000001c0: dd7e 943d 8641 ba3e edbe c0be cc0b a7be
000001d0: a8cc 8d3e 07fc 0f3f be79 d3be 584b c53e
000001e0: 9fae 7d3d 4363 b7be 6be3 193f 6a5b 7cbe
000001f0: f8d4 4ebb c4af 1d3f 4854 893e cfc7 11bf
-0.21511623 -0.14952683 0.36729524 -0.18432224 0.18306729 -0.24245945 0.25985017 -0.15667051
-0.67255014 -0.6919905 -0.32890785 0.06861226 -0.13405392 -0.70505786 0.6611662 0.18808639
0.46896416 0.13422215 0.51121485 -0.21682489 -0.5775146 0.3755808 0.35757554 -0.39639094
-0.18314631 0.17547463 0.40622514 -0.57563204 0.005984691 0.3016391 0.24857317 -0.7024171
-0.0032616525 -0.0021560034 -0.0469195 0.21803486 0.049802203 -0.3167628 0.29824114 0.2173321
0.44199 -0.18080562 -0.5427488 -0.049856428 -0.28658262 0.46494466 -0.584978 -0.50726336
0.28998238 0.084171884 0.6350317 0.65957123 -0.39146253 -0.37857386 -0.6262947 -0.6754498
0.6050332 -0.43169188 0.09901967 -0.51758265 0.2443243 -0.70325303 0.0614791 0.6595503
0.56340796 0.5392483 0.4394951 -0.5839606 0.52534264 0.5407693 1.1861051e-05 -0.1733521
-0.42212495 0.07145957 -0.1301862 -0.37457758 -0.43906292 -0.5330545 -0.16874707 0.5981812
-0.66582495 0.03403739 0.5470144 -0.19737309 -0.15845025 -0.6277386 0.4327632 -0.24217284
-0.0076165847 0.6066664 -0.43818215 0.2784093 0.35085747 -0.4332133 -0.3960687 0.3298639
-0.058990598 0.17842594 -0.46246427 0.47831774 0.5231563 -0.6817065 -0.4763382 0.24295954
-0.18430752 -0.20116329 -0.42970398 -0.33765855 -0.16782337 -0.4562891 0.21941064 -0.38622782
0.0725076 0.36378115 -0.37645665 -0.32626188 0.27695203 0.5624394 -0.4130382 0.38534045
0.06193411 -0.35817918 0.6011264 -0.24644247 -0.0031560045 0.6159632 0.26822114 -0.5694551

fc.weight f4 [1, 128]
00000000: b3d4 8d3d 925d 2a3d 7861 693d f96c 9a3d
00000010: 5aa0 8bbd 0afb 3abd 0b3f 93bc 3fb5 a2bd
00000020: 0c19 8dbc 0e81 183d fff4 b23d 1f06 843c
00000030: dfca 183e a06c 06bc b6f7 723c 9325 8b3c
00000040: 7b60 993d df91 533d c02a be3b b9ed 883d
00000050: cc7a ca3c b918 393d 757c 613c 8482 b2bd
00000060: 16f6 1c3e 1d77 853d a40f bf3c bdb2 9d3d
00000070: 4dd8 003e b453 073d dc01 9a3b 5859 9fbd
00000080: cdb9 2f3e c135 183d 4cd6 83bc 8f43 9c3d
00000090: a85e 133d fe5e 9cbd 4b74 a5bd eb7d 753d
000000a0: db9e 3b3d 3b78 ad3d 3f9d aabd 6f7d 6abd
000000b0: fc30 5ebd c687 b6bb 4e48 253d 61cb 803d
000000c0: 6f02 3cbd 85dd a4bc a2c9 f63c 0c31 e1bc
000000d0: 505b 363c 346f 5dbd 7eba 573d da1c 203d
000000e0: 2ee3 8f3d a29d 6a3d e512 a33d f6c8 5a3d
000000f0: 1f8f 7a3b 41c1 0abd dddc 23be fcc7 23bc
00000100: f248 083d 2af5 f2bc 11b1 31bd e91f 863d
00000110: 5116 89bd ff01 f13c cbb2 4a3d 34f2 723f
00000120: a041 6ebd 5f5f adbb d6ef d4bc 31ec 49bd
00000130: e036 f23c 4015 133c 2a30 423d 060c 07bd
00000140: 0aad 4f3d d203 2d3d 1de8 ae3d 40a4 3cbb
00000150: 9539 eb3d 463e 5a3d 65b8 83bd 580c 633c
00000160: c1db 363e 6a3b 893d 3337 a03d 61d6 bc3d
00000170: c7c2 a0bc e0b1 233c 58fe a3bc 9932 563c
00000180: f254 7c3d 5858 923c 256c 903d 1df2 a7bd
00000190: 4039 37bd 907b 49bc 7010 b23c 2407 a33d
000001a0: bfc7 09bd 2c35 47bd fd81 a33d 02d3 f7bc
000001b0: 8cb0 c3bc a08d 6fbd b3aa 2c3d 469a 4f3d
000001c0: 6131 483d 2b17 8ebd 63c3 9abd c0f1 fbba
000001d0: df2d cc3c fe4e a73c 652f 53bd cd3f 87bd
000001e0: 0496 bb3d 1758 0fbd b01f aabd 242d 73bd
000001f0: e02f 6d3e fa26 31bd bd34 48bd cec1 aebd
0.06925335 0.04159314 0.05697772 0.07540316 -0.06817694 -0.045649566 -0.017974397 -0.07944726
-0.017223857 0.03723245 0.087381355 0.0161162 0.14921139 -0.008204609 0.014829567 0.01698569
0.07489105 0.051652785 0.005803436 0.06685967 0.024716757 0.045189593 0.013762583 -0.087163
0.1532825 0.0651686 0.023322888 0.07700107 0.12582512 0.03303881 0.0046999287 -0.07780713
0.17160721 0.03716064 -0.016093396 0.07630073 0.035978943 -0.07635306 -0.08078822 0.059934538
0.045805793 0.08470198 -0.083307736 -0.05724853 -0.054245934 -0.0055703847 0.04035216 0.062887914
-0.04590076 -0.02012516 0.030125443 -0.027489208 0.011130169 -0.05406113 0.052668087 0.039090015
0.07025753 0.057279237 0.07962588 0.053414308 0.003823228 -0.033875708 -0.16002221 -0.00999641
0.03327269 -0.029657919 -0.043381754 0.06549055 -0.0669371 0.029419897 0.049486917 0.9490082
-0.058168054 -0.00529091 -0.025993269 -0.049297515 0.029567182 0.008977234 0.047409214 -0.03297045
0.050702132 0.04223997 0.08540366 -0.0028784424 0.11485592 0.053282045 -0.06431655 0.013857923
0.17857267 0.067007855 0.078230284 0.09220577 -0.019624127 0.009991139 -0.020018741 0.013073587
0.061604448 0.017864391 0.07051877 -0.08200476 -0.044732332 -0.012297526 0.021736354 0.07960346
-0.03363776 -0.048634693 0.07983778 -0.030251984 -0.023887895 -0.058484674 0.04215498 0.050684236
0.048875216 -0.06938013 -0.07556798 -0.0019221827 0.024924217 0.020423409 -0.05155887 -0.06603966
0.091594726 -0.03499612 -0.08306825 -0.05936922 0.23162794 -0.04325006 -0.04887842 -0.08533059
