Model/008930_948.pth (torch, 4687 bytes, 7 tensors)

lstm.weight_ih_l0 f4 [8, 5]
00000000: 807a e83e 9dea bb3e 82b4 1e3e 992a bf3e
00000010: c636 d8bd cccf b2bd 74d3 4ebc e2ad e03d
00000020: 7125 3abd 9da1 883d 36a2 a63e e0a1 d73d
00000030: 7b8e 263f ce08 a33e b4c2 02bf 3880 4f3e
00000040: d2fd b63e 2736 0e3f 9ae6 c4be 64f2 2f3e
00000050: 506d e7be 9ba4 a0be 4c3c b0bc 5e37 65be
00000060: 4d17 10bd 1973 38bf cdc8 97be bb76 923e
00000070: 688a 5bbe 89a5 6e3e c6d1 25bf 096a 73bf
00000080: 5400 1abf b545 0abf 2439 82be 4def debe
00000090: e8d0 01bf 3efb c73e 0957 7cbe 6d97 e2bc
0.4540596 0.36702433 0.15498546 0.37337187 -0.10557322 -0.0873104 -0.012623657 0.109706655
-0.045445863 0.0667145 0.32545632 0.10528922 0.6506116 0.31842655 -0.51078343 0.20263755
0.35740525 0.5555138 -0.38457185 0.17182308 -0.45200586 -0.31375584 -0.021513127 -0.22384402
-0.03517847 -0.72050625 -0.29645386 0.2860621 -0.21439517 0.23305334 -0.64773214 -0.9508367
-0.6015675 -0.54012614 -0.2543422 -0.43541947 -0.5070939 0.3905887 -0.24642576 -0.027660096

lstm.weight_hh_l0 f4 [8, 2]
00000000: fceb 55be 16bc fc3e 4e0b e03e 23b4 97be
00000010: 6cf4 2c3e 9071 99bd 4dd3 243f 741e 333e
00000020: 3846 7d3e b034 34be 0aa7 923e 6203 863e
00000030: 94c5 133e 4036 dc3c 92ea c03e edff 0f3f
-0.20890802 0.49362248 0.43758625 -0.2962962 0.16890115 -0.074923635 0.6438492 0.17492086
0.24733818 -0.17598224 0.28643066 0.26174456 0.14430839 0.026881337 0.37678963 0.56249887

lstm.bias_ih_l0 f4 [8]
00000000: 7028 c53e c08b 96be f97b 85be c6b8 b3be
00000010: cd14 9ebd 566d d8be 63e1 22be ba02 51bf
0.38507414 -0.29403496 -0.26071146 -0.35101908 -0.07718811 -0.42270917 -0.1590629 -0.81644785

lstm.bias_hh_l0 f4 [8]
00000000: e4de 663e ace2 753e 2ca7 1f3e 7690 de3e
00000010: 373a 07be 11fd 443e 6e4c ecbd c305 c6ba
0.22545964 0.2401225 0.15591115 0.4346959 -0.13205801 0.19237162 -0.11538015 -0.0015107918

fc_1.weight f4 [128, 2]
00000000: 73d4 223f e676 163f 2636 923d 1df7 00bf
00000010: 543d 44be c642 fd3e 40b6 8cbe 2b52 22bf
00000020: 7c4f 0c3f 0001 423e fa10 a43e 5548 1cbf
00000030: d406 13be 9960 143f 09db bc3e 0738 a2be
00000040: c088 5ebd cd05 8dbe b4af 1fbf bb8a 993e
00000050: da8d d23e d609 aabe 9428 e2be 3e58 1e3f
00000060: 17b0 ecbe b349 dabe 82ea 58be 61d9 eebe
00000070: 488b 8dbd 62aa a1be 2cda 0c3f 425d 2b3d
00000080: 04c2 4ebe 7104 293f 950a 193f 55ed 043f
00000090: 1262 bdbe 2542 81be b9b0 f73d 81ba bb3e
000000a0: 2b50 243f 9805 9bbd a591 d03e 98f0 183f
000000b0: 0539 04bf 86da 32bf 6efb c0be a0a3 c63c
000000c0: 0ea2 b5be f53f 063f 4e23 f33e c04b 123d
000000d0: a2dc 8fbe 9beb d53d 655f 173f 3e67 84be
000000e0: 42d9 04bf d609 a8be d09d 4dbd 5a3b ad3e
000000f0: 8691 26bc b726 1c3f 1474 b53c fc7f d2be
00000100: 6d62 003f 5ceb efbe af2c 2f3f 246f 1d3f
00000110: d70a d93e 48cf f1be ed43 b6be 9606 163e
00000120: c001 043f b8b8 213f 9b02 cabe 5985 c4be
00000130: ec62 d0be 559c 073f 7d5e 2e3f d939 223f
00000140: 72b9 01be a16a 963e 740e c3be 7cef 05bf
00000150: ea54 023f 3478 8cbe b437 d0bd 1c8b 013f
00000160: caa9 163e 46bc e33e 8649 fa3e 0055 c2bc
00000170: eba3 103f 68d7 dcbd 5df3 d53e bd14 0c3f
00000180: eabd 593e 3631 a3bc cad0 59bf ec68 093f
00000190: 5b52 a43e 82e5 55be 116d 28bf 7c54 063e
000001a0: 741d b3be d0ea 5dbd 2299 873e d7a0 263f
000001b0: e801 d2bd 962b 10be 2dd2 90be 4b74 583e
000001c0: 608e 643d ea91 bdbc bede e63e 1a76 813e
000001d0: fcd7 2ebe 74a3 0bbe bd42 4e3e fd71 153f
000001e0: c51a 3dbe 7c78 4cbd e869 753e befe 193f
000001f0: b005 463f 50d1 0b3e 3020 37be 43d4 223f
00000200: 7e22 d43e a095 593e dff5 68be 35c1 053f
00000210: 2dfc a43e 2a14 98be 8774 9b3e f6f4 b1be
00000220: 7125 96bd 4171 68be 53c9 223f 58a8 94bd
00000230: e092 fa3d f021 f93d ecea b13e 8c4e 1dbf
00000240: d194 0bbf 5b1e 253f a881 1fbf 2c4b edbe
00000250: ab79 1d3f 3cad 54be bbce 0b3f a7e5 e63e
00000260: b3fe f93e 79dc 90be 3af1 a1be 989d 6d3e
00000270: b5b2 16bf 4ab7 aebe 6815 4b3f 3a03 5ebd
00000280: 9c30 cdbe e9b7 e3be edc9 0cbf 85f8 36be
00000290: a666 ed3e e5f9 303f 6096 a13d e7a9 213f
000002a0: 53f0 dfbe 66d6 113f e35f 23be 098b 753e
000002b0: 7e33 45bd 740a 053e d3d3 d1be 1909 403f
000002c0: db16 123f 6fec 18bf 3063 dcbe e588 4c3e
000002d0: db7c 203f 25a3 023f 50f1 f63e 0b87 f53d
000002e0: 05d6 0a3f 76c0 c53e cc79 b2bd 916a 3bbe
000002f0: e52e 9dbe 60e2 44be c6d9 2d3f a48a 49be
00000300: d438 173f 0177 41be b129 00bf f9c0 0e3f
00000310: 6b8c 30be 945b 933e a0fb 08bf ae23 ac3e
00000320: 53ab 2a3e 67f0 c93e 0fb4 97be 7d32 0d3f
00000330: cc5c 483e f0ab 57bd 7e09 6dbe 6e6e 00bf
00000340: 0f40 f53e 686c d93e 6a50 ff3e 0e97 af3e
00000350: cb85 143f ecd2 883e e351 12bf df8f bebe
00000360: 9efd 94be 06fd 2cbf 413a 2f3f 2ce1 463e
00000370: c3bd e83e cd88 2abe 49d3 893d 7516 9cbe
00000380: 589c fd3e 569a a6be 7f8b 053f 5042 d93d
00000390: 944c 003e 3181 a4be a132 013f 2f06 233f
000003a0: ec4b 7fbd a62c 6cbe 02ac 1b3f 545e 013e
000003b0: 838a 153f 7cf3 cdbe 0a70 44bf 19c6 9e3e
000003c0: 76df 213f e582 7d3e 6ae1 7e3e f2ab e63e
000003d0: 8bfa babe dea5 ecbe 61cd b33e c403 133f
000003e0: 606c 0ebf 28a4 1ebe fd93 093f 692f 9a3e
000003f0: 7f5e 1b3f 5276 9d3e 1691 01bd fc38 973e
0.6360542 0.58775175 0.07139234 -0.50377065 -0.1916402 0.49465007 -0.27482796 -0.6340663
0.54808784 0.18945694 0.32044202 -0.6104787 -0.14358073 0.57959896 0.3688586 -0.3168337
-0.054329634 -0.27543488 -0.62377477 0.29988655 0.4112385 -0.3321063 -0.44171584 0.61853397
-0.46228096 -0.42634353 -0.21183208 -0.46650222 -0.069113314 -0.31575304 0.55020404 0.041836984
-0.20191199 0.660224 0.5978177 0.5192464 -0.36988884 -0.25245777 0.12094254 0.3666573
0.64184827 -0.07569426 0.40736118 0.59742117 -0.51649505 -0.6986469 -0.37691826 0.024247944
-0.354752 0.5244134 0.47487873 0.035716772 -0.28098017 0.10445329 0.59129936 -0.25860018
-0.5189401 -0.32820004 -0.05019933 0.33834344 -0.010166531 0.60996574 0.022150077 -0.4111327
0.50150186 -0.46859252 0.68427557 0.6149771 0.42391083 -0.47228456 -0.35598698 0.1465095
0.5156517 0.63172483 -0.39455113 -0.38382986 -0.4070047 0.5297292 0.6811293 0.6336952
-0.12668398 0.29378226 -0.38096964 -0.5231855 0.5091082 -0.27435458 -0.101668745 0.5060289
0.14713207 0.4447958 0.4888422 -0.023722172 0.5650012 -0.10783273 0.41787234 0.54719144
0.21263853 -0.019920927 -0.8508421 0.53675723 0.32094082 -0.20888332 -0.6579142 0.13118166
-0.34983408 -0.054179013 0.2648402 0.6508917 -0.1025427 -0.14079127 -0.2828535 0.21138112
0.055799842 -0.023140866 0.45091814 0.25285417 -0.17074579 -0.13636571 0.20142646 0.5837706
-0.18467243 -0.04991959 0.23966181 0.6015433 0.7735243 0.13654065 -0.17883372 0.63605136
0.41432565 0.21248484 -0.22750042 0.52247936 0.32223645 -0.29702884 0.3036234 -0.34757203
-0.0733136 -0.22699453 0.63588446 -0.072586715 0.122350454 0.12164676 0.34749544 -0.6144798
-0.5452395 0.64499444 -0.62307215 -0.46346414 0.61513776 -0.20769209 0.5461232 0.45097086
0.48827133 -0.28293207 -0.31629354 0.23204648 -0.58866435 -0.34124213 0.7932954 -0.054202296
-0.4007615 -0.4447625 -0.54995614 -0.1786824 0.46367377 0.6913131 0.0789001 0.63149875
-0.4373804 0.5696777 -0.15954547 0.23978819 -0.04814481 0.12992269 -0.40981922 0.7501388
0.57066125 -0.5973577 -0.43044424 0.19974096 0.62690514 0.5103019 0.48230982 0.11988648
0.5423282 0.386234 -0.08714637 -0.1830237 -0.3069984 -0.1922698 0.6791042 -0.19681793
0.5907109 -0.18893053 -0.50063616 0.557632 -0.17241065 0.28780806 -0.5350895 0.3362097
0.16666918 0.39441225 -0.2962956 0.55155164 0.19566649 -0.052654207 -0.23148152 -0.501685
0.47900435 0.4246552 0.4986604 0.34294933 0.5801665 0.2672342 -0.571562 -0.3721914
-0.29099745 -0.67573583 0.68448263 0.19421834 0.45457277 -0.16653748 0.067297526 -0.30485883
0.49533343 -0.32539624 0.5216598 0.10608351 0.12529212 -0.32129815 0.5046788 0.6368131
-0.062328264 -0.23063907 0.6080934 0.1263364 0.5841448 -0.40224826 -0.7673346 0.31010512
0.632316 0.24756964 0.24890676 0.4505306 -0.36519274 -0.46220297 0.3511763 0.5742762
-0.5563412 -0.15492308 0.5374144 0.30114296 0.60691065 0.30754334 -0.031632505 0.29535663

fc_1.bias f4 [128]
00000000: 3e8c 9d3e 56fc fb3e 3fba a2be ca04 f1be
00000010: 7fcd af3e 3b10 95be 1f83 fdbe 4a14 ba3e
00000020: c455 14bf 3403 263f fae9 91be c7f3 3a3e
00000030: 8b6e 16bf 687c bcbd 5e6f 2dbf 9c28 4dbb
00000040: 2bcd 2fbf ade0 153f 79bc c9be ea60 053e
00000050: 549f 9b3e a836 303e ac4c 04be a070 a8bc
00000060: 4a4d 483e 7ce8 d0be 3e34 313d eb6d c0be
00000070: 829c a1be 981d 77be 7d18 1d3f 12ba 153f
00000080: 0194 eebe 7951 0cbe e190 fb3e fd27 5c3d
00000090: ff95 6ebb c1bd c73e 01bf b33e f064 353e
000000a0: 6e70 d43e 7cbf c1be 9dbe a9bd 8e8f 013f
000000b0: 24b7 cf3e eba1 dfbe bf79 aebd ad63 9e3b
000000c0: 78c3 7e3e 1b00 82bd cec7 2e3f e83a edbe
000000d0: 1c6f 1fbe 092d a4be 04b3 223e 66d5 9d3e
000000e0: f003 1f3f 60e3 eebe bf7e 02bf 5b41 963b
000000f0: eadf 4f3e 6ef9 333e 01a1 113f 8f84 04bf
00000100: ed22 003f ae98 133f 1381 953e b329 d83e
00000110: 0a46 5c3e 11da e9be 91bf cfbe 23a4 4d3e
00000120: 6a64 ebbe 1ed8 123f 54f6 25be 06d0 f63e
00000130: 4241 ec3e 6ccb 53be 46b1 a8be 82b3 e03b
00000140: 44bf 163e ae28 223f 548c 72be acd3 4cbe
00000150: b175 f13e 4e41 39bb 6bd9 c93c 6959 343d
00000160: 79e5 013f 8558 143f 381c 97be 9e36 f33d
00000170: a035 13be a4ee 983e ed1f fe3e 83c7 d03c
00000180: ff4a b73e 2d40 f13e 8e71 e63e 2e0d 2cbf
00000190: 892b 253e c8c4 e6bd d58b 02bf f3d3 1bbf
000001a0: 2df3 243e 1074 e4be e665 1fbf 8b03 053f
000001b0: a1f0 29bf 8386 e8be df89 263f 218e 2a3f
000001c0: 2031 c03e 3c7a b4be 30ac eabd 2949 fdbe
000001d0: a645 d53d 9a1a 063f 95dd b83e 7a1d 5cbd
000001e0: 5bdc f13e fa03 aebd 71db 81be 201e 053f
000001f0: 8bac 233f fdf8 253f db7e 25bf 89ff 753e
0.3077106 0.49215955 -0.3178272 -0.47073966 0.3433647 -0.29113945 -0.495141 0.36343604
-0.5794337 0.6484864 -0.28498822 0.18257056 -0.58762425 -0.09203416 -0.6774806 -0.0031304723
-0.68672436 0.58545953 -0.39401606 0.13025251 0.30394995 0.1720835 -0.12919873 -0.020561516
0.19560733 -0.40802372 0.043262713 -0.3758386 -0.31564718 -0.24132383 0.6136549 0.58487046
-0.46597293 -0.13702954 0.4913397 0.053749073 -0.0036405323 0.39011958 0.35106662 0.17714286
0.41492027 -0.37841403 -0.0828831 0.5060967 0.40569413 -0.4367822 -0.08519315 0.0048336596
0.24879253 -0.06347676 0.6827363 -0.46334004 -0.15569729 -0.3206561 0.15888602 0.30826873
0.62115383 -0.46657848 -0.5097465 0.0045854277 0.2030026 0.17575619 0.568863 -0.5176477
0.5005329 0.57654846 0.29200038 0.42219314 0.21511093 -0.45674184 -0.4057584 0.20082144
-0.45975047 0.5736102 -0.16207248 0.48205584 0.46143538 -0.20683068 -0.3294775 0.0068573365
0.147214 0.6334332 -0.23686343 -0.20002621 0.47160104 -0.0028267684 0.024639806 0.04403058
0.5074077 0.5794757 -0.29513717 0.11875652 -0.14375925 0.29869568 0.49633732 0.02548576
0.35799405 0.47119275 0.4500851 -0.6720761 0.16129889 -0.11268002 -0.50994617 -0.60870284
0.16108389 -0.446198 -0.6226486 0.5195853 -0.66382796 -0.45415124 0.65054125 0.6662312
0.3753748 -0.35249507 -0.114586234 -0.4946988 0.10413675 0.5238434 0.36106554 -0.05373905
0.4723843 -0.08496852 -0.25362733 0.5199909 0.63935155 0.6483305 -0.6464669 0.2402326

fc.weight f4 [1, 128]
00000000: 03e0 5fbd 99a6 6dbd 8037 c6bc cee6 183d
00000010: 4536 4d3d f8e8 97bc 4442 a1bc cd4f ae3d
00000020: fc90 bbbc faa8 5a3d ea50 a0bd cef3 05bd
00000030: 60a9 97bb be1a a6bd 7977 803d 1974 84bc
00000040: 1211 723d 68dd 86bd 88cd 343c 0a08 86bd
00000050: a947 00bc 39b6 8ebb 5b08 5cbd f08c 403c
00000060: c96b 45bb 8ae9 703d 62ee 623d 6b7b 3ebd
00000070: 0b54 03bd a14a 91bd 6a43 913d b70b 043d
00000080: 4e52 393d 6b1a 0a3c 9fb6 503d 3514 9e3d
00000090: 1cf9 62be 0ec1 203d 43b1 823d ff48 24bd
000000a0: dd03 873d 3fd7 1ebd 4de5 7d3d 736c a1bd
000000b0: 842e 733d 4b32 a83d c869 613d 2ae7 5fbd
000000c0: a272 6fbd 1cf2 59be 6339 b2bd 703a de3c
000000d0: d466 a4bd d888 023c 5dd5 1f3d db99 463c
000000e0: c58d 9abc 607a f0bc 9a6f d8bc 301b eabd
000000f0: 1e90 023d 5c3e 6a3d fb34 c5bc 3a65 673d
00000100: 4fca 7e3c 9292 8d3d 493e 83bd 9f0e 28bd
00000110: 7713 2dbd 80c3 37bb e2bc 6b3d ac0e 63bd
00000120: fc35 ef3c 9b80 1e3c 125b 1cbd 13f3 a4bc
00000130: 3821 5ebd a1ce a73d 10d5 7abc 4da6 d9bd
00000140: 3e22 c83c a2ff 8ebb 5ebd 363d 2e24 1d3d
00000150: e5b0 1f3d c2ff c8bb 5c88 ed3c 9fc4 73be
00000160: 4287 d7bc e3cb 693d 01e6 aabd 71b2 a0bd
00000170: 6cb9 cebc 79e5 98bd 103e 143d 937b 03be
00000180: e130 9d3d 4058 3abd 3142 463d 10b4 08bd
00000190: 4bb5 54bd 6ae6 8fbd b422 813c 00b5 073c
000001a0: 71a3 2cbd 4e74 6c3d bf66 b13d f0dc 09bd
000001b0: b7c8 95bd 00b4 2bba 1237 aabd a340 9c3d
000001c0: 7300 e0bc d8ed d8bc 5f4e 06bd d827 af3c
000001d0: 65b6 ae3d 4ce7 a93d f812 653c b017 8cbe
000001e0: db5e 933c af07 893d c2ba 08bd d3a9 6b3d
000001f0: 49bc 6bbd 560c 2fbd 2494 8f3c 562b 2cbd
-0.054656994 -0.058020208 -0.024196386 0.037329488 0.050100584 -0.018543705 -0.019684918 0.085113145
-0.022896282 0.053383805 -0.07827933 -0.032703213 -0.0046283454 -0.081105694 0.062727876 -0.01616864
0.05909831 -0.06585199 0.011035331 -0.06544502 -0.007829585 -0.0043552187 -0.053718906 0.011752352
-0.003012406 0.05881647 0.05540312 -0.04650442 -0.03206257 -0.070943125 0.07092936 0.032237735
0.045244507 0.00842915 0.05095541 0.07718698 -0.2216534 0.03924661 0.06381466 -0.040108677
0.06592534 -0.038779493 0.061986256 -0.07882013 0.059370533 0.082127176 0.05503252 -0.054663815
-0.05845893 -0.21283764 -0.08702352 0.027127475 -0.080274254 0.007967196 0.03902184 0.012121643
-0.01886643 -0.029355228 -0.026420403 -0.11430967 0.031875722 0.057188377 -0.024073115 0.05649302
0.015551164 0.06912722 -0.06408364 -0.04102957 -0.04225489 -0.002804011 0.05755318 -0.055433914
0.029200546 0.009674217 -0.03817279 -0.020135438 -0.0542309 0.08193708 -0.015309587 -0.106274225
0.02443039 -0.00436397 0.04461419 0.03836458 0.03898706 -0.0061340043 0.028995685 -0.23805474
-0.026309613 0.057079207 -0.08344651 -0.07846535 -0.0252349 -0.074656434 0.036192 -0.12840109
0.076753385 -0.045494318 0.04840297 -0.033374846 -0.051930707 -0.0702637 0.015763618 0.0082829
-0.042148057 0.057728104 0.086621754 -0.033657968 -0.07313674 -0.00065499544 -0.08311285 0.07629516
-0.027343964 -0.0264806 -0.032789584 0.021381304 0.08530883 0.082960695 0.013981573 -0.27361822
0.017989567 0.06690919 -0.03338123 0.057535004 -0.05755261 -0.042736374 0.017526694 -0.042033516
