Model/010420_43.pth (torch, 4687 bytes, 7 tensors)

lstm.weight_ih_l0 f4 [8, 5]
0	0xbee133dc	-0.43984878
1	0xbf32070d	-0.6954201
2	0x3ec43c38	0.38327193
3	0xbedfe367	-0.43728182
4	0x3eaac887	0.33356115
5	0xbedf6075	-0.43628278
6	0xbc247fba	-0.010040218
7	0x3f17628f	0.59134763
8	0x3e0147a3	0.12624983
9	0x3e3557ce	0.17709276
10	0xbde509f8	-0.11183542
11	0x3eae459a	0.34037477
12	0x3ebf959e	0.37418836
13	0xbe3677d4	-0.17819148
14	0xbf0c9a46	-0.549229
15	0xbec643ce	-0.38723606
16	0x3de09688	0.109662116
17	0xbe285bc4	-0.16441256
18	0x3ed117fa	0.40838605
19	0xbe984f78	-0.2974813
20	0xbed68e4d	-0.41905442
21	0x3ecac882	0.396061
22	0xbdc489b6	-0.09596579
23	0x3eb2c67e	0.34917063
24	0xbee6a696	-0.4504897
25	0x3e598f1d	0.21246
26	0x3ef55ded	0.47923222
27	0x3e4b5b0a	0.19858947
28	0x3f11389d	0.5672701
29	0x3ec5d563	0.38639364
30	0xbf2aa936	-0.66664445
31	0xbd62b4da	-0.055348255
32	0x3dcb5222	0.09927775
33	0x3ef1bbea	0.4721368
34	0xbf12a791	-0.57286936
35	0x3dad0fb0	0.08450258
36	0x3e1e923c	0.15485471
37	0x3e0cd231	0.13752057
38	0xbe98ad9f	-0.29819962
39	0xbf1ef6f2	-0.6209556

lstm.weight_hh_l0 f4 [8, 2]
0	0xbf2d31d1	-0.6765414
1	0x3e9e1e1e	0.30882353
2	0x3f1fa7d7	0.6236548
3	0xbea9e4ae	-0.3318228
4	0x3f28b8fb	0.6590726
5	0x3f0add93	0.54244345
6	0xbe6d0fa8	-0.23150504
7	0xbe13093c	-0.14358991
8	0xbf004ae6	-0.50114286
9	0x3f24a2ed	0.64311105
10	0x3de6ee28	0.112758934
11	0xbd0de1a0	-0.034639
12	0x3f1a73df	0.60333055
13	0xbea08cef	-0.31357524
14	0x3e5edc1c	0.21763653
15	0xbdc5f7c0	-0.09666395

lstm.bias_ih_l0 f4 [8]
0	0x3f0f5b89	0.55999047
1	0x3ee46e42	0.4461537
2	0xbf043b9e	-0.5165347
3	0x3e835c60	0.25656414
4	0xbe943057	-0.2894313
5	0xbe244ff9	-0.16046132
6	0xbd7f7e04	-0.062376037
7	0x3f0ca61f	0.5494098

lstm.bias_hh_l0 f4 [8]
0	0xbf2d1c5d	-0.67621404
1	0xbf1d2e3b	-0.6139867
2	0xbe81d780	-0.25359726
3	0x3e554668	0.20827639
4	0x3dcb5417	0.09928148
5	0xbc1dad84	-0.009623889
6	0x3ec5d309	0.3863757
7	0x3f2b317d	0.6687239

fc_1.weight f4 [128, 2]
0	0xbeebab77	-0.46029255
1	0xbe912781	-0.28350452
2	0xbf06a874	-0.5260079
3	0xbe3d07ac	-0.18459958
4	0x3eea211e	0.4572839
5	0x3ea056a2	0.31316096
6	0x3e137850	0.14401364
7	0x3e927766	0.2860672
8	0xbf232ab1	-0.63737017
9	0xbdd99f38	-0.10626072
10	0xbec05fa5	-0.3757297
11	0x3eaccb32	0.33748776
12	0x3ee0b1ce	0.43885654
13	0x3e94e420	0.29080296
14	0x3ecb9e56	0.39769238
15	0xbf253518	-0.6453414
16	0x3ef6fbba	0.48238927
17	0x3e032004	0.12805182
18	0xbe2728a8	-0.16324103
19	0x3ef79c79	0.48361567
20	0xbed205bc	-0.4102
21	0xbf0a03e6	-0.539122
22	0xbe8ae6ad	-0.27129117
23	0x3f20c371	0.6279822
24	0x3d04e1ba	0.032441832
25	0xbec591d9	-0.38587835
26	0xbe3113dc	-0.17292732
27	0x3e0d529c	0.13801044
28	0x3f12bc0b	0.5731818
29	0x3e74b4d8	0.23897111
30	0x3f02fe4a	0.51169264
31	0x3e80046f	0.25003383
32	0x3ecc326d	0.39882222
33	0x3e8b9bfc	0.27267444
34	0xbe175db8	-0.14781845
35	0x3f2e188f	0.68006223
36	0x3f0ee925	0.558245
37	0xbdd1e6b8	-0.10249084
38	0x3ee8d61c	0.45475852
39	0x3e0ef812	0.13961819
40	0xbee768c9	-0.45197132
41	0x3f19dd31	0.60103136
42	0x3e935a58	0.28779864
43	0xbe3ec624	-0.18630272
44	0x3d3eb2fe	0.04655742
45	0xbf32ccd3	-0.69843787
46	0x3f09fc8b	0.53900975
47	0xbd6aa641	-0.05728746
48	0xbeea1dba	-0.45725805
49	0x3f2c331d	0.6726549
50	0xbd1834ac	-0.037159607
51	0x3e006c35	0.12541278
52	0x3ee9f288	0.4569285
53	0x3f0a245d	0.53961736
54	0x3cdeeee7	0.027213527
55	0xbeb23d08	-0.34812188
56	0xbeb8b1cf	-0.36073157
57	0x3f2085d7	0.62704223
58	0x3f027c59	0.5097099
59	0x3dc4dc5e	0.09612344
60	0xbf22a90e	-0.63539207
61	0x3f268728	0.6504998
62	0x3ee78222	0.4521647
63	0xbf073e56	-0.5282949
64	0x3e9fced7	0.31212494
65	0xbf14dcb9	-0.58149296
66	0xbd945077	-0.0724191
67	0x3e584545	0.21120174
68	0x3e92bfa8	0.28661847
69	0xbf24f850	-0.64441395
70	0xbcf5dec5	-0.030013451
71	0x3f183959	0.59462506
72	0x3e4ddaf1	0.20103051
73	0x3f08b8ff	0.5340728
74	0xbe80c5dc	-0.25150955
75	0xbe3891d4	-0.18024379
76	0xbecce922	-0.40021616
77	0x3de2362b	0.11045488
78	0xbecc899c	-0.39948738
79	0xbf284915	-0.65736514
80	0xbf276001	-0.65380865
81	0xbe846645	-0.25859275
82	0x3d9105a8	0.07081157
83	0xbebb90a9	-0.36633804
84	0x3c88da00	0.016705513
85	0x3f3189ed	0.69351083
86	0x3ecad9ac	0.39619195
87	0xbee9ed68	-0.4568894
88	0xbdaa76c0	-0.08323431
89	0xbf2172a9	-0.6306558
90	0x3ec533e1	0.38516143
91	0x3efc28db	0.4924992
92	0x3eafd2d8	0.3434055
93	0xbf221a06	-0.6332096
94	0xbee8399b	-0.4535645
95	0x3f018a68	0.50601816
96	0x3ee4cf46	0.44689387
97	0x3e88fa6e	0.26753563
98	0x3e50dbcc	0.20396346
99	0x3ed1492a	0.40876132
100	0x3f0caa2f	0.5494718
101	0xbeab6345	-0.33474174
102	0x3e581914	0.21103317
103	0x3f1ce92b	0.61293286
104	0x3f05b133	0.5222351
105	0x3e9aafca	0.3021224
106	0x3e20076c	0.15627831
107	0xbef314aa	-0.47476703
108	0xbe6227a9	-0.22085442
109	0x3e71be68	0.2360779
110	0xbf287d7e	-0.65816486
111	0x3cf5afe0	0.02999109
112	0x3e9fe542	0.31229597
113	0x3cc8d640	0.024516225
114	0xbf26f2f7	-0.65214485
115	0x3f0abeea	0.5419756
116	0xbf21aa0c	-0.63150096
117	0xbf1c8825	-0.6114524
118	0x3ea486ae	0.32134002
119	0xbf293dee	-0.6611012
120	0xbf2cb578	-0.674644
121	0x3f228fcb	0.6350066
122	0x3ca6f3e0	0.02037996
123	0xbcd6cc00	-0.026220322
124	0x3ee8347d	0.45352545
125	0xbe19c578	-0.15016735
126	0x3eef4c8e	0.46738094
127	0x3f028f41	0.5099984
128	0x3ed7494c	0.4204811
129	0xbf094993	-0.5362789
130	0xbed890e1	-0.42298034
131	0xbec4c87e	-0.38434213
132	0x3f0cf01f	0.55053896
133	0x3ef5bf61	0.47997573
134	0x3e3dae10	0.18523431
135	0xbe871532	-0.26383358
136	0x3ea75390	0.3268094
137	0x3ce7dc32	0.02830324
138	0xbec8455a	-0.3911541
139	0xbf0822cd	-0.531781
140	0xbf1d9ba4	-0.61565614
141	0xbee1bfd9	-0.4409168
142	0xbe6b76c0	-0.22994518
143	0xbf0a8262	-0.541052
144	0x3edf35ca	0.43595725
145	0xbe52f0f1	-0.20599724
146	0xbe82c1e5	-0.25538555
147	0x3f28dc3e	0.6596106
148	0x3debe3c0	0.11518049
149	0xbf2efe20	-0.68356514
150	0x3ea7316e	0.326549
151	0x3f21061d	0.62899953
152	0x3f2d2c9d	0.676462
153	0xbe110e8c	-0.14165705
154	0x3f036d6b	0.51338834
155	0xbf1ae89a	-0.6051117
156	0x3eb46d69	0.35239723
157	0x3ed4aad0	0.4153657
158	0xbf2a8e13	-0.6662304
159	0x3f220261	0.6328488
160	0xbeea7bfe	-0.45797724
161	0xbe5e5ed9	-0.21715869
162	0xbf0f98a3	-0.5609228
163	0x3f1acf9f	0.60473055
164	0xbf04e982	-0.51918805
165	0xbea170f7	-0.31531498
166	0xbee5bf16	-0.4487235
167	0xbf295779	-0.661491
168	0xbd0ef2bd	-0.034899462
169	0xbf3785f1	-0.71688753
170	0xbee055bb	-0.43815407
171	0xbec29bd6	-0.38009518
172	0x3f0a67da	0.54064715
173	0xbf0be078	-0.5463939
174	0xbe67fc3d	-0.22654815
175	0x3eadf6aa	0.33977252
176	0x3eb0ecfa	0.345558
177	0xbee489c0	-0.44636345
178	0x3de8cea0	0.113675356
179	0xbea761ee	-0.32691902
180	0xbf22d248	-0.63602114
181	0x3ed3d909	0.41376522
182	0x3e6bbfe4	0.23022419
183	0xbf190438	-0.5977206
184	0xbcf4d460	-0.029886425
185	0xbea91434	-0.33023226
186	0x3e323808	0.17404187
187	0xbf327940	-0.6971626
188	0x3e0039c1	0.12522031
189	0xbf088b1d	-0.5333727
190	0x3ead127e	0.3380317
191	0xbf0a24a1	-0.5396214
192	0xbefb587e	-0.49090952
193	0x3f0747e8	0.52844095
194	0xbde4e1a8	-0.11175853
195	0xb99e3800	-0.00030177832
196	0xbd940748	-0.07227951
197	0x3f3062f7	0.6890101
198	0x3f04a932	0.5182067
199	0xbe8e1ac7	-0.27754804
200	0x3e254c34	0.1614235
201	0x3dddc578	0.1082868
202	0xbebb9e00	-0.36643982
203	0x3d9bafe9	0.076019116
204	0xbedecf30	-0.43517447
205	0x3f340bd3	0.7033054
206	0xbe7b9050	-0.2456677
207	0xbd626100	-0.055268288
208	0xbec632b0	-0.38710546
209	0x3ee455e6	0.44596785
210	0x3ce6c124	0.028168269
211	0x3ee56df7	0.4481046
212	0xbe8bdb28	-0.2731564
213	0x3e61c700	0.22048569
214	0x3f0f2959	0.55922467
215	0xbf187184	-0.5954821
216	0x3f109f95	0.564935
217	0x3f0bfa17	0.5467848
218	0xbe8ad5f3	-0.27116355
219	0xbdb40e58	-0.08791798
220	0xbf1c32db	-0.610151
221	0xbf03ee94	-0.51535916
222	0x3d6d7de9	0.057981405
223	0xbeeb25c3	-0.45927247
224	0xbecaff22	-0.39647776
225	0xbebcb7a3	-0.36858854
226	0xbec0c253	-0.37648258
227	0x3df224a2	0.118233934
228	0xbf067f9e	-0.5253848
229	0xbf34f4a0	-0.7068577
230	0x3e77cdc0	0.24199581
231	0xbeeb943e	-0.46011537
232	0x3e120992	0.14261463
233	0x3ef53af7	0.4789655
234	0x3f04e34b	0.5190932
235	0x3f1f80c5	0.6230586
236	0xbe5d6132	-0.21619108
237	0xbed409ba	-0.4141367
238	0x3e4af81f	0.19821213
239	0xbea5d212	-0.32386833
240	0xbf1af322	-0.6052724
241	0xbf2b6931	-0.66957384
242	0x3e98f285	0.29872528
243	0x3df06bf5	0.11739341
244	0xbef0dcb4	-0.47043383
245	0x37f20000	2.8848648e-05
246	0xbf023c04	-0.50872827
247	0xbe834ce4	-0.256446
248	0x3e239527	0.15974866
249	0xbf0da1ac	-0.55324817
250	0xbe632934	-0.22183686
251	0x3ddcfae1	0.10790039
252	0x3e3e6970	0.18594909
253	0xbeab04f2	-0.3340221
254	0xbe9259c9	-0.28584126
255	0x3dc8aa28	0.0979808

fc_1.bias f4 [128]
0	0x3decc6dc	0.11561367
1	0xbf15c5b0	-0.5850477
2	0xbef9c1f1	-0.48780778
3	0xbf34935c	-0.7053735
4	0xbea38aee	-0.31941932
5	0xbde77988	-0.11302477
6	0xbece68a4	-0.4031421
7	0xbeb60377	-0.35549518
8	0xbf0a46ed	-0.54014474
9	0x3eaa22af	0.33229586
10	0xbe19f508	-0.15034878
11	0xbeebfe1e	-0.46092314
12	0x3ee5801e	0.44824308
13	0xbe3e8ca4	-0.18608338
14	0xbe14a274	-0.14515096
15	0x3f1cfdd4	0.6132481
16	0x3f0e5206	0.5559391
17	0xbe57d38e	-0.21076795
18	0xbeb37936	-0.35053414
19	0x3d137e1d	0.036008943
20	0xbf140c5f	-0.57831377
21	0xbf2d828f	-0.6777734
22	0x3f055ddf	0.5209636
23	0x3eb56e1d	0.35435572
24	0xbeca53a3	-0.39516935
25	0x3dc12b32	0.09432067
26	0x3f2257d7	0.6341528
27	0x3efb0fdf	0.49035546
28	0x3dfd7b60	0.123770475
29	0x3e481876	0.19540581
30	0x3ed2514c	0.4107765
31	0xbc685480	-0.014180303
32	0x3ebc047b	0.36722168
33	0x3f1e87b6	0.6192583
34	0xbef82dc1	-0.48472407
35	0x3e94c8b5	0.29059377
36	0x3d8a8860	0.06764293
37	0xbdf78df8	-0.12087625
38	0x3e058ee7	0.13042794
39	0xbeff49bc	-0.49860942
40	0x3e493d6e	0.1965234
41	0xbe8a1042	-0.2696553
42	0xbebf9c0d	-0.37423745
43	0x3ee70024	0.45117295
44	0xbe776f44	-0.24163538
45	0x3ea5db73	0.3239399
46	0x3f0c4b3c	0.548023
47	0x3df58b69	0.11989481
48	0xbf0f96c8	-0.5608945
49	0xbeebc0c7	-0.46045515
50	0xbd5d8ee0	-0.054091334
51	0xbf1100f8	-0.56642103
52	0xbe8c9efb	-0.27465042
53	0xbee417ac	-0.4454931
54	0xbc820ffe	-0.015876766
55	0xbea526fc	-0.32256305
56	0xbd71c550	-0.059026062
57	0x3ed4617d	0.41480628
58	0xbea511b8	-0.3224008
59	0xbecca80a	-0.39971954
60	0xbebca34b	-0.36843333
61	0xbec736dc	-0.38909042
62	0x3f007ec7	0.50193447
63	0xbf34745e	-0.7049006
64	0x3de4ff0b	0.11181458
65	0x3edec9b0	0.4351325
66	0x3e31afc3	0.17352204
67	0x3e95782c	0.29193246
68	0x3ed513f9	0.416168
69	0xbec6e05f	-0.38843057
70	0xbf33649b	-0.70075387
71	0xbec0f5d9	-0.37687567
72	0x3eb1d642	0.34733778
73	0x3ee34828	0.44390988
74	0xbed1e53e	-0.4099521
75	0xbedcb640	-0.43107796
76	0xbeb9baa8	-0.3627522
77	0xbeb18711	-0.3467336
78	0xbd06c71f	-0.03290474
79	0xbf274a53	-0.65347785
80	0x3deadcbc	0.11467883
81	0x3ea35478	0.31900382
82	0xbf302f7f	-0.68822473
83	0xbedeaf45	-0.43493095
84	0x3df1c64b	0.118053995
85	0xbf28689d	-0.6578463
86	0x3cb74d02	0.022375587
87	0xbc254739	-0.010087782
88	0x3cff8a30	0.031193823
89	0xbeab2659	-0.33427694
90	0x3e4a2ef4	0.19744474
91	0xbec825eb	-0.3909143
92	0xbd9d10f8	-0.07669252
93	0xbdb396c0	-0.08768988
94	0x3f13a280	0.5766983
95	0xbf1a2e6b	-0.6022708
96	0xbcfe28de	-0.031025346
97	0xbd916e88	-0.0710116
98	0xbe88cb27	-0.26717493
99	0x3eccd015	0.40002504
100	0xbea2b979	-0.3178213
101	0x3f275674	0.6536629
102	0xbe435188	-0.1907407
103	0x3ebe8fa1	0.37218955
104	0xbf1877b7	-0.5955767
105	0xbd39f914	-0.045403555
106	0xbe96f108	-0.29480767
107	0xbeea4cda	-0.45761758
108	0x3f23ccd4	0.6398442
109	0xbe8fa136	-0.28052682
110	0x3f2f24c9	0.68415505
111	0x3f2fa63c	0.6861303
112	0x3ed68454	0.41897833
113	0x3d97b6cb	0.07407912
114	0xbef30cde	-0.47470754
115	0xbdb391a0	-0.0876801
116	0x3c22f507	0.009946114
117	0xbf1c6a26	-0.6109947
118	0xbe581c58	-0.21104562
119	0x3f168100	0.5879059
120	0xbef79f7e	-0.4836387
121	0x3f112111	0.5669108
122	0xbed06592	-0.40702492
123	0x3e9de7e7	0.3084099
124	0x3e0f2829	0.13980164
125	0x3e74e1e7	0.239143
126	0x3efa5757	0.4889476
127	0xbe82a2b4	-0.25514758

fc.weight f4 [1, 128]
0	0x3d88c530	0.066782355
1	0x3da82915	0.08210961
2	0xbbd53440	-0.006506473
3	0xbc91c498	-0.017793939
4	0x3c8aca9c	0.016942315
5	0x3d2b7112	0.04185588
6	0x3c211ef0	0.009834036
7	0xbd7cf0ea	-0.06175319
8	0x3d2e4142	0.042542703
9	0xbd5ed77e	-0.054404728
10	0x3d1f5da6	0.03890767
11	0x3ba50e10	0.005037077
12	0xbd84c464	-0.06482771
13	0x3d971323	0.07376697
14	0xbdb2d198	-0.08731383
15	0xbc3bff54	-0.011474449
16	0x3da2a39a	0.07941361
17	0xbdae666f	-0.085156314
18	0x3d5cabba	0.05387471
19	0xbc12f00f	-0.008968367
20	0x3b2ca860	0.0026345477
21	0xbd8dc366	-0.06922035
22	0xbd63ae24	-0.055585995
23	0x3dbba45c	0.091622084
24	0xbd585640	-0.05281663
25	0x3dce1cd4	0.10064092
26	0xbd1c5bdd	-0.038173545
27	0xbbb69dd3	-0.0055730133
28	0x3dac339a	0.0840828
29	0xbd52cbd0	-0.051463902
30	0x3d2daa84	0.042398944
31	0x3d3fb342	0.046801813
32	0xbd03d031	-0.03218097
33	0xb9b0c8d7	-0.00033718973
34	0x3d02c94c	0.031930253
35	0x3c7d6d9e	0.015468029
36	0xbd7f8323	-0.06238092
37	0x3cf89030	0.030342191
38	0xbb7e1409	-0.0038769266
39	0xbc413828	-0.011793174
40	0x3d8fb2aa	0.07016499
41	0xbce2a5c8	-0.027666941
42	0x3d90240b	0.07038125
43	0xbd68957c	-0.056783184
44	0x3d377962	0.044793494
45	0x3d708c4a	0.05872754
46	0x3d6cc831	0.057808105
47	0xbb74cb15	-0.0037352492
48	0x3a939d80	0.0011262149
49	0x3c91a830	0.017780393
50	0xbd8ec960	-0.06972003
51	0xbd55bf7b	-0.052184563
52	0xbd22d2e2	-0.039751895
53	0x3d5b5862	0.053551085
54	0xbd1deec5	-0.038557786
55	0x3d4055de	0.04695689
56	0xbd88743e	-0.066627964
57	0x3dbdb127	0.09262305
58	0xbd7324c4	-0.059361234
59	0x3db3850f	0.08765613
60	0xbce663c0	-0.028123736
61	0xbd44a1a6	-0.048005722
62	0xbd715dae	-0.05892723
63	0xbd3b5d5a	-0.045743324
64	0x3d52afb8	0.05143711
65	0x3d03f7cf	0.03221875
66	0x3da4298b	0.08015736
67	0xbd3ef1e6	-0.04661741
68	0xbccec043	-0.025238162
69	0xbd1401e8	-0.03613463
70	0x3da80a4f	0.08205091
71	0x37104000	8.59797e-06
72	0xbd0261a7	-0.03183141
73	0x3d2f95f2	0.04286761
74	0x3cbfebdc	0.023427896
75	0xbd27e771	-0.040992204
76	0xbd59b439	-0.05315039
77	0x3c284220	0.010269672
78	0x3c70ec27	0.014704741
79	0x3d99a497	0.07502096
80	0x3dba6a31	0.09102286
81	0xbcaeb81c	-0.021328025
82	0x3d69581e	0.0569688
83	0x3da63105	0.081148185
84	0xbc5b2b4b	-0.013377021
85	0x3d5724ba	0.05252526
86	0xbd7bcefb	-0.06147669
87	0xbd012573	-0.031529855
88	0xbd86d246	-0.06583075
89	0xbd2567f9	-0.04038236
90	0x3d2e8f23	0.042616975
91	0xbd2cde33	-0.042204093
92	0xbd9458fc	-0.07243535
93	0x3d898513	0.06714835
94	0xbd80486f	-0.062638156
95	0xba1b5e00	-0.0005926788
96	0x3d376481	0.044773582
97	0x3d624456	0.05524095
98	0xbd52ff4d	-0.051513005
99	0x3a5c361e	0.0008400398
100	0xbd34aaea	-0.04410831
101	0x3d4b64da	0.049656726
102	0xbd768eb4	-0.060194686
103	0x3d81c96c	0.06337246
104	0x3c39d9a0	0.01134339
105	0x3db5d903	0.08879282
106	0x3d666ec6	0.056257986
107	0x3d9217af	0.071334235
108	0x3c684d79	0.014178627
109	0x3d8bdff9	0.06829829
110	0xbbf73866	-0.007544565
111	0x3d5c8da0	0.053846
112	0xbcb74e55	-0.022376219
113	0xbce4845b	-0.027895143
114	0x3cd7677c	0.026294462
115	0x3dac3ee7	0.08410435
116	0xbc10c018	-0.008834861
117	0xbd1135d4	-0.035451725
118	0xbd18ea40	-0.037332773
119	0xbc93fe6b	-0.018065652
120	0x3db1437f	0.08655452
121	0xbcd0b498	-0.025476739
122	0x3d170df2	0.036878534
123	0x3d4ece72	0.05048985
124	0x3dd64f17	0.10464304
125	0x3cb245db	0.021761825
126	0x3dc12892	0.09431566
127	0x3d97a04b	0.0740362
