Model/010660_4271.pth (torch, 4687 bytes, 7 tensors)

lstm.weight_ih_l0 f4 [8, 5]
00000000: a543 973d 02b6 423e f1dd 28bf 2106 953e
00000010: 9b02 153d 26a5 a03d d873 eebd 8383 163e
00000020: 7e0c 0abf 4f8f 75be b43a 193e b00a fcbd
00000030: 2207 75be 6a95 803e f72f 203f 8075 2e3c
00000040: 823b 01bf 321a cabe 605d 2bbe 620c ef3e
00000050: b922 3e3e dd0b dcbe d610 3ebf 47a7 d4be
00000060: a1fd 513f 613c e2bd 395c c2be 1170 c43d
00000070: 15de 4c3e 5cf1 a53d 3612 5fbd 2377 3abf
00000080: ecbe a1bd 12ce aebe b61a dfbc 802d 7dbd
00000090: e6d0 273f c0e5 8ebf 6e78 b6be d7c5 07be
0.07385949 0.19014743 -0.65963656 0.29106238 0.036379438 0.078439996 -0.11643189 0.14698605
-0.5392531 -0.23980449 0.149638 -0.12306726 -0.23928502 0.25113994 0.6257319 0.010648131
-0.50481427 -0.3947311 -0.16734838 0.46689135 0.18567933 -0.429778 -0.7424444 -0.41533872
0.8202763 -0.110466726 -0.37960985 0.095916875 0.20006593 0.08102676 -0.054460727 -0.7283804
-0.078977436 -0.34141594 -0.027234416 -0.06181097 0.6555313 -1.1163864 -0.35638756 -0.13259064

lstm.weight_hh_l0 f4 [8, 2]
00000000: 64d5 7e3e b460 44be 285b b7bd f72c 223f
00000010: c9ab 80be be48 a33e 783e 10be 60fa b9bc
00000020: fe25 a63e 1f02 0bbf 3aab 17bf d0a5 23bf
00000030: 60cd 6e3d d80b 0f3e bcd4 383e efa2 063f
0.2488609 -0.19177514 -0.089529335 0.6334986 -0.25131062 0.31891435 -0.1408633 -0.022702396
0.3245086 -0.5430011 -0.59245646 -0.63924885 0.05830133 0.13969362 0.18049902 0.52592367

lstm.bias_ih_l0 f4 [8]
00000000: 4b87 da3e ede5 2e3f 26ee d5be f621 da3e
00000010: 91e9 10be d38e ca3e 24e0 dfbd d30c 473f
0.42681345 0.6831959 -0.41783255 0.42604035 -0.14151599 0.3956209 -0.10931423 0.77753943

lstm.bias_hh_l0 f4 [8]
00000000: e340 86be 1042 6a3f 81bf 8fbe e3d0 0a3f
00000010: b440 febd 537e f03e cf15 123f 036e ef3e
-0.2622138 0.91507053 -0.28075793 0.54224986 -0.12414685 0.46971378 0.5706453 0.4676362

fc_1.weight f4 [128, 2]
00000000: 99af f8bc 5078 9bbe a7ab a9bf 4c1b 0bbf
00000010: 2ce9 143e 0920 d93e 0b59 273e 0b9d 18bf
00000020: f238 f6be 62de d3be 6a39 ba3e 82e6 fe3e
00000030: 9690 de3e 754e a4be 0296 5dbe facd df3e
00000040: de1a f3be 1b6b cebe 968c debe 00de d13a
00000050: e1ba d3be ed84 2abf 3125 1abf 1282 18bf
00000060: a510 48bf ab88 27bf 7021 ee3e b8aa 973e
00000070: 18a2 983c c2ab 213f ec5b 023e 7cd2 343e
00000080: 74ff 22bf 75cf dfbe dd80 4fbe 5366 2f3e
00000090: 1f76 443f 6d6b 23bf 60c4 7c3e 4ac8 05bf
000000a0: e31a bd3d d595 393f 1990 6ebf aa35 3bbd
000000b0: f008 773e 8aef 2cbf bd96 0a3f a805 ffbe
000000c0: a8d3 743d d029 833f 5810 75be 3e44 cb3e
000000d0: fd60 043e 376a 87be a0a1 76bd d08e 693d
000000e0: 7293 8d3d b845 d03e 18b1 a33d 90d9 d2bd
000000f0: 59d1 d7be beab 273f 1909 d0be 0c46 6e3e
00000100: 1888 80be be36 2cbe 7eae 3d3f 9a91 533f
00000110: f69f df3d f53e 79bf 8109 39bf be0d 2d3f
00000120: c476 41bf 7165 bdbe 2885 043f 0610 6c3d
00000130: 926b 0ebf 2c1c cabe 9ace 193f fd26 3d3f
00000140: acd8 ff3e 4a57 b2be e2cc 813e 55c4 263f
00000150: 3161 803d ec0d 05bf 0681 16bf a054 afbc
00000160: b0cc fd3d 000d 09bb fa66 b23e 7ffa 5abf
00000170: 56a8 5d3d f617 87be ac01 8a3e aa4e 9bbd
00000180: 84b4 483e 007b 563e 5a6d aa3e c0e0 da3c
00000190: 7021 25bf 77ce 13bf 2e5f de3e 5fbe 06bf
000001a0: 7b73 7fbf 79b0 ed3d 1608 ce3e 0a7a 0fbf
000001b0: 58cf 4fbf 355f 73bf e4f8 17bf fb34 e4bd
000001c0: 1cb8 5dbe 1a7a 703d ed85 16bf 8876 29be
000001d0: ee94 e33e 86be 63be 8f68 cb3e 58d2 723f
000001e0: 9160 91be ac94 dcbe 92e6 dfbe f0a4 1ebd
000001f0: 78f8 0b3d eb70 01bf 758e 89be fa89 56be
00000200: 0aec a53c ccda ef3e 4f2a 1d3f 3cf8 a3be
00000210: 356f 083f 2609 233f 6100 01be 50fd 81bd
00000220: fbf2 5bbf 3ee4 61bd 4bf0 373e fe2a 8b3e
00000230: c288 0abf 7c8c 76be 9ebd fcbe 5032 613d
00000240: 1597 8abe 08cf 4cbe ba0c c6be 960e e83e
00000250: 8952 42bf f24f 3ebe a609 ccbe 4a1b e5bd
00000260: 083a 413f 31d2 c7be 933f e63e a83a 4f3f
00000270: 3f02 0f3c 3242 b2be a963 913d c2dd 73bd
00000280: 99e4 3c3f b770 9e3e e22a db3e c0e6 ffbc
00000290: 56e2 debd ef04 97be 84de 333e 7a43 103f
000002a0: 7435 cabe 006c 7b3c 180d 13ba 816d 68be
000002b0: 1830 1b3e c528 a6be 427f bbbd 0623 4dbd
000002c0: c6a0 4bbf ae89 18bf 315e 29be a450 d63e
000002d0: 5a80 593f fc40 fb3e 3074 543f 6ea8 993e
000002e0: 4af2 233e 48bf 093f 9df2 3b3e 9c9c e7bc
000002f0: 757f 95be a1b0 9dbe e650 f8be 3951 be3e
00000300: d447 803f dc09 59bf 4570 303e d6ce eabe
00000310: ad6a fbbc 0cf2 063f a8e4 2bbf 088b cbbe
00000320: 3256 02bf 0682 1fbf 9589 1ebf e880 573e
00000330: 984b 8cbe 78ce f6be 20cb fdbe ec46 373e
00000340: a08a a83c 22ab 03bf b605 13bf 5ebd ecbe
00000350: a036 953d de23 ebbe 5ee8 19bf 9c23 08bf
00000360: 7175 76be a234 6cbf b7b9 bdbe 5fb8 07bf
00000370: a01b df3d 13e5 1cbf 906a e73d ebd6 e7be
00000380: 95a6 b8bd 003c 283f 819f 1dbf 79c8 4ebf
00000390: 16c6 fb3e 31b7 5f3f 2f7f b2be 2a24 fd3e
000003a0: 409d e0bc 3873 cbbd 5f18 083f 0c0c 2dbf
000003b0: b0fc 2c3e c025 5c3c 644d da3e bf3e 423f
000003c0: 1ad0 e1be 8ec7 ea3e 610c 103f 7323 403e
000003d0: a512 ed3d b2a6 d43e 593a 2ebf 8ba1 1d3f
000003e0: 4763 123f 0a5a 153e 81e8 34bf 78e3 f33d
000003f0: 3ff0 f5be a8ad d23d 22c2 883f 4471 813e
-0.030357169 -0.3036523 -1.3255509 -0.54338527 0.14542073 0.42407253 0.16342561 -0.5961463
-0.4809032 -0.41380602 0.36371928 0.49785239 0.43469685 -0.32091108 -0.21639255 0.43711835
-0.47481436 -0.4031609 -0.43466634 0.0016011596 -0.41353515 -0.6660908 -0.60213 -0.5957347
-0.781504 -0.65442914 0.46509886 0.29622436 0.01863198 0.63152707 0.12730378 0.17658418
-0.6367104 -0.43712965 -0.20264001 0.17128877 0.7674274 -0.63835794 0.24684286 -0.5225874
0.09233644 0.7249425 -0.93188626 -0.045705475 0.24124503 -0.6755301 0.5413626 -0.49809003
0.059772164 1.0247135 -0.23932016 0.39700502 0.12927623 -0.26448223 -0.06021273 0.057020962
0.069128886 0.4067819 0.07992762 -0.10295403 -0.42151907 0.6549643 -0.4063194 0.23268908
-0.2510383 -0.16817757 0.7409438 0.82644045 0.10919182 -0.9736169 -0.72280127 0.67599094
-0.75571847 -0.36991456 0.5176568 0.05763247 -0.5563289 -0.39474618 0.60080874 0.73887616
0.49969995 -0.3483222 0.25351626 0.6514333 0.06268538 -0.5197437 -0.58790624 -0.021402657
0.12392557 -0.002091229 0.3484419 -0.85538477 0.054115616 -0.26385468 0.269544 -0.07583363
0.19600111 0.20945358 0.33286554 0.026718497 -0.64504147 -0.57736915 0.4343199 -0.52634233
-0.99785584 0.11605925 0.40240544 -0.5604559 -0.81175756 -0.9506715 -0.5936415 -0.11142918
-0.21652263 0.058710195 -0.58798105 -0.16549122 0.44449562 -0.22240648 0.3972821 0.9485221
-0.28393987 -0.43082178 -0.437306 -0.038731515 0.034172505 -0.50562924 -0.268665 -0.20951071
0.020254154 0.46846616 0.6139268 -0.32025325 0.5329469 0.63685834 -0.12597801 -0.06347144
-0.85917634 -0.05514931 0.17962758 0.27181238 -0.54114926 -0.24077028 -0.49363416 0.054979622
-0.2706839 -0.20000851 -0.38681585 0.45323628 -0.7590719 -0.18585184 -0.3985111 -0.111868456
0.75479174 -0.3902755 0.44970378 0.8094888 0.008728563 -0.34816128 0.07099087 -0.059537657
0.7378631 0.3094537 0.42806154 -0.03123796 -0.10883014 -0.29495952 0.17565352 0.5635296
-0.39493906 0.015345573 -0.0005609556 -0.22698022 0.15155065 -0.3245298 -0.09155132 -0.05008223
-0.79542196 -0.5958508 -0.16539837 0.418584 0.84961474 0.49073017 0.8298979 0.30011314
0.16010395 0.538075 0.18354268 -0.02827292 -0.29198804 -0.3079882 -0.4849922 0.37171343
1.002192 -0.8478067 0.17230327 -0.45860928 -0.030690515 0.52713084 -0.67145777 -0.3975451
-0.50912774 -0.62307775 -0.61928684 0.21045268 -0.27401423 -0.48204398 -0.49569035 0.17898148
0.020573914 -0.51433 -0.5743059 -0.46238226 0.072858095 -0.45925802 -0.6012019 -0.53179336
-0.24068238 -0.9226781 -0.37055752 -0.530157 0.10893941 -0.6128704 0.11299622 -0.45281157
-0.09016148 0.6571655 -0.6157151 -0.80774647 0.49174565 0.873889 -0.34862658 0.49441653
-0.027418733 -0.099340856 0.5316219 -0.6759651 0.16893268 0.013436735 0.4263717 0.7587699
-0.4410408 0.45855373 0.5626889 0.18763523 0.11575822 0.41533428 -0.6805778 0.6157462
0.57182735 0.14585128 -0.7066727 0.119086206 -0.48034856 0.102870286 1.0684245 0.25281727

fc_1.bias f4 [128]
00000000: 116b 373e d941 263e 37e0 003f 27c5 803e
00000010: c86d 91bd 9d8d e2be 68f5 eebe 02ae 24bf
00000020: c0f3 e1bd f072 72be b8bf 293f de7d 04bf
00000030: d52a 1c3f 3805 dc3e 4a33 19be 4253 98be
00000040: 2c65 b9be 7081 25bd 9ebf 9d3c ac6d b4be
00000050: 0d48 a0be 1ab7 ce3d 8c9f 02bf 6c58 fabe
00000060: 0731 0fbf f484 1fbf 3be8 823e 48d9 4abe
00000070: 1df4 ca3d b078 ccbd ee09 143f 2782 343f
00000080: 3c3b 333e 510e 6dbc 63ae 9a3e 6f5d ecbc
00000090: f95c f13e fc85 903e 874b ccbe 9ade 423e
000000a0: 9ac9 c93e f278 57be ee81 953e 92ce 25bf
000000b0: c42b 27be e07a 033e c172 fd3e e232 143f
000000c0: 381d 12bf 5323 a6be d8ac 04bf f092 a8be
000000d0: fae7 b3ba 9ac1 76be dfde 703e 18e6 2c3f
000000e0: 820c 103f b0ba 21be e1f7 f3be 1bf8 13be
000000f0: b56b e2be 7349 2cbf 5f29 473e 7a81 893e
00000100: e053 aabe 368d aa3e 794c d93c 8eb6 583e
00000110: e640 2c3f 4a54 59bb 9c48 eabe 2048 88bd
00000120: 95c2 e4be 96f0 07bf 2a4f 363f db65 b33e
00000130: fe57 1e3f 39cd b0bc 95bf 703e ee97 f23e
00000140: 3e12 bebd b26e fcbe 2038 8e3e d79b b03e
00000150: 1a01 10bf fb89 6d3d fd57 96be 3cbb 233f
00000160: 47fd 963e f54d 903e 16c4 97be 8b22 9f3e
00000170: a9a9 50be 629c bb3e ec18 043f 2d96 a1bc
00000180: 7c96 5c3c 0b30 013f b407 233f 4a22 803e
00000190: 97e4 03bf c800 1dbe 3042 153f f5a4 513e
000001a0: 0862 e3bd 1d6b 04bf f388 2bbf 18c5 2c3f
000001b0: d37b 2e3e 96b9 13bf 2cfb 3bbe 6211 08bf
000001c0: 4638 b43e 4594 943e 643d 12bd f8c7 03bf
000001d0: 5a07 84be 78f4 d5bc 9070 45be f9bf 18bd
000001e0: c10e 9b3e 101f b33e 3f48 a7bc 83c9 57bd
000001f0: 6831 81bd 8d54 e33e 79cd 9fbe 8251 e0bd
0.17911936 0.16236056 0.50342125 0.25150415 -0.07101017 -0.44248667 -0.46671605 -0.64328015
-0.1103282 -0.23676658 0.66308165 -0.5175456 0.61002856 0.42972732 -0.14960971 -0.2975102
-0.3621 -0.040406644 0.01925641 -0.35239923 -0.3130497 0.100935176 -0.510247 -0.48895586
-0.55934185 -0.62312245 0.25567803 -0.19809449 0.09909842 -0.09983957 0.5782765 0.70511097
0.17503065 -0.014468745 0.30211172 -0.028853146 0.47141245 0.28227222 -0.39901373 0.19030228
0.39411622 -0.2104223 0.2920069 -0.64768326 -0.16325289 0.12839842 0.49501613 0.5789014
-0.57075834 -0.32448825 -0.5182624 -0.32924604 -0.0013725751 -0.2409729 0.23522519 0.67538595
0.56269085 -0.15793872 -0.47650054 -0.14450113 -0.442228 -0.67299575 0.19449376 0.26856595
-0.33267117 0.3331086 0.026525723 0.21163389 0.6728653 -0.0033161812 -0.45758522 -0.06654382
-0.44679704 -0.5310148 0.71214545 0.35038647 0.61853015 -0.021582233 0.23510583 0.47381538
-0.09280823 -0.49303204 0.27777195 0.34493896 -0.5625168 0.057992917 -0.29364005 0.6395757
0.2949011 0.28184476 -0.2964179 0.31081042 -0.2037722 0.36642748 0.5160053 -0.01972493
0.013463613 0.5046393 0.6368363 0.2502616 -0.51520675 -0.1533233 0.5830412 0.20473082
-0.11102682 -0.5172594 -0.6700584 0.6748824 0.17039423 -0.57705057 -0.18357533 -0.53151524
0.35199183 0.2901937 -0.035703078 -0.51477003 -0.2578686 -0.026117548 -0.1928122 -0.037292454
0.30284694 0.34984636 -0.020420192 -0.05268241 -0.063082516 0.44400445 -0.3121145 -0.109530464

fc.weight f4 [1, 128]
00000000: ee94 3abb 4ac9 9c3e 136e 6e3d 90ce 8dbc
00000010: 9eb1 e7bc 4280 77be eaea 26bd 00b2 583a
00000020: 6e01 713d b0e5 643c 88b9 8a3d bee3 743d
00000030: 3931 ca3c cb31 cd3d 9185 32bd c915 ab3d
00000040: 82a0 7f3d c460 87bd 1356 10bf ecea 2bbd
00000050: af0c ecbe 0b68 063e 0e5b a9bd 381a 903c
00000060: 8348 12bf fa63 8abd 9059 10bb 36d4 2d3d
00000070: 27e4 16bd de11 6d3d cc7f 38bd b048 913d
00000080: 7b91 b53d 7656 44be d7be 623d b8c5 35be
00000090: 85be 823d 9fd9 9c3d 869f 353d a3e5 3abd
000000a0: cd62 b13d 92c4 25bf 4fed 373c b875 f83c
000000b0: 3e0c 293d c6fa 1d3e 2eca 89bc 8534 c63d
000000c0: 306a 083d 1093 4dbd f2df 1e3d f9b8 9fbd
000000d0: 5d07 aabd 0413 eebc 5b73 da3d 3c6b e63d
000000e0: 28a6 523d dc02 93bd a01d 363c bbd0 b33e
000000f0: 9d23 2cbd b88b 53bc ee68 903c 447e 5bbc
00000100: ebd5 343d 2704 b63c ca4e 95bc b876 e03d
00000110: 4330 493d 5606 2fbd 2833 be3c 20b4 163b
00000120: db93 803d 4deb 833d 36f5 003d 4480 fc3d
00000130: a6ad e8bc 32e4 52be 69c5 133e 1640 24bd
00000140: a056 0c3e f805 2b3c 1e86 d73d 3cce 263d
00000150: 008a 03ba 6d46 93bc cc2b 87bc 9ef9 713d
00000160: 6d84 023e a60e f63c bec7 77be ecab be3b
00000170: bc94 c8bd 6fa5 1cbd 6adf aa3c b307 88be
00000180: 9f29 84bf 89ee e03c 0e60 023d 7fba bf3d
00000190: cc66 b9bc 804b bcba ad25 973c f212 e6bc
000001a0: 244a 8dbd 580b 75bd ccf1 4abd ed97 843d
000001b0: 8d63 2f3e 206b e03c 28e4 0c3c 525b 91bd
000001c0: e82e 2fbb 8b47 123e e0c0 5abe 40a0 a93c
000001d0: 13d7 803d 8225 133e 425a 0a3d baf8 60be
000001e0: 4420 38bd 3375 e93d 86bd 81be fbcb 54bc
000001f0: d20c b53e 02c9 623d 625a 6fbd 24e3 ae3e
-0.0028470117 0.3062232 0.058210444 -0.01731041 -0.028282937 -0.2417002 -0.040751375 0.000826627
0.058839254 0.013970777 0.067736685 0.059787504 0.024681674 0.10019263 -0.04358441 0.083537646
0.06240893 -0.066102535 -0.5638134 -0.041972086 -0.46103427 0.13125627 -0.082693204 0.017590627
-0.57141894 -0.0675735 -0.002202604 0.04243871 -0.036838677 0.057878368 -0.04504375 0.07093942
0.08865639 -0.19173607 0.05535778 -0.17751205 0.06383995 0.076586954 0.044341587 -0.045629155
0.08661423 -0.6475307 0.011226012 0.03032957 0.04127144 0.15427694 -0.01682004 0.09677986
0.033304393 -0.050189078 0.03878779 -0.077989526 -0.08302186 -0.029061802 0.106665336 0.11250922
0.05142799 -0.0717828 0.011115462 0.35120186 -0.04202615 -0.0129117295 0.01762816 -0.013396803
0.04414932 0.022218777 -0.018226046 0.10960144 0.04911829 -0.04273065 0.023217753 0.0022995546
0.06278201 0.064413644 0.03148385 0.12329152 -0.028403115 -0.20594862 0.14430775 -0.04010018
0.1370492 0.010438435 0.10523628 0.040724024 -0.0005017817 -0.017977918 -0.016500376 0.059075944
0.12745829 0.030036282 -0.2419729 0.0058188345 -0.09793994 -0.038243707 0.020858485 -0.26568374
-1.0325202 0.027457492 0.031829886 0.09361743 -0.022632025 -0.0014365762 0.018450582 -0.028085206
-0.06898907 -0.05982527 -0.049547 0.0647429 0.1712782 0.027394831 0.008599319 -0.07097496
-0.002673084 0.14285104 -0.21362638 0.020706296 0.06291022 0.14369777 0.033777483 -0.21969882
-0.044952646 0.11399307 -0.25339907 -0.012988086 0.35361344 0.055367477 -0.058435805 0.3415767
