Model/011790_4259.pth (torch, 4687 bytes, 7 tensors)

lstm.weight_ih_l0 f4 [8, 5]
000000 82 9d a7 be 0a aa 78 3b 76 69 c9 3e 32 c7 81 3e
       -0.32737356 0.0037943148 0.39338273 0.25347286
000010 31 af 04 3d 87 b2 b1 3c 53 59 08 be ae df 74 bd
       0.032393638 0.021691574 -0.13315324 -0.05978363
000020 2d 6f 14 3f e8 e6 fc bd f8 68 ef 3d 90 82 42 bd
       0.5798214 -0.12348729 0.11689943 -0.047487795
000030 d8 96 04 bf fc cc 16 bf cb 01 00 bf 10 78 34 3d
       -0.5179267 -0.5890653 -0.50002736 0.044059813
000040 e0 c1 bc bd 06 dc da 3e ac 21 83 be e3 dd 0b 3f
       -0.09216666 0.4274599 -0.25611627 0.5463545
000050 54 96 38 3f e5 3d 81 be ec 54 c5 3c 1e 18 a8 bb
       0.7210438 -0.25242534 0.024088345 -0.005129828
000060 5f 99 d3 bb a0 ab a6 3e 30 4e e4 bd 69 69 19 3f
       -0.0064574922 0.32552814 -0.111477256 0.5992647
000070 87 2e 18 3f 21 02 81 3e f5 80 11 3e fc 3f ef 3d
       0.59445995 0.25196937 0.1420935 0.11682126
000080 20 91 01 3f a4 5d 12 be 6f 5c 9d bc c1 5a 1d 3d
       0.5061207 -0.14293534 -0.019209115 0.038416628
000090 29 52 b5 be 51 bf 2e 3f 65 6c 4b be 8d fe c2 bd
       -0.35414246 0.68260676 -0.19865568 -0.09521208

lstm.weight_hh_l0 f4 [8, 2]
000000 68 f1 a5 be 32 a9 1e bf 6f 74 27 3f 10 d2 18 bf
       -0.3241074 -0.6197692 0.6541204 -0.5969553
000010 e6 32 de 3e 20 65 63 3e 7f ea c1 be 2a 39 92 3e
       0.43398207 0.22206545 -0.3787422 0.28559238
000020 8c c0 3f be d0 78 d3 be 8a 36 d9 3e 44 3e 1b 3e
       -0.18725795 -0.4130311 0.42424423 0.15160471
000030 76 38 cf 3e be 33 a0 3e e9 ca 22 bf b6 7e f0 3e
       0.40472764 0.31289476 -0.63590866 0.46971673

lstm.bias_ih_l0 f4 [8]
000000 8b dc 2d 3f ff 41 8f bd 80 fa df 3d b6 b7 5b be
       0.67914647 -0.0699501 0.10936451 -0.21456799
000010 59 21 1f 3f 9f c7 2f be bc 69 c9 3d 89 04 17 be
       0.6216026 -0.17165993 0.0983462 -0.14747824

lstm.bias_hh_l0 f4 [8]
000000 be 3a ec be 4a bd 29 3f 2a e5 9d 3e fe 58 d5 be
       -0.46138567 0.6630446 0.308389 -0.41669458
000010 a3 99 2b 3f 19 a0 1f 3d 6e f3 ff 3d 76 46 43 3f
       0.67031306 0.03897104 0.124976024 0.7627939

fc_1.weight f4 [128, 2]
000000 ed 45 32 3f 00 ab 13 bf 48 81 cd bd 90 2e 35 be
       0.6963795 -0.576828 -0.10034424 -0.17693543
000010 02 e3 b2 be e2 dc 56 be de d2 fa 3e 47 b3 84 be
       -0.34938818 -0.20982698 0.48989004 -0.25918028
000020 25 9a 39 3f a5 9b 3f be 2a af 3b 3f d1 35 41 bf
       0.7250083 -0.18711717 0.73314154 -0.7547274
000030 50 e4 17 bd a8 fe 66 3e 42 14 01 be 97 19 37 bf
       -0.03708297 0.22558081 -0.12605384 -0.7152342
000040 11 86 c7 be ca 33 10 bf 57 82 bd be 09 cf cf be
       -0.38969472 -0.56329024 -0.37013504 -0.40587643
000050 39 09 96 be cd 4c 00 bf a9 9f 30 bf 23 b7 d8 be
       -0.2930391 -0.5011719 -0.6899362 -0.42327222
000060 7b cd 33 bd 52 18 27 3f 22 ec 9c 3e 3a 18 b3 be
       -0.043897133 0.65271485 0.30648905 -0.3497942
000070 9e 2f 1f bf b3 07 30 bf 29 82 1e bf 6c 97 1d bf
       -0.62182033 -0.6876175 -0.6191736 -0.61559176
000080 68 03 78 be 46 48 98 3e 3a cc 37 3f fe 42 33 3f
       -0.2422005 0.2974264 0.71796 0.70024097
000090 4a c4 9d 3e 54 1f 75 3e d2 a7 dd 3e 42 61 fe 3e
       0.3081382 0.23937732 0.432921 0.49683577
0000a0 df c7 0c 3f c6 a6 22 bf 06 ae c5 3e b6 43 c3 3e
       0.5499248 -0.63535726 0.38609332 0.38137597
0000b0 ae 5c 67 3d 5c eb 41 bc 12 e5 c4 3e a5 bf 67 be
       0.05648487 -0.011835899 0.38456017 -0.226317
0000c0 16 52 31 3f fb 91 68 be d8 c8 ef be b0 cd ba 3e
       0.6926588 -0.22711937 -0.4683292 0.36485052
0000d0 67 b2 33 3f f2 b1 83 3e 50 53 94 3d da 78 c7 be
       0.70194095 0.257217 0.07242453 -0.3895939
0000e0 30 40 25 be b3 d0 c5 be e8 8d 34 3f f9 db ca bd
       -0.16137767 -0.38635787 0.7052903 -0.09905238
0000f0 50 49 36 be a0 c3 af 3c 56 e6 02 bf ca cd 9f 3e
       -0.17801404 0.021455586 -0.51132715 0.31211692
000100 70 29 dd 3e 31 60 fd 3e d2 7b ec 3e 60 5d c9 3e
       0.43195677 0.4948745 0.46188217 0.39329052
000110 49 c3 34 3d 32 07 62 bf 5e 9f 4b 3f 3a 5e ae bd
       0.04413155 -0.8829223 0.7954005 -0.08514066
000120 24 04 77 be 20 80 26 3d ab d6 09 3f 31 4d 00 bf
       -0.24122673 0.040649533 0.5384318 -0.50117785
000130 a3 ac ea bd ed cd 9b 3e 78 c5 51 be 5c 5e 9f be
       -0.11458709 0.30430546 -0.20485485 -0.31126678
000140 da cc a4 bd 5c 7c 94 bd 9f 2d ff 3e bf 62 22 be
       -0.08046885 -0.07250282 0.49839494 -0.15857981
000150 90 78 a8 bd 3c a4 e8 be 18 13 ce be 3b 85 e2 be
       -0.082261205 -0.454378 -0.40248942 -0.44242272
000160 66 d0 d1 3e 1c 7d 11 3e 59 82 01 bf 8e 17 0e bc
       0.40979308 0.14207882 -0.5058952 -0.008672608
000170 00 94 08 ba c5 5d 26 3f 8e 92 bb 3e 3b 05 5a 3e
       -0.0005210042 0.6498683 0.3663525 0.21291058
000180 a6 10 97 3e 20 83 64 3d a0 24 94 bc ee d5 e5 3e
       0.2950489 0.055789113 -0.01808387 0.44889778
000190 52 98 c7 be 90 0d ba 3e 6f c3 38 3f 0f 71 5e 3e
       -0.389834 0.36338472 0.7217321 0.21722816
0001a0 bd 80 37 3f a5 5d 05 3f f5 34 f7 3e 90 50 1a bf
       0.71680814 0.52096015 0.4828259 -0.6027918
0001b0 4d 17 03 3e 34 a9 85 3e 78 56 72 3f 89 8c 22 bf
       0.12801857 0.26105654 0.9466319 -0.6349569
0001c0 a0 86 a3 bc 79 34 fb 3e 5c 1f 51 3e e5 11 06 3f
       -0.019961655 0.4906347 0.20422119 0.52371055
0001d0 e1 44 a5 bd 87 bb 26 bf 68 b5 2b be 26 bb 94 be
       -0.08069778 -0.65129894 -0.1676842 -0.29049033
0001e0 70 3c 63 bd b7 0c 00 3f b0 75 98 3d 44 de 26 bf
       -0.05547756 0.500194 0.07444322 -0.651829
0001f0 b8 e0 f8 bd 9a 59 e5 3e 78 20 4d 3e 30 9a 26 bf
       -0.12152237 0.44794923 0.20031917 -0.6507902
000200 d8 2f f0 3d cd 3a 1b 3f 8e a9 45 3e 74 c0 ad 3d
       0.117278755 0.606366 0.19302961 0.08483973
000210 48 2d e1 bd ef 34 a0 be 76 e2 ae 3e 10 b9 49 3d
       -0.10994965 -0.31290385 0.3415715 0.049248755
000220 78 81 b1 3d e6 5f ea be e9 c4 ee 3e ab b9 cd 3e
       0.08667272 -0.4577629 0.46634606 0.40180716
000230 8f 4a 41 3f d4 42 24 bf 90 19 26 be 58 df 8d bd
       0.7550439 -0.6416447 -0.16220689 -0.06927365
000240 39 c9 c0 3e b6 d3 a9 3e 03 84 cb 3e c7 b0 21 3f
       0.3765352 0.33169335 0.39749154 0.63160366
000250 8b 5e 46 3e 43 3b e3 be 6a 25 b8 3e d1 d9 05 3f
       0.19372003 -0.4438115 0.35966045 0.52285486
000260 b7 d4 58 be fc fd 3a bf 81 c2 ba be 7c 32 84 3e
       -0.21174894 -0.730438 -0.3647652 0.25819767
000270 7b fe ae be e9 1e cc 3d 72 28 e4 be 4a f9 14 bf
       -0.34178528 0.09966833 -0.44562107 -0.58192885
000280 bc 98 fc be 78 d2 2e 3e 76 23 2e 3f e0 b3 06 bf
       -0.49335277 0.17072475 0.6802286 -0.5261822
000290 93 6b 00 3f 01 3f a1 be 4f 2a 36 3f 86 bf 7e be
       0.50164145 -0.3149338 0.7115831 -0.24877748
0002a0 10 a6 07 3e 9e 27 07 3f ba 2f f8 3e b4 8f 3d be
       0.13246942 0.52794826 0.48473912 -0.1851185
0002b0 e3 f9 79 3f 50 84 34 3f f8 ee ae bd d5 34 dd bd
       0.9764692 0.7051439 -0.085416734 -0.108010925
0002c0 42 c6 36 be 9a e7 f5 3e 37 ca 13 bf 25 8a 02 3f
       -0.17849067 0.4802826 -0.5773043 0.5099204
0002d0 1e e6 9f bd 8b a9 3b be f3 00 46 be 12 d7 14 3e
       -0.07807563 -0.18326394 -0.193363 0.14535168
0002e0 b2 59 9f bd cf 9a 10 bf c5 7a 76 3f 90 f1 ad be
       -0.0778078 -0.5648622 0.9628108 -0.3397336
0002f0 33 f2 02 3e ac 2c 09 be 9a da b9 3e ba 19 f2 3e
       0.12787704 -0.13395947 0.36299592 0.47285253
000300 e7 a5 08 bf 0b 37 b3 bd a6 4f a3 be 0d db 01 bf
       -0.53378147 -0.08750733 -0.31896704 -0.5072487
000310 00 12 ad 3b 84 38 ae be a0 99 4d be ca e0 ab 3e
       0.005281687 -0.34027493 -0.20078135 0.33569938
000320 a5 ac ed bc 26 7f 2c 3f 95 0b 1e 3e 45 bf 30 3f
       -0.029012987 0.67381513 0.15434106 0.69041854
000330 e6 79 b4 be 67 19 9c be c3 2f 53 3e 1a af aa be
       -0.3524925 -0.3048813 0.20623688 -0.33336717
000340 4d ec 73 be b2 f8 10 bf 6a 5e ce be 14 7b bd 3e
       -0.2382061 -0.5662948 -0.40306407 0.37007964
000350 c8 c3 ec 3d fe 31 8c bd 85 3c d4 3d 3c 87 36 3f
       0.1156078 -0.06845473 0.10363106 0.713001
000360 3f 98 89 be 04 be e5 be 6d 21 12 bf 31 33 02 3f
       -0.26873967 -0.44871533 -0.57082254 0.5085936
000370 0c 25 e2 be bb 95 b2 be 86 68 ed be 28 ae 77 3e
       -0.4416889 -0.3487986 -0.46368808 0.24187529
000380 0f 1b 2d bf db 5c 0c bf 0e 87 29 3f a8 21 2f 3c
       -0.67619413 -0.54829186 0.662217 0.010689177
000390 7f 40 d5 be 2a 75 24 3f 70 f2 14 bf bd b6 0a 3f
       -0.4165077 0.6424128 -0.5818243 0.54185086
0003a0 18 0d 2e bf 5c cc 06 3e ec d6 ab 3d be 7b 1f 3e
       -0.6798873 0.13163894 0.083906025 0.15574548
0003b0 88 8e 20 3e fe 5d 07 3f 66 8a 56 be 98 51 b1 bd
       0.15679371 0.52877796 -0.20951232 -0.08658141
0003c0 7c b9 ee 3d 14 a8 05 3e 9b cf f3 be b0 63 0a 3f
       0.11656472 0.13052398 -0.47619328 0.5405836
0003d0 25 fc 8b 3e 5e 62 a1 be b5 f2 f9 3e bc ca 12 bf
       0.2734081 -0.3152036 0.48817983 -0.573406
0003e0 cd db 27 bf 17 f3 2f 3f da 17 d1 be 22 2e 62 3e
       -0.65569764 0.687303 -0.4083851 0.22087911
0003f0 ac 9b ad be 16 b6 92 be 09 e3 27 bf 4e 7b c7 3e
       -0.3390783 -0.28654546 -0.65580803 0.38961262

fc_1.bias f4 [128]
000000 76 1d da be 56 b3 f9 be 7e 3e 30 bf fc 1d b5 be
       -0.42600602 -0.48769635 -0.68845356 -0.3537444
000010 9c 72 85 3e c5 48 91 bc 1b 81 0b bf 48 7e 53 3e
       0.26064003 -0.017734895 -0.54493874 0.20653641
000020 54 e1 62 be 9e 86 6b be 62 19 11 3f 43 00 b8 3d
       -0.22156268 -0.23000571 0.56679356 0.08984425
000030 3a aa 0a 3f ec b1 30 be ea 60 dd 3d ca ff 20 3f
       0.54165995 -0.17255372 0.108095005 0.62890303
000040 8f b5 8d be 09 54 ee 3d e5 ff e1 be 65 3a 31 bf
       -0.2767758 0.11637122 -0.44140545 -0.6922973
000050 8f 77 d6 be d2 a3 0a bf 73 c0 ee 3e e7 85 27 3f
       -0.4188809 -0.5415622 0.46631202 0.65438694
000060 a7 32 34 3f cb 72 17 3f a0 e8 1b 3e fe c3 bd be
       0.7038979 0.59159535 0.15225458 -0.37063593
000070 84 6e 31 bf 90 ee 65 3d 8c 59 03 bf b4 b2 4b bd
       -0.6930926 0.056135714 -0.5130851 -0.04973097
000080 32 cb e7 be a6 24 7d bd 0f a7 d8 3d 46 c6 86 bd
       -0.45272213 -0.06180253 0.10578739 -0.065807864
000090 eb 46 ff be 20 1c 12 bf f7 af fb 3c fc 6f 50 be
       -0.49858794 -0.57074165 0.030723555 -0.20355219
0000a0 ef 23 94 3e cf b3 e9 3d f6 3f d2 be 29 9e cc be
       0.28933665 0.11411249 -0.41064423 -0.39964417
0000b0 06 f4 11 bf c1 31 21 3f cd b3 15 bf b2 9e 23 3f
       -0.57012975 0.62966543 -0.5847748 0.63914025
0000c0 87 ac ac be 03 a2 25 bf 6d 9b e0 3e 9f a7 02 bf
       -0.33725378 -0.64700335 0.4386858 -0.5103702
0000d0 e1 74 42 bd 5a 50 9f 3e 27 e9 13 3e c7 6d 5f bd
       -0.047474746 0.3111599 0.1444441 -0.05454805
0000e0 e3 3b 10 3f 72 55 ef be f3 95 31 3f fd 8d 97 be
       0.5634138 -0.46744877 0.6936943 -0.29600516
0000f0 9b 67 03 bf 2a 36 63 be a9 bb a2 be 2f be ba be
       -0.51329964 -0.2218863 -0.31783798 -0.36473224
000100 36 14 1c bf 94 47 32 3f 41 e4 01 bf 4a 52 09 bf
       -0.6096834 0.6964047 -0.5073891 -0.5364119
000110 3c 9e c4 be cf fe d4 3e 9f 2e 08 bd ba 7f f9 be
       -0.38401973 0.41600654 -0.033247586 -0.4873026
000120 04 d4 b5 be 4d 63 f2 be 20 6c 56 3e 61 8e 01 bf
       -0.35513318 -0.47341385 0.20939684 -0.5060788
000130 b2 e9 59 3e a2 90 cb be d6 3c 83 3e 0f 19 aa be
       0.21280554 -0.39758784 0.25632352 -0.33222243
000140 97 ef 12 bf 4a 34 2c 3f 24 96 38 be ef 5a 65 3e
       -0.57396835 0.67267287 -0.18026024 0.2239797
000150 bf d7 8e 3e 94 e0 20 bf 55 ab 1c bd b5 bd a3 3e
       0.27898976 -0.6284268 -0.038249332 0.31980672
000160 e1 47 f0 3e ad 8b d2 bd bf ce d7 3e 96 6d 62 bd
       0.4692984 -0.10280547 0.42149922 -0.05528029
000170 f2 21 33 3f e1 25 84 be 62 6b 0f 3e ed a8 0f bf
       0.6997367 -0.2581015 0.14005807 -0.56117135
000180 b0 2e 90 3e 61 59 9f 3e d8 38 df bd 3c 5f 22 bf
       0.2816062 0.31122878 -0.10899514 -0.63426566
000190 33 f4 2f 3f 43 eb 32 be 1e ef f6 3e fe 62 09 3f
       0.68731993 -0.17472558 0.48229307 0.53666675
0001a0 79 84 21 3e a3 9d 2e be c5 04 ae 3e df 22 c2 3e
       0.1577319 -0.17052321 0.33988014 0.3791723
0001b0 98 b8 2d be 1a 43 0b 3f dc ee 52 3d 9e 1c 7c be
       -0.16964948 0.54399264 0.051497325 -0.24620292
0001c0 e1 4a f6 3e 89 21 51 3e 1a e2 a4 3e c0 0d 88 be
       0.48104003 0.20422949 0.32203752 -0.2657299
0001d0 3b b3 ad 3e 5d 49 27 3f d2 6b 98 3e f4 71 c6 be
       0.33925804 0.6534632 0.2976976 -0.38758814
0001e0 37 b4 49 3e 53 82 31 3f 4a 5f 18 3f 68 e1 85 3e
       0.19697653 0.69339484 0.595204 0.26148534
0001f0 3f fa 03 bf 37 b6 c1 bc da ac 72 be e5 63 65 3e
       -0.5155372 -0.023646457 -0.2369875 0.22401388

fc.weight f4 [1, 128]
000000 e0 90 ef 3c cf 72 02 bd 0a 5d 41 3d d9 f0 92 3d
       0.029243886 -0.03184777 0.04720787 0.07174844
000010 f8 8c 92 3d ed ca 87 3e 80 5b f9 bc c5 d7 d2 bd
       0.07155794 0.26522008 -0.030439138 -0.10295061
000020 c0 fa 78 bc f0 af a3 3c 4c 58 de bc 38 3d d6 bd
       -0.015196502 0.019981354 -0.027141713 -0.10460895
000030 ce 56 67 3d e3 82 a5 3d a6 0c 19 be 56 4c bd bd
       0.056479268 0.08081605 -0.14946231 -0.092430755
000040 ce c0 56 3d 46 b3 b6 3d 00 02 26 b9 06 e0 76 3d
       0.052429967 0.089209124 -0.00015831739 0.06027224
000050 c5 a1 9f 3d cc 2d 6b bd f7 5a 5e 3d 29 24 2d bc
       0.07794527 -0.057416722 0.05428597 -0.010567703
000060 09 d2 9a 3c 8c f2 14 bd a0 47 dd bb 80 11 f4 3c
       0.01889898 -0.036364123 -0.006752923 0.0297935
000070 c2 45 96 bd d0 e5 27 3d 3a fe db bc 85 1d 20 bc
       -0.07337524 0.04099065 -0.026854623 -0.009772663
000080 d4 33 71 3e e3 25 95 bd 5c 9e dd bc 6e 72 b4 3e
       0.23554927 -0.07282617 -0.02705305 0.35243553
000090 3b f6 45 bd c5 a7 a2 3d 66 b1 68 3d d0 8c 57 3c
       -0.048330527 0.07942156 0.056809805 0.013156131
0000a0 15 06 16 3c 82 9f 18 bc e0 11 97 3c 44 05 04 3d
       0.0091567235 -0.009315373 0.01844114 0.032231584
0000b0 9d 11 91 bd a6 dd 32 bd aa c7 a3 bd c3 67 20 3d
       -0.070834376 -0.04366841 -0.07997067 0.039161455
0000c0 f0 d6 13 3d c1 81 8b bd 6a d7 69 bc fc 9b 8e 3e
       0.036093652 -0.06811858 -0.01427255 0.27853382
0000d0 64 ea 96 3d 4d d5 59 bd dc d5 0a bb d7 bd dc 3e
       0.07368925 -0.053181935 -0.00211846 0.43113586
0000e0 f9 c8 85 bc 89 e7 3f bd e0 e1 6b bd f7 5b a5 3d
       -0.016331183 -0.04685167 -0.057588458 0.080741815
0000f0 68 b3 47 3c 90 d2 98 3c 4a ff 22 3d 55 08 90 bd
       0.01218877 0.018655092 0.039794244 -0.07032839
000100 1c 8c b6 bc 15 2a 1f 3d e9 e1 1e bd 3a 6b 49 3d
       -0.022283606 0.038858492 -0.038789663 0.049174525
000110 a2 d4 0c 3d 16 f8 e8 bc e7 45 7b 3e e0 a6 23 3c
       0.03438247 -0.02843861 0.24538384 0.009988517
000120 7a 93 e0 3e 11 57 90 3e 62 51 8b 3d 88 11 45 bd
       0.43862516 0.28191426 0.06802632 -0.048112422
000130 32 22 9b bd 6a 32 5a 3d 5e c0 91 3d d0 1c b0 bd
       -0.075748816 0.053270735 0.07116769 -0.085992455
000140 d8 ae ab bd af 37 17 3d 4e a6 f8 bc c9 ab 84 3d
       -0.08382958 0.03691834 -0.030352738 0.06478078
000150 26 3c b3 3d ba dd 8b bd 1c 28 37 3e 43 e7 6c bd
       0.08751707 -0.068294 0.17886394 -0.057837736
000160 fe 8e 88 3d ec c3 4d 3d 40 d8 49 3d d7 e7 38 bd
       0.066678986 0.050235674 0.049278498 -0.045142975
000170 32 8b 97 bd 50 fc de 3e 00 de 4d bd fe 7f 34 bd
       -0.07399596 0.43551874 -0.050260544 -0.044067375
000180 a6 a0 90 3c f7 8c 5e 3d f0 be be 3b 57 8a 67 bd
       0.017654728 0.054333653 0.0058211014 -0.056528416
000190 b9 f9 85 3d 35 16 7d 3e 75 22 20 bd 20 34 98 3c
       0.065417714 0.24715503 -0.03909536 0.018579543
0001a0 df 99 b9 bd 16 9f 67 bd fc 2e a5 3c 42 76 9d 3d
       -0.09062552 -0.0565482 0.020164005 0.076885715
0001b0 90 84 88 bb 64 30 2a bd ec 15 8b be d2 93 0d 3d
       -0.0041661933 -0.041550055 -0.27165163 0.0345648
0001c0 13 7f fd 3c 8d fb 52 bd d7 f2 91 3a 4e 1d 30 3d
       0.030944383 -0.05150943 0.0011134994 0.042996697
0001d0 3c fd 0a bd 47 7c a4 bd ce a9 ef 3c c0 e4 ff 3c
       -0.03393291 -0.080315165 0.029255774 0.031237006
0001e0 e5 a8 23 bd a8 4b 0c bd f5 c8 8a bd 0d 5a 4d bd
       -0.039955992 -0.03425184 -0.06776611 -0.050134707
0001f0 4f 33 9b bd 2c a2 63 3d f8 2d 1d bc d3 bc 90 bd
       -0.07578146 0.05557458 -0.009593479 -0.07067265
