Model/012030_6101.pth (torch, 4687 bytes, 7 tensors)

lstm.weight_ih_l0 f4 [8, 5]
000000 08 57 d3 3e e0 db 40 3e 9c bc 28 be 51 bf 30 3f
       0.41277337 0.18833876 -0.16478199 0.69041926
000010 db 6e e2 bd d9 43 19 3f b0 3f 03 3f e2 17 19 bf
       -0.110563 0.5986915 0.51269054 -0.5980207
000020 f9 0f 6e 3e 86 b4 96 bb c6 f7 1a bf 93 0e 18 3f
       0.2324828 -0.004599157 -0.6053432 0.5939724
000030 c0 d0 33 bd c9 7f 01 3f 00 2f bb bb f0 9f 36 3d
       -0.04390025 0.5058561 -0.00571239 0.044586122
000040 0b 0f e4 be 59 28 28 3f 17 86 19 3f eb 16 9d be
       -0.44542727 0.65686566 0.5997023 -0.30681548
000050 06 74 52 3d 1b a5 3a bd 25 b7 88 be 1e 00 2e 3f
       0.05138018 -0.045567613 -0.26702228 0.6796893
000060 ad ec 90 bc 75 3f 1f 3e 45 25 d5 bc 52 02 d3 3e
       -0.01769098 0.1555155 -0.026018748 0.41212708
000070 62 19 8a bc 97 5c 14 3b 8e 42 76 3f 87 0c ab be
       -0.016857807 0.0022638196 0.96195304 -0.33407995
000080 a8 94 8a bd 8c df 9c 3d 81 1e a0 3d e6 f1 5e 3e
       -0.06766635 0.07659826 0.07818318 0.21771964
000090 bf a1 03 3f e3 ef 2e bd e0 c1 15 bf fc d5 e6 b9
       0.5141868 -0.042709243 -0.58498955 -0.0004402845

lstm.weight_hh_l0 f4 [8, 2]
000000 b4 2d 00 be 9e 07 2d bf 81 1a 04 3f 61 eb b3 be
       -0.12517434 -0.6758975 0.5160294 -0.35140517
000010 44 8e 9b be 92 5f de 3e 2a bb df be d9 ed 13 bf
       -0.30381978 0.4343229 -0.43697482 -0.577848
000020 b0 dd c2 3d 12 cc ad 3e 60 b3 14 be 55 bc c4 be
       0.0951494 0.33944756 -0.14521551 -0.38424936
000030 d8 ab 47 3e c2 7c 29 bf 00 45 68 3c f0 c6 89 bd
       0.19499147 -0.6620599 0.014176607 -0.067273974

lstm.bias_ih_l0 f4 [8]
000000 c6 e6 68 3f 5a e1 bf 3c 3a 44 27 bf 06 c5 87 3e
       0.9097713 0.023422886 -0.6533848 0.26517504
000010 a0 3a 1b 3e 62 a3 29 3e f3 46 69 3e d4 c0 62 3f
       0.15159082 0.16566232 0.22780971 0.8857548

lstm.bias_hh_l0 f4 [8]
000000 f6 11 d3 be 6a c1 78 be d1 07 a7 be e7 8c 15 3f
       -0.4122464 -0.24292532 -0.3262315 0.58418125
000010 93 e9 a8 3c 0c 60 38 3f 35 90 df bd f3 41 43 be
       0.02061919 0.72021556 -0.10916177 -0.19068126

fc_1.weight f4 [128, 2]
000000 84 16 64 be 5b d9 33 bf 0b 08 bb 3e 0a bb ba 3e
       -0.22274214 -0.70253533 0.36529574 0.36470824
000010 aa 96 7b be 20 34 0b bf 47 25 c3 3e 41 b1 d2 3e
       -0.24569193 -0.5437641 0.38114378 0.4115086
000020 ae 82 18 bf a7 5b 1e bf 42 6e b6 3e 18 7c 0e bf
       -0.595744 -0.618586 0.35630995 -0.556581
000030 2f d5 4a 3e 7c b6 83 bf 83 62 0c 3f 24 52 86 3e
       0.19807886 -1.0290065 0.54837817 0.26234543
000040 5d 46 ab 3d 7d 90 5e 3e 50 a3 2d be 48 1d c1 bd
       0.0836303 0.21734805 -0.1695683 -0.09429413
000050 10 d7 84 bd 43 34 60 be a3 e6 8b be 58 0a 41 3e
       -0.064863324 -0.21894936 -0.273244 0.18851602
000060 01 98 4e 3e df e0 c7 3e cb 9c dd be e7 31 1f 3f
       0.20175172 0.3903875 -0.43283686 0.6218552
000070 97 e2 22 3f f9 ad b5 be 1c 4a 81 be ca 73 ae 3e
       0.63627 -0.35484293 -0.25251853 0.34072715
000080 6f e8 fd 3e 84 1d 1c 3f 6c 61 d1 be 30 3c f6 bd
       0.49591395 0.6098254 -0.4089464 -0.120231986
000090 6c b0 08 bf 53 3d d7 be 40 25 8b 3c 56 bf bf 3e
       -0.533942 -0.42038974 0.016985536 0.37450665
0000a0 80 af ec 3d 58 74 bf be 20 4d 01 bf 24 d7 39 be
       0.115569115 -0.3739345 -0.5050831 -0.18148476
0000b0 9f cb 01 3f c9 85 c2 be bc 98 1c 3f 3e 4b 97 bd
       0.50701326 -0.37992695 0.61170554 -0.07387398
0000c0 2d eb a4 3d 67 48 18 3f f5 e3 6c 3e 33 66 23 3f
       0.08052669 0.5948548 0.23133834 0.6382782
0000d0 d5 af d4 3e 3d 76 30 3f a4 8d 1a bf 08 b1 83 bd
       0.415404 0.6893042 -0.60372376 -0.064302504
0000e0 ae 0e e2 be 11 53 07 bf 13 0a 8d be 0c d8 84 be
       -0.44151825 -0.52861124 -0.2754675 -0.2594608
0000f0 99 6b f3 be 57 8a e9 3e 16 08 98 be ae 84 e7 3e
       -0.47543028 0.45613357 -0.2969367 0.45218414
000100 b3 37 33 bf eb 8e 9b 3e 64 cb 1d be 6b f2 bb be
       -0.70006865 0.30382475 -0.15409619 -0.36708388
000110 88 a8 11 bf c8 d4 2e be 32 da 3e be 0b be f2 be
       -0.56897783 -0.17073357 -0.18637922 -0.47410616
000120 23 87 3b 3f ab ef f2 be e0 b1 03 be 0d bf 3b 3f
       0.7325308 -0.47448477 -0.12860823 0.73338395
000130 33 3a 1f bf 28 39 a7 be ff 1a 0e 3f 3c a3 0e 3e
       -0.6219818 -0.32660794 0.5550994 0.13929456
000140 d7 1c d6 3e 43 d7 db 3e 00 ee 1f 3d d6 41 c2 3e
       0.41818878 0.4293767 0.039045334 0.37940854
000150 44 8c 06 bf b0 8a 32 3f 79 d9 d5 3e 3d 7b eb 3d
       -0.5255778 0.6974287 0.4176748 0.11498115
000160 11 05 d1 3d f7 4b e6 3e 29 ad 49 3f 08 35 28 be
       0.102060445 0.44979832 0.78779846 -0.1642648
000170 3d 57 5e 3d db d2 57 3d 71 a6 d8 3e 16 75 4a 3f
       0.054282416 0.05269132 0.42314485 0.7908491
000180 2d 43 0e bf 7e 60 f9 3e fe 24 1c bf 5e 04 96 3e
       -0.5557125 0.4870643 -0.60993946 0.29300207
000190 1e 90 cf 3d bd 79 c4 3e cb 23 eb be a1 3a 46 bf
       0.1013491 0.3837413 -0.45925745 -0.7743321
0001a0 6d d8 05 3f ef 92 02 3f db 30 81 3d 96 81 3e 3f
       0.52283365 0.5100545 0.063081466 0.7441648
0001b0 3e e7 f7 be 8a a8 dc be 2c 52 09 be c0 a7 7f 3c
       -0.4841861 -0.43097335 -0.13410252 0.01560396
0001c0 b9 e3 1f 3f ce 81 a3 be bf 71 8d 3f 0b d8 53 bb
       0.6245685 -0.3193497 1.1050338 -0.0032324817
0001d0 4d 48 07 3e 82 e1 e0 be 00 00 12 be 99 42 f3 be
       0.13211174 -0.4392205 -0.14257812 -0.47511747
0001e0 66 24 0a bf 56 a4 3c bd 5b fd fd be 38 15 14 bf
       -0.5396179 -0.04605516 -0.49607357 -0.5784488
0001f0 e5 20 fa bd 59 7e 33 3f 69 35 37 3e fb 45 01 3f
       -0.122133054 0.70114666 0.17891468 0.50497407
000200 72 2f c1 3e 26 e5 a2 3e 63 51 eb be 63 61 b8 be
       0.3773151 0.3181545 -0.4596053 -0.360118
000210 83 9e 08 3f 26 96 c1 3e 5c 89 02 3e 7a d8 00 bf
       0.5336687 0.37809867 0.12747711 -0.5033032
000220 18 70 e6 bd 22 7f e7 3e 53 04 08 bf 8d 99 2b bf
       -0.11251849 0.45214182 -0.531316 -0.67031175
000230 e8 73 6d be 96 a0 1e bf b0 b7 8e bd 7c 41 1c bf
       -0.23188746 -0.61963785 -0.06968629 -0.6103742
000240 11 fc e2 bd 65 91 86 be c8 79 8a be 4a 08 78 be
       -0.11083234 -0.26282802 -0.27046037 -0.24221912
000250 e1 14 c5 bd d1 5f a2 be f7 b9 ec 3d 0f 7b 32 3f
       -0.09623123 -0.31713727 0.115589075 0.6971902
000260 55 c8 99 be c8 10 8e 3e ec fd 4c 3e 1c 06 4c 3e
       -0.30035654 0.27747178 0.20018739 0.19924206
000270 21 1d 2d bf 47 04 b7 3e 95 d0 b0 be d0 eb 2b 3f
       -0.6762257 0.3574545 -0.34534135 0.67156696
000280 4c ba 10 bf 76 67 a6 be 6b 8e 1c 3f 50 9a 1f 3d
       -0.56534266 -0.3250081 0.6115481 0.038965523
000290 25 a8 bc be 19 6d 17 bf 6a b7 25 bf df 59 b9 be
       -0.36847034 -0.59150845 -0.6473299 -0.3620138
0002a0 a2 74 c4 3e b0 7c 83 3e 6a 7b 93 3e e4 6b 29 bf
       0.38370234 0.25681067 0.28805095 -0.66180253
0002b0 bd 31 06 bf 41 34 34 bf a8 d8 b2 be a0 4f 66 3e
       -0.52419645 -0.70392233 -0.3493092 0.22491312
0002c0 86 95 89 3d 59 f3 23 3f b2 22 93 3e d0 25 19 bf
       0.067179725 0.64043194 0.28737408 -0.5982332
0002d0 c1 4d 0d bf ee 8d 35 3f 31 27 06 3f d0 98 49 3f
       -0.5519677 0.7091969 0.5240355 0.787488
0002e0 38 75 33 be 50 b3 00 3d 7d 6e a2 bd 1c 79 80 3f
       -0.17525184 0.031421006 -0.0793123 1.003696
0002f0 54 dd 0a be 8f 4f 82 3e 6f 7f 04 3f f8 af 12 3e
       -0.13560992 0.25451323 0.5175695 0.14324939
000300 e0 f8 22 3f 6f d0 1c 3f 42 d2 e6 3e c0 42 15 bf
       0.63661003 0.61255544 0.4508229 -0.5830498
000310 de 2a db be 62 a9 08 bf 3c 7c 02 be 23 07 be 3d
       -0.42806143 -0.5338346 -0.12742704 0.09278705
000320 b8 73 f5 3d d0 af c5 bd 18 b6 cb 3e f9 54 ff be
       0.11984962 -0.09652674 0.39787364 -0.49869516
000330 15 cc c3 be 8f c6 2d 3f 8f f1 f5 3e 42 e6 11 3f
       -0.3824164 0.678811 0.48035857 0.5699197
000340 18 1d 15 3e 3a cb aa 3e 30 25 54 bd 50 75 36 be
       0.1456188 0.33358175 -0.051793277 -0.17818189
000350 13 89 29 be f9 51 0c bf 34 a1 20 3f c4 4c 0b 3f
       -0.16556196 -0.5481258 0.62745976 0.5441401
000360 da 63 24 3f 70 91 bb 3e fc 7a 00 3e 88 6e 3a 3e
       0.6421486 0.36634398 0.12546915 0.18206227
000370 1e 61 27 3f b3 38 eb 3e e5 be b2 3e bf e0 b1 3e
       0.65382564 0.45941696 0.34911266 0.3474178
000380 d0 81 4d 3e a8 72 cc be 88 cb ff be b7 92 07 3f
       0.20069051 -0.39931226 -0.4995997 0.52958244
000390 a4 99 ba 3f ad ce a3 3d 83 8f 05 3f 74 64 1a bf
       1.4578137 0.07998405 0.52172107 -0.6030953
0003a0 81 c8 29 bf b3 14 80 bf c8 b6 3c 3b 6a 10 0d 3f
       -0.6632157 -1.0006317 0.002879547 0.5510317
0003b0 d6 1f 25 3e 2d ae ea 3e 5d c0 d2 3d 1f fc b3 3e
       0.16125426 0.4583601 0.10290597 0.3515329
0003c0 62 39 a3 3e 03 d0 ca be d4 8b 19 bf be cf c0 be
       0.31879717 -0.39611825 -0.59978986 -0.37658495
0003d0 89 9f 20 3f 6e 11 39 bf 98 7a 19 3e 3c 92 21 bf
       0.6274343 -0.7229222 0.14988172 -0.6311376
0003e0 6a 06 fb 3e 68 56 8e 3d fa 0e 57 be 29 d7 a0 be
       0.4902833 0.069500744 -0.21001807 -0.31414154
0003f0 b9 17 17 3f 39 88 11 bf 5a 84 30 3e 67 ec 5d be
       0.5902057 -0.56848484 0.17237988 -0.21672212

fc_1.bias f4 [128]
000000 5c fb 0f be 85 13 67 be 34 17 13 be 0a e1 30 be
       -0.1406073 -0.2256604 -0.1436432 -0.17273346
000010 f8 d4 03 bf 24 9c 53 be 98 4e b2 3d 1c 7c 2a bf
       -0.5149684 -0.20665032 0.08706397 -0.66595626
000020 3f 66 2e 3f 04 4b 22 be fc f1 a3 3e 16 d0 83 be
       0.68124765 -0.15848929 0.32020557 -0.25744694
000030 91 5e 47 3d 7f 7a 9c 3b aa ec ea 3e 1c 3a fb be
       0.04867417 0.004775345 0.45883685 -0.4906777
000040 1e 40 ae 3e 38 ed 9f bd 94 d9 30 3e c3 21 e6 be
       0.34033293 -0.07808918 0.172705 -0.44947633
000050 5e 1f fa be 5d 5c 1e 3e 6a ff 7a be 57 30 d7 bc
       -0.48852056 0.15464921 -0.24511495 -0.026268167
000060 fc c2 df 3e 44 e4 06 3f 5b 72 02 3f c5 ed 2f bf
       0.4370345 0.52692056 0.5095574 -0.6872218
000070 e7 8d 0b bf 88 b1 d2 be dd c8 74 3e 80 7c 0f bf
       -0.545134 -0.4115107 0.23904748 -0.56049347
000080 ba 09 04 bd 7e e2 68 be 03 65 20 bf 13 e0 ed 3e
       -0.03223584 -0.2274265 -0.6265413 0.46460018
000090 16 c2 43 bd f6 07 81 be 01 38 72 3e 69 ff b4 bc
       -0.047792517 -0.25201386 0.23654176 -0.022094445
0000a0 93 33 ca 3d 0b ad bb be 03 b2 a0 be 40 f4 90 bb
       0.09873118 -0.3665546 -0.31385812 -0.004423648
0000b0 5b 33 7c be a8 c8 3f bc ed 52 a1 3b 85 0f fe 3e
       -0.24628966 -0.011705555 0.0049232156 0.49621215
0000c0 92 ec 26 3f 42 42 dd be ce 11 0e 3f f5 58 e5 3e
       0.6520473 -0.43214613 0.5549592 0.4479443
0000d0 e9 11 08 bf c7 a0 9d bc 98 95 3d be 9a 78 85 be
       -0.5315233 -0.019241704 -0.18514097 -0.26068574
0000e0 84 51 1e bf 91 90 00 bf 3d 16 da 3e 67 06 8f 3e
       -0.6184313 -0.5022059 0.4259509 0.27934572
0000f0 00 16 b9 3e c3 47 04 3f 81 a3 19 3f d7 8b 0a 3e
       0.36149597 0.51672 0.6001511 0.13529907
000100 08 c4 03 bf 76 15 b2 be 85 52 2b bf 5d 2c 8d 3d
       -0.51470995 -0.34781998 -0.6692279 0.06893227
000110 dd 5b b6 be c8 3e cc 3e c4 f3 1d 3f 48 76 98 be
       -0.3561696 0.39891648 0.6170008 -0.2977774
000120 e0 94 10 3f b9 32 9e be fb 44 7f 3e 11 38 2f 3f
       0.56477165 -0.30898073 0.24928658 0.68444926
000130 bf 92 16 3f c2 47 0c bf 0e 4d f9 3d 97 48 4e 3e
       0.58817667 -0.54796994 0.121729 0.20144878
000140 ae 9a ee be ff 6a 29 bf 88 5e 3e 3e 54 95 26 3f
       -0.46602386 -0.6617889 0.18590748 0.65071607
000150 7d b2 9a 3e 4e 32 7f be 98 07 58 be 4b 10 42 3e
       0.302143 -0.24921533 -0.21096647 0.18951528
000160 57 55 6b bc dc 7a b7 be ea c7 11 3e 02 9a 5f be
       -0.014363608 -0.35835922 0.14236417 -0.21836093
000170 84 85 37 be c0 52 17 bf 1e d9 3d be 68 fb f5 be
       -0.17922026 -0.5911064 -0.18539855 -0.4804337
000180 6d bd 2b 3e 5e 21 70 be 48 84 29 bf 63 af 77 3c
       0.16771479 -0.23450229 -0.6621747 0.015117499
000190 fa fe af be f2 4d 2b 3d e0 9c 36 3e 90 c5 48 3e
       -0.3437422 0.04182238 0.1783328 0.19606614
0001a0 d5 5f 07 bf 5c 46 06 be 88 55 34 3f 22 ca cf bd
       -0.52880603 -0.13112777 0.7044301 -0.10145976
0001b0 a9 3d e7 3e fa 2a 0b bf 66 c8 0c 3e f0 02 20 3e
       0.4516423 -0.5436245 0.13748321 0.1562612
0001c0 29 d2 4f 3e e4 63 07 3e 5f 80 61 bf b9 05 b5 be
       0.20295013 0.13221699 -0.88086504 -0.3535593
0001d0 18 04 3f 3e eb 23 cb 3e c7 73 45 be 7e 92 02 be
       0.18653905 0.3967584 -0.19282447 -0.12751195
0001e0 c4 89 bf be 8c d6 05 be 76 bd fb 3e f1 6b 85 be
       -0.37409794 -0.13070124 0.49167985 -0.26058915
0001f0 b2 01 12 bf 26 6e 32 bf 68 08 8f be 7f 81 a5 3e
       -0.57033837 -0.69699323 -0.279361 0.3232536

fc.weight f4 [1, 128]
000000 8c 86 86 3c be 8a 80 3d 01 d5 97 3d 7e f4 12 3e
       0.016421579 0.06276463 0.07413674 0.14351079
000010 a4 e2 aa 3c 96 a1 27 3d 9b c9 79 be f0 f6 64 3c
       0.020860024 0.040925585 -0.24393313 0.01397489
000020 d8 4a a5 bd aa 36 28 3d d6 81 68 bd 7c 3a 7e bd
       -0.08070916 0.041067757 -0.056764446 -0.062067494
000030 31 c1 d5 3d a4 7f 15 3d 4c 05 81 3d fa 37 04 3d
       0.10437239 0.03649868 0.062998384 0.032279946
000040 42 c9 0e 3d f4 e9 8c bc 32 5e 85 3c 0b ce 90 3d
       0.034859903 -0.017201401 0.016280267 0.070705496
000050 bc eb 9c bd e7 26 40 bd e9 00 a6 3d 70 2e 25 be
       -0.0766215 -0.0469121 0.08105642 -0.16130996
000060 f4 5e cc 3c 01 0c bc 3d 65 6b 6b 3d 47 08 15 bd
       0.02494762 0.09181977 0.057475466 -0.036384847
000070 94 3e a7 3c 70 1c c6 3b 91 6b 33 bd 1c 83 a8 bd
       0.020415582 0.0060458705 -0.043803755 -0.08228132
000080 55 58 a6 bd 68 3c c4 bc 00 69 9b 39 ff c0 ff 3c
       -0.08122317 -0.023954585 0.00029642135 0.031219957
000090 cb f0 95 3e e0 73 0d 3e 96 ae 6a bd 73 e2 c0 3d
       0.29285273 0.13813734 -0.057295404 0.09418192
0000a0 b3 c0 b5 3d 0c c4 06 bd 2c 5e dd 3e 0d 4a ae 3d
       0.08874645 -0.03290181 0.4323591 0.08510218
0000b0 01 7d a7 3e 00 9b 07 be d6 42 a5 ba e9 31 68 3d
       0.32712558 -0.13242722 -0.001260842 0.056688223
0000c0 af 9d b5 3d 62 e3 47 3d 87 99 1c bc fe 23 72 bd
       0.088679664 0.048800834 -0.009558088 -0.059116356
0000d0 f3 99 2a 3d 32 84 8e 3d e6 bc 56 3d 22 a8 62 3d
       0.041650724 0.06958808 0.05242624 0.055336125
0000e0 40 3c 91 3c c3 c0 d1 3e fa 75 c1 3b df d6 7b 3d
       0.017728925 0.40967378 0.0059039565 0.061484214
0000f0 04 d3 8b 3d 0b ac 84 bd a4 d8 9f 3c 7d 91 72 bc
       0.068273574 -0.06478127 0.019512482 -0.014805195
000100 00 3d 83 b9 4c 5c ba bc 4e f2 8e bd c5 25 1b bd
       -0.00025031716 -0.022749089 -0.0697981 -0.037877817
000110 5e cc 72 bd fb f8 81 bc 39 46 ad bc 66 ff 45 3d
       -0.05927693 -0.015865793 -0.021151649 0.04833927
000120 1d a2 72 3d 93 6f a8 3d 14 32 cb bd a0 c7 cc 3d
       0.059236635 0.08224406 -0.09921661 0.09999013
000130 62 fc 29 3d a4 a6 bf 3c 7d 6e fc 3d d4 6c 02 3d
       0.041500457 0.02339489 0.123257615 0.031842068
000140 d1 ce 2d bd 08 40 fd 3c d8 b5 ae bd 9a ea 99 bd
       -0.042433564 0.030914322 -0.08530778 -0.0751545
000150 97 e8 05 3d 80 25 b3 ba 6a 4f 65 3d 5a 86 90 bd
       0.032692518 -0.0013667792 0.05598394 -0.070568755
000160 7d 48 5a 3e 9a 58 58 bd e5 82 dc 3d 26 07 5d 3d
       0.21316715 -0.052818872 0.10767154 0.053961895
000170 00 e3 6f 3b 17 3c 6f 3f f9 51 44 bd ca f0 2d bd
       0.0036603808 0.93451065 -0.047929738 -0.042465962
000180 3b f7 09 bd 38 01 00 bd 66 af 0d 3d 88 62 17 3d
       -0.033683043 -0.031251162 0.0345911 0.0369592
000190 66 b3 e1 bc c9 b0 87 bc 74 ee 7c 3d dd 5a 3b bd
       -0.027551364 -0.01656379 0.061750844 -0.04574095
0001a0 b8 91 7d bd a2 c4 29 3d 3f 93 ab bd 7a 26 dd bc
       -0.061906546 0.04144729 -0.08377694 -0.026995886
0001b0 ff 43 27 3d 8e 35 40 3d 15 53 3e 3d 81 dc 4f 3d
       0.04083633 0.046926074 0.046465952 0.0507474
0001c0 65 3b c4 bd 9c bb 3c 3c ab c0 00 3f 34 0b 39 bd
       -0.09581641 0.011519339 0.5029399 -0.0451767
0001d0 2f a0 f6 bd 8d cd b5 ba bb 42 9b 3d bc f4 d6 3c
       -0.12042271 -0.0013870463 0.07581087 0.026239745
0001e0 5c 4f f2 bc 2a 66 6c bd 67 ed 98 bd 57 04 8e 3d
       -0.029578857 -0.05771462 -0.07467156 0.069344215
0001f0 28 ce 61 3c 40 5c 87 bd 50 06 bd bb a7 59 50 bc
       0.013782062 -0.06609392 -0.005768575 -0.012716687
