Model/012280_2539.pth (torch, 4687 bytes, 7 tensors)

lstm.weight_ih_l0 f4 [8, 5]
00000000: 4211 e13c c2bd 08bf bb93 863c ce2f 33bf
00000010: 489b e23e dc9d eebe 0df2 69bd 67a1 3abe
00000020: 1765 efbe b8d2 c83e fef1 0cbf af82 173f
00000030: fca7 8d3e 4bac 223f 76ae e43e 306d 313d
00000040: 283c 1ebf 800e d43b e8eb d23d e041 cabc
00000050: 7652 bf3e 255c 1abb f7db 053e b44f 7cbe
00000060: e7c8 f43e 519a d13e 2fda bbbe 9603 683e
00000070: 753b 22bf cf48 e6bc 8670 f7be 9f29 6ebe
00000080: f312 f93e 0320 323f dbf2 7f3e 71d9 aebe
00000090: ba38 933e 5e8e 27bf 2d25 593e 6037 b0bd
0.02747405 -0.5341455 0.016427865 -0.6999482 0.44259095 -0.46604812 -0.057115603 -0.18225633
-0.46756813 0.39223266 -0.5505675 0.5918378 0.27667224 0.6354415 0.44664353 0.04331702
-0.6181054 0.006471455 0.10298902 -0.024689615 0.373676 -0.0023553458 0.13072191 -0.2463978
0.47809526 0.40938047 -0.36689898 0.22657618 -0.63371974 -0.02811089 -0.48328036 -0.23258065
0.4864727 0.69580096 0.24994986 -0.3415027 0.28754216 -0.6545161 0.21205588 -0.08604312

lstm.weight_hh_l0 f4 [8, 2]
00000000: c2e5 e33e f9cc cebe 0050 c8bb 8d3e 173f
00000010: 5dd4 9ebe 0a8a 17bf 386e 283e 678a 30bf
00000020: 8933 283f 9c64 5b3e 0b42 8ebe 19f6 1bbf
00000030: 93b7 0c3f 305b 923d 0449 523e 843e 063e
0.4451123 -0.40390757 -0.0061130524 0.5907982 -0.31021395 -0.59195006 0.16448295 -0.68961185
0.65703636 0.21425098 -0.27784762 -0.6092239 0.5496761 0.07146299 0.20535666 0.13109785

lstm.bias_ih_l0 f4 [8]
00000000: 7fc1 e1be 22aa 183f 02ec fb3e 2eb7 9c3e
00000010: 666e 28bd 5fb7 5a3f 02d9 f53e 1f41 01be
-0.44092938 0.596346 0.49203497 0.30608505 -0.04112091 0.8543605 0.48017126 -0.12622498

lstm.bias_hh_l0 f4 [8]
00000000: c7f8 203e 2f05 073f 87d0 203f ad8b 9cbe
00000010: 349a d73e b757 523e 2e84 d93e dab2 b23d
0.15719901 0.52742285 0.6281819 -0.30575314 0.42109835 0.20541273 0.42483658 0.087255195

fc_1.weight f4 [128, 2]
00000000: 3aaa f03e b394 12be 2eae 3f3e 402a 073f
00000010: 0207 67be ce9c f83e 403e 723d 9445 473e
00000020: c325 4ebe 6d35 aebe c0f8 4a3c e107 343f
00000030: 6686 433e 80b9 183f 9ba0 99bd 79b9 ce3e
00000040: 9f84 e63e e3cb 3c3f 7e1e 933e 6a70 2cbf
00000050: 6c9d 103e 7e10 d73e d9b3 203f fb4e 07bf
00000060: 55aa 003f 64f6 603e 6a09 9e3e b774 0f3f
00000070: 26bf d6be 6990 5d3d ba91 253d febf 40bf
00000080: 19c6 993d db48 eb3c 93d8 1b3f 0763 eebe
00000090: 59cc 073f c278 2bbf fe17 cbbe ddb5 28bf
000000a0: a3e5 8c3e e254 24bf 63d1 323f 159a 14bf
000000b0: 14b0 643d caa7 cb3e 0600 10bf 1885 56be
000000c0: 9a63 923e 82a1 183e ab76 85be d8c3 c1bd
000000d0: afb3 cabc 1d08 003f a000 e43c 26b1 8d3e
000000e0: 9699 0dbf 7071 72be 82a4 b13e 612d 053f
000000f0: 1edd 883e 424f 34bf b836 2a3e 7b45 84bd
00000100: 6e47 23bf 6980 8d3e 872c 313f 000f 13be
00000110: ba2f b33e 4098 473d f522 babe 340c 083f
00000120: e9e4 483e d7b2 933e 6ffc 243f ca3b a13e
00000130: fed1 81be e6e5 5bbf 1285 993e 88e1 3dbd
00000140: c730 2e3e f071 593e e552 87be e9bf cf3d
00000150: c8cc 8c3e 5d1f 213f 8052 0dbf 4919 25bf
00000160: 209d 17bf adb2 283f 9e5a 663e d124 ecbe
00000170: fcd0 8cbe 03c3 a2be d2d1 bf3e a648 c53e
00000180: e4d1 b23e 5959 cabd 5c10 973d 3343 8ebf
00000190: ebd7 f13e 1e0a 2a3e 7983 9b3e af17 14be
000001a0: 2581 323f 28c4 07bf 59be e4be c3bc 21bf
000001b0: 717c 153f 0801 17bf 8310 093f e977 9c3b
000001c0: 16f1 79bd d8cd 6dbe 1af8 95be 8b8e d7be
000001d0: 68c9 edbe a994 e93e 70b8 253f 0863 2f3f
000001e0: c1b3 c3be 5e78 25bf 7851 77bd 700b f7be
000001f0: 8b3f febe eb40 0e3f 1127 013f 4248 8d3e
00000200: 1f1c cd3d a48d 08c0 33ed abbe 0390 b13e
00000210: 3e55 273e c49b 823c 901d 9f3e c235 bcbe
00000220: b2d6 babd 50a6 f73e 67b2 33be 3102 5cbc
00000230: d40f c53e 1f56 f83d 7842 9dbd 3261 febe
00000240: 6554 2ebf 1441 0ebf fc85 023e c858 ddbe
00000250: e4d5 aebe 1a19 de3e 15a4 013f 3210 3e3f
00000260: 8549 d6be c884 253e ba6b 423e c08a 8b3e
00000270: 3840 3cbe 7e42 00bf 6878 eb3d c1f6 01bf
00000280: 56aa a63e bb42 92bf f097 01bf 0a9a f83e
00000290: 6014 f9bd 404c 4f3c c6fd c9bd 1508 233f
000002a0: 036d 283f 3d8d 013e cf82 c0be a55b 093e
000002b0: b020 97bd e13b 0b3f 2ecf 8a3e 6212 8fbe
000002c0: 8a15 25bf 7e2b b83e 247d 893f 21ba b73e
000002d0: ce3d f13e cefb d1be 9988 353f 4b14 cdbf
000002e0: 02f7 063f 9204 8e3d a7bb 103d 2076 143f
000002f0: ed08 05bf 3c30 5b3e ac7f 2c3f 4cb1 debe
00000300: 3b74 6bbd c0dd 293e ec90 2a3e f67d a33e
00000310: 9f62 92be 1f5e 0c3f 9fc9 1ebf 5eeb 3cbd
00000320: 6a51 b6be b409 fbbd 591b e5be dc05 67be
00000330: 044c babe 67be 45bf b006 103e 07a1 22bf
00000340: 4020 3cbe e9b2 d73e 1f04 013f cb9c 5f3f
00000350: 2539 16be 59f7 46bd 8ad2 343f f584 4f3e
00000360: 61b9 f5be c58b 21bf 3eb1 20bf f835 39be
00000370: 36f7 1dbf 8302 04bf 409c 303f cf88 f53d
00000380: 9580 123f f79c 15be 6fd5 bd3e 562e 203f
00000390: f2bb 9b3d bc5b ec3d 8a63 fa3e a4c9 c3bd
000003a0: f90a 363f 73b4 ddbf 0958 233f 3796 203e
000003b0: b42b f63d 7e7e 0abf ca65 6a3e 2f8b 733d
000003c0: d568 9abe 7de8 a4be 4a70 ac3e de8e c53e
000003d0: cc30 213f 2f59 313f 4055 533d c683 c13e
000003e0: 5389 303e 245b 173f 2404 39be d41b 13bf
000003f0: 0493 183f 0105 073f 913e 1b3d 52b4 bebd
0.47004873 -0.14314537 0.18718788 0.52798843 -0.22561267 0.48557132 0.059141397 0.19460136
-0.20131592 -0.34025136 0.012388408 0.7032452 0.19094238 0.5965805 -0.07501336 0.4037588
0.45023057 0.73748606 0.287342 -0.6735903 0.14122552 0.4200477 0.62774426 -0.5285489
0.50259906 0.2196899 0.30866557 0.5603747 -0.4194271 0.0540928 0.04042218 -0.75292957
0.07508487 0.028721264 0.6087734 -0.46559927 0.53046185 -0.66981137 -0.39666742 -0.659025
0.2751895 -0.6419202 0.6985075 -0.5804761 0.055831984 0.3977645 -0.56250036 -0.20949209
0.28591615 0.1490536 -0.260671 -0.09461182 -0.024743883 0.5001238 0.02783233 0.27674216
-0.5531248 -0.23676085 0.34695822 0.5202237 0.267312 -0.7043344 0.16622436 -0.06458565
-0.6378087 0.27637032 0.6920857 -0.14361191 0.3499735 0.04872918 -0.36354795 0.5314362
0.19618572 0.2884738 0.64447683 0.31490928 -0.25355524 -0.8589767 0.29984337 -0.04635766
0.17010795 0.2123487 -0.2643043 0.10144026 0.27499986 0.6293848 -0.5520401 -0.6449171
-0.5922413 0.6589764 0.22495505 -0.4612184 -0.27503192 -0.31789407 0.37464768 0.3853199
0.3492576 -0.09880323 0.07376167 -1.1114258 0.47235045 0.16605422 0.30373743 -0.1446216
0.6972831 -0.53033686 -0.44676474 -0.6317865 0.5839301 -0.5898595 0.5354082 0.0047750366
-0.061020933 -0.23223054 -0.2929085 -0.4210094 -0.46442723 0.4562123 0.64734554 0.68510485
-0.3822308 -0.6463679 -0.06038043 -0.48250914 -0.49657854 0.55567807 0.50450236 0.2759419
0.10015129 -2.133645 -0.33579406 0.34680185 0.16341111 0.015943415 0.31077242 -0.36759764
-0.09122981 0.48369074 -0.17548524 -0.013428257 0.38488638 0.12125801 -0.076786935 -0.4968353
-0.68097526 -0.5556805 0.12746423 -0.43231797 -0.3414756 0.43378526 0.50640994 0.7424346
-0.41852966 0.16163933 0.18986407 0.27254295 -0.18383873 -0.5010146 0.11497575 -0.5076714
0.3255183 -1.1426615 -0.50622463 0.48555022 -0.12162089 0.012652457 -0.098628566 0.6368421
0.6579134 0.12651534 -0.375998 0.13413866 -0.073792815 0.5438824 0.2711119 -0.27943712
-0.6448599 0.35970682 1.0741315 0.35884193 0.47117466 -0.41012424 0.70911556 -1.6021818
0.52720654 0.069344655 0.03533521 0.57992744 -0.51966745 0.21405119 0.6738231 -0.43494642
-0.057483893 0.16588497 0.16656846 0.31932038 -0.28590867 0.5483112 -0.620264 -0.0461229
-0.3560899 -0.1225771 -0.44747427 -0.22560829 -0.3638612 -0.77243656 0.14065051 -0.6352696
-0.18371677 0.42128685 0.50396913 0.8734862 -0.14670236 -0.048575733 0.7063376 0.20265563
-0.47992995 -0.63103896 -0.6277045 -0.18086994 -0.6170534 -0.5156633 0.6898842 0.11988985
0.5722745 -0.14610659 0.370769 0.62570703 0.07604207 0.115409344 0.48904067 -0.09559944
0.7111049 -1.7320694 0.63806206 0.15682302 0.120200545 -0.5409926 0.22890392 0.059458908
-0.30158105 -0.32208624 0.3367942 0.38585562 0.62965083 0.6927671 0.051594973 0.37795848
0.17239885 0.59123445 -0.18067986 -0.5746434 0.5959933 0.5274201 0.037901465 -0.09311737

fc_1.bias f4 [128]
00000000: 7025 253f 67f6 0b3e 938f 32bf 9208 d3be
00000010: f0db 703e f362 1cbf 4090 16be c280 3e3e
00000020: 93d2 8cbe 87d8 2dbf 8a2e bfbe a211 203e
00000030: f902 2a3f df53 aa3e 911d cbbc 3d7d 6e3e
00000040: 3e02 f73e 2ec5 0fbf d49f 6b3e c43a 003f
00000050: c5c0 0f3f 2177 07bf 8794 2e3c ea9a 03bf
00000060: b5be 09be a852 95be 8917 e93c a701 2abf
00000070: 00f9 08bb 5cf3 02bf 71b1 d0be e22a 183f
00000080: 4557 06be cfb0 30bf b63d fcbe d7b7 3b3d
00000090: bfb5 23be c24d e3bc d425 533e b0f0 373f
000000a0: 9357 ed3d 0980 253f b08d 223e 0132 bebe
000000b0: b0d7 8d3e e3d3 ee3e 69c9 2f3e 98eb 13bf
000000c0: e6c4 2d3f f16f ea3d bd49 a0bc eac4 873d
000000d0: 4cbb 783e 59e7 ea3e f44b 8a3e 94cf 063c
000000e0: fee6 5d3e a76c 033f dda0 e63e ed77 703e
000000f0: 8344 dfbe a854 2a3f 3995 bbbe 3dcb e93e
00000100: 2378 bd3d 64a6 b43d 746d 0c3f 2064 a83e
00000110: 8a14 923d a4b7 113e 652a ba3e 4b83 18bf
00000120: 2584 213f 8389 9b3e 187b f2be 361e d3be
00000130: b9b5 12bf f1ce e93e 02d9 2fbf ccc1 05be
00000140: d5e3 fcbd e3d0 bbbe 11ae 96be 46e1 37be
00000150: 5dd0 6bbe 16e4 1d3e 725f 11bf ca64 0ebe
00000160: 81d8 02bf 4c48 3bbf beef d9be 03d8 ebbe
00000170: bfa9 eb3e 1bd4 9b3d d264 54be 2568 753e
00000180: f9d1 ee3c bb0d e4be 72cb bd3d eeda e53d
00000190: f036 563e e4f7 1cbf 2a3b 383f 8697 debe
000001a0: bed8 a13d 5ae0 fabd a16d ad3e 4090 843e
000001b0: 0126 02bf ad33 15bf c0a1 eabd ee5f ed3e
000001c0: fd8d 1f3f efc3 233e da85 903d 01ea bebe
000001d0: 30fc ddbe 91aa f53e a518 b53d 64d5 db3d
000001e0: 1ffd 8f3e f263 1dbf 9411 aa3c 74ca a0be
000001f0: 9fa0 0f3e b9c8 a13e 6cb3 e9bc ed63 243f
0.6451025 0.13668214 -0.69750327 -0.41217476 0.235214 -0.61088485 -0.14703465 0.18603805
-0.27504405 -0.6790852 -0.37340194 0.15631726 0.66410786 0.33267114 -0.024794372 0.23289962
0.48243898 -0.5616025 0.23010188 0.5008967 0.5615352 -0.5291615 0.010655529 -0.51408255
-0.13451655 -0.29164624 0.028453605 -0.6640877 -0.0020900369 -0.51152587 -0.40760377 0.59440434
-0.13119228 -0.6901979 -0.49265832 0.04582962 -0.159873 -0.027747039 0.20619899 0.71851635
0.11588969 0.6464849 0.15874362 -0.37147525 0.2770362 0.46646032 0.17166676 -0.5778136
0.6787857 0.114471324 -0.019566411 0.06629355 0.24290198 0.4587963 0.27011073 0.008228201
0.21670148 0.51337665 0.45044604 0.23483248 -0.43606958 0.66535425 -0.36637285 0.4566287
0.0925143 0.08820799 0.5485451 0.3288889 0.07132824 0.1423021 0.3636047 -0.5957534
0.6309226 0.3037835 -0.47359538 -0.41233987 -0.57308537 0.45665696 -0.686905 -0.13062209
-0.12348143 -0.36682805 -0.29429677 -0.17957029 -0.23028703 0.15419039 -0.56786263 -0.13905635
-0.5111161 -0.7315719 -0.4256572 -0.4606324 0.46027943 0.07608815 -0.20741585 0.23965509
0.029152857 -0.44541726 0.0926732 0.11223398 0.20919394 -0.6131575 0.7196528 -0.43474978
0.079026684 -0.12249823 0.33872703 0.25891304 -0.5083924 -0.58281976 -0.114566326 0.4636225
0.6232603 0.15992711 0.0705678 -0.37287906 -0.43356466 0.47981694 0.08842591 0.107340604
0.28122804 -0.6148063 0.020760335 -0.3140446 0.14026116 0.31598452 -0.028527938 0.64214975

fc.weight f4 [1, 128]
00000000: 53b4 85bd 7528 c6bd 3036 ec3c 8a27 493d
00000010: 21cb b73d a226 743d 66d8 533e 1eed 3e3a
00000020: 25a4 b5be 041a 80bc a064 97bd 8dbd d3bc
00000030: c8a7 08bc 4624 a0bd 1301 4b3d 69c5 c93d
00000040: cbb4 9c3d 051f 3abd 1d6e 973d a258 7e3d
00000050: be05 64bb b28e 653e ecb8 fabc 66b3 613d
00000060: 4ddc a43d 40be 93bc 5821 1cbe 73a1 9c3d
00000070: e502 833d 4e64 80bd db66 5abd 1221 c13d
00000080: 8cd8 523b f24e 6c3d abeb 7abd eeb4 3bbc
00000090: a85e 5fbd 1097 abbd cd7a 793e 8328 ba3d
000000a0: 2d0a 77bd 4483 723d c7e3 2b3c 10f0 043c
000000b0: 1459 95bc e100 773d d1ef ebbb 15e7 adbd
000000c0: 0327 b93d 209e cb3e 7b24 bfbd f1b6 573d
000000d0: 47ad a93d d001 b73d b57f 8c3c fa7d 053d
000000e0: c9dc 7c3c 90c9 36bd 0ad3 c1bc bc4f 45bd
000000f0: 26d7 653d ffc8 983d 0eea 043d 5fcd 4c3b
00000100: e288 f83e 4fd6 f8bc 67a6 23bc 0b4d 863d
00000110: 0793 16be 7fb7 c03d 74ae 3e3d ea68 84bd
00000120: 10da b73d 3bce 6c3d 40c7 59bb 19f4 02be
00000130: dc4b 8f3c fb6c bcbc 4c55 91bd 001c e1b9
00000140: 2e7a 0a3d 9a00 753d c0cf 773c 55df b3be
00000150: 2f28 3cbd fa6a 89bd 20be 973c bea0 18bd
00000160: c0e7 883a 345f 34bf 6e20 173d 2bbf ae3e
00000170: 34b1 7d3c 5b41 a6bd e8e3 5c3c 046e 453d
00000180: d9cd fe3c 6072 8e3c c7af 28be 3d79 8d3d
00000190: e010 9ebc 8474 ca3c 11c3 b43d 4c2b 3cbd
000001a0: c230 dcbd 2c03 943e 1127 41bd 619b 7a3d
000001b0: 8af3 83bd 56fb 3e3d a2bd 4e3d 75e8 5abd
000001c0: fde5 11bc d625 b0bd acef 8a3d 711c 873d
000001d0: 5d29 4c3e 51bd 803d cc36 1f3e efd0 68bd
000001e0: 6d17 163d d2f8 503d 4f98 70bd 40b6 f8bb
000001f0: 6ee2 9fbd 6888 043e 440c 32bd b017 b83d
-0.06528535 -0.09675685 0.028834432 0.049109973 0.08974291 0.059607156 0.20688018 0.0007283258
-0.35476795 -0.015637405 -0.073922396 -0.02584722 -0.008340783 -0.078194186 0.04956157 0.09852106
0.07651671 -0.04543974 0.07394049 0.062096246 -0.0034793462 0.22417715 -0.030605756 0.05510273
0.080498315 -0.018035054 -0.15247095 0.076479815 0.063970365 -0.062691316 -0.053320747 0.09430136
0.003217253 0.057692476 -0.061259907 -0.011456711 -0.05453363 -0.08378422 0.24363251 0.09089758
-0.06031244 0.059207216 0.010491318 0.008113876 -0.018230952 0.060303573 -0.007200219 -0.08491341
0.09040644 0.39769077 -0.0933313 0.0526647 0.08285003 0.089358926 0.01715074 0.032590844
0.015433499 -0.04462582 -0.023660202 -0.048171744 0.056113385 0.07460212 0.032449774 0.003125034
0.48541933 -0.030375628 -0.009988404 0.065576635 -0.14704524 0.09409999 0.04655309 -0.06465323
0.08977139 0.057813864 -0.0033230335 -0.12788428 0.017492227 -0.023001185 -0.07096347 -0.00042936206
0.033807926 0.059815027 0.015125215 -0.35131326 -0.04593676 -0.06709857 0.018523276 -0.03726267
0.0010445043 -0.7045777 0.03689616 0.34130225 0.015484143 -0.08117934 0.013482071 0.048200622
0.031104015 0.017388523 -0.16473304 0.0690789 -0.019295156 0.024713762 0.088262685 -0.04593973
-0.10751487 0.2890867 -0.047156397 0.061183337 -0.06442936 0.04662641 0.050473817 -0.053444345
-0.008904931 -0.08600967 0.06783995 0.06597222 0.19937654 0.06286109 0.15548247 -0.05683988
0.036643434 0.051018544 -0.058739003 -0.0075900853 -0.0780686 0.1294266 -0.04346873 0.08988893
