Model/017040_5805.pth (torch, 4687 bytes, 7 tensors)

lstm.weight_ih_l0 f4 [8, 5]
0	0xbf45e76b	-0.7730624
1	0x3f15c7a9	0.5850778
2	0x3e0e5bf8	0.13902271
3	0x3f3fb867	0.7489075
4	0xbda930b1	-0.0826124
5	0x3d5f0a35	0.054453094
6	0xbf33f611	-0.7029734
7	0x3dd8e48d	0.105904676
8	0x3ea351e0	0.31898403
9	0xbb56f448	-0.0032799412
10	0xbe24fb40	-0.1611147
11	0x3f2c7271	0.67362124
12	0xbd6d6b60	-0.05796373
13	0x3ee42252	0.44557434
14	0x3f2f3f43	0.68455905
15	0x3ebc505e	0.36780065
16	0x3f292439	0.66070896
17	0xbc6fff00	-0.014648199
18	0xbed299da	-0.41133004
19	0x3e9cc6ce	0.30620426
20	0x3f306a96	0.6891264
21	0xbecaacb3	-0.39584884
22	0xbe966198	-0.29371333
23	0x3f22c39e	0.6357974
24	0x3c5e91b3	0.013584542
25	0xbdbd4d15	-0.09243218
26	0x3f1c6c7e	0.61103046
27	0xbedc65c8	-0.43046403
28	0xbe20c182	-0.15698817
29	0x3b08614c	0.0020809947
30	0x3e0c238f	0.1368544
31	0x3dc192c5	0.09451822
32	0x3da0a603	0.07844164
33	0x3eba2d83	0.36362848
34	0x3d8d6917	0.0690481
35	0x3e8209ee	0.253982
36	0xbeb03ab1	-0.34419778
37	0xbe058bf7	-0.13041674
38	0xbf455bc3	-0.7709314
39	0xbbe48263	-0.006973551

lstm.weight_hh_l0 f4 [8, 2]
0	0x3ea0db0e	0.31417125
1	0x3e2c637c	0.16834825
2	0x3e28a3b8	0.16468704
3	0x3ecce1e6	0.40016097
4	0x3f147ac1	0.5799981
5	0xbdf3a598	-0.11896819
6	0x3f0e2d05	0.55537444
7	0x3f0a4da5	0.54024726
8	0x3f0d4747	0.55186886
9	0xbf08e146	-0.5346874
10	0x3f25f57f	0.6482772
11	0x3db99750	0.09062064
12	0x3f347b49	0.7050062
13	0xbea61fca	-0.32446128
14	0x3ef08666	0.46977538
15	0x3ea007ea	0.31256038

lstm.bias_ih_l0 f4 [8]
0	0xbe48f0b6	-0.19623074
1	0xbd75baa9	-0.059992466
2	0xbe87faf2	-0.26558644
3	0x3e96c0de	0.2944402
4	0x3bb2a43d	0.0054517076
5	0xbe05bbd6	-0.13059935
6	0x3d60d0e4	0.054886714
7	0xbf01dbe4	-0.5072615

lstm.bias_hh_l0 f4 [8]
0	0x3d844493	0.06458392
1	0x3efc6ac0	0.49300194
2	0x3d9a2958	0.07527417
3	0x3df627c0	0.120193005
4	0xbe5e1e7a	-0.21691313
5	0x3f8a8218	1.0820951
6	0x3eb66eb6	0.3563134
7	0x3e13f63c	0.144494

fc_1.weight f4 [128, 2]
0	0x3d92cdd8	0.07168168
1	0x3ea6c80e	0.32574505
2	0x3ebdc521	0.3706446
3	0xbea8fd09	-0.3300555
4	0x3ea587fe	0.32330316
5	0x3e389514	0.18025619
6	0x3de35e41	0.11101962
7	0x3f13f21f	0.5779132
8	0xbe695aa6	-0.22788486
9	0x3f1cdefb	0.6127774
10	0xbbe5fe80	-0.007018864
11	0x3eeb1d82	0.4592095
12	0x3eda3c10	0.4262395
13	0xbe6960c0	-0.22790813
14	0xbeee75d6	-0.46574277
15	0x3e1f8e26	0.15581569
16	0x3ea36f86	0.31921023
17	0xbf20de7c	-0.62839484
18	0x3e83d59e	0.25748914
19	0xbe3c6449	-0.18397631
20	0xbedd3734	-0.4320618
21	0x3edd4d1d	0.43222895
22	0xbeb2da75	-0.34932294
23	0xbec53d7f	-0.3852348
24	0xbf1efecb	-0.62107533
25	0xbf1aaa26	-0.60415876
26	0xbf2a74cd	-0.66584474
27	0x3f233d2f	0.63765234
28	0x3f0447ea	0.5167223
29	0x3f3e349a	0.74299014
30	0x3fa62b61	1.2981988
31	0xbfa7574e	-1.3073518
32	0x3deedf23	0.11663654
33	0xbe8a149b	-0.26968846
34	0xbd8c31da	-0.06845446
35	0x3f09fb31	0.5389891
36	0x3ee69db3	0.4504219
37	0x3ef9ffa0	0.4882784
38	0xbe0bd20c	-0.13654345
39	0x3e85bd76	0.2612111
40	0x3eb264c9	0.34842518
41	0xbd9f6e32	-0.0778469
42	0xbeb5382e	-0.35394424
43	0x3ead4722	0.33843333
44	0x3e39fc38	0.1816262
45	0xbda9f778	-0.08299154
46	0x3fa467f6	1.2844226
47	0xbf93b48b	-1.1539472
48	0x3b7b6f0a	0.0038365745
49	0x3c64aa12	0.013956564
50	0xbf296785	-0.66173583
51	0xbdb97eb0	-0.09057367
52	0xbf0528be	-0.5201529
53	0x3f4007e5	0.75012046
54	0xbdd03063	-0.10165479
55	0x3f3c51d9	0.7356239
56	0x3f00e749	0.50352913
57	0xbf3142ab	-0.6924235
58	0xbe8ca2bd	-0.2746791
59	0x3dc66c20	0.09688592
60	0xbe86a05d	-0.26294222
61	0xbf118a57	-0.56851715
62	0xbf177aa3	-0.59171504
63	0x3ea8be1e	0.32957548
64	0xbea55021	-0.32287696
65	0x3d0792d0	0.033098996
66	0xbefd21fe	-0.49439996
67	0xbdee32c8	-0.116307795
68	0x3e2de984	0.1698361
69	0x3f0279e5	0.50967246
70	0xbea809be	-0.32819933
71	0xbec4347d	-0.38321295
72	0x3cdd2de0	0.026999414
73	0xbd8ee0c8	-0.06976467
74	0xbe56b173	-0.20966129
75	0x3e7c1593	0.24617605
76	0xbf0df0ae	-0.55445373
77	0xbd8577a8	-0.06516963
78	0xbf17fddc	-0.59371734
79	0xbf3744e9	-0.71589524
80	0x3e33ff84	0.1757794
81	0x3e32e544	0.1747027
82	0x3da55895	0.08073536
83	0x3e6034d0	0.21895146
84	0xbf081cba	-0.53168833
85	0xbee29127	-0.44251367
86	0x3f4a5a29	0.79043823
87	0xbf17df36	-0.5932497
88	0xbf1f805e	-0.6230525
89	0x3e0b5a64	0.136087
90	0xbec8a3d7	-0.391875
91	0xbe00ef74	-0.12591344
92	0xbf03a2e6	-0.5142044
93	0xbd945bfe	-0.072441086
94	0x3e24e90f	0.1610453
95	0x3f123f73	0.57128066
96	0x3eeafe2e	0.4589705
97	0x3f24496e	0.64174545
98	0x3f0064d3	0.50153846
99	0x3f38b71d	0.7215441
100	0xbe273618	-0.16329229
101	0xbf084aca	-0.5323912
102	0x3eac9c45	0.33712974
103	0x3eca3c8d	0.39499322
104	0x3f170b03	0.5900118
105	0xbdba5b05	-0.09099392
106	0x3ed06282	0.40700155
107	0xbf237aea	-0.63859427
108	0x3f277572	0.6541358
109	0x3e891b46	0.2677862
110	0xbde83e90	-0.11340058
111	0xbce6ac20	-0.028158247
112	0xbef1ac70	-0.47201872
113	0x3e7ab80d	0.24484272
114	0xbf27f2a1	-0.656046
115	0xbed8331d	-0.42226496
116	0xbecb4ab6	-0.39705437
117	0xbf13393a	-0.57509196
118	0xbe133dba	-0.14379016
119	0x3e19c518	0.15016592
120	0xbf189949	-0.59608895
121	0x3f095a1a	0.5365311
122	0xbe172208	-0.14759076
123	0x3de4f348	0.11179215
124	0xbe9c09b8	-0.30476165
125	0x3d0b8a63	0.034067523
126	0xbe7ab383	-0.24482541
127	0xbf154b3b	-0.5831792
128	0xbd73e045	-0.059540052
129	0x3dc8855b	0.097910605
130	0xbe88fa52	-0.2675348
131	0xbef9ef54	-0.48815405
132	0x3f0f4f6f	0.5598058
133	0xbea71fa9	-0.32641342
134	0x3f2b37d9	0.6688209
135	0x3f0a933a	0.541309
136	0x3f16dd6c	0.5893161
137	0xc0010d94	-2.0164537
138	0xbf0b27ab	-0.54357404
139	0xbeb01ec8	-0.34398484
140	0xbe1bab5c	-0.15202087
141	0xbe6011be	-0.21881768
142	0x3edc8612	0.43071038
143	0x3f1115f3	0.56674117
144	0xbebd8dc4	-0.3702222
145	0xbef5aedf	-0.4798498
146	0x3e10c260	0.14136648
147	0xbf148ddb	-0.58028954
148	0x3eb675f2	0.3563686
149	0xbe954ef4	-0.291618
150	0xbe96be41	-0.29442027
151	0xbe778e72	-0.24175432
152	0xbf0dce0a	-0.55392516
153	0xbf3c090b	-0.734513
154	0x3f5e17c9	0.86755043
155	0xbfb16b77	-1.3860921
156	0xbe10def0	-0.14147544
157	0xbe962185	-0.29322448
158	0x3e05f6be	0.13082406
159	0x3f1e99ca	0.61953413
160	0xbdc9194e	-0.098192796
161	0xbe6d8376	-0.2319468
162	0xbdfe74e0	-0.12424636
163	0x3e505fac	0.20348996
164	0x3eda23a3	0.42605314
165	0x3d15ce7d	0.036573876
166	0xbeab0043	-0.33398637
167	0xbee0f6eb	-0.43938383
168	0x3d132023	0.03591932
169	0x3d5d4245	0.054018278
170	0xbec23f08	-0.37938714
171	0xbf08b81a	-0.53405917
172	0x3f10dbed	0.5658558
173	0x3ea2c97f	0.31794354
174	0xbf297101	-0.66188055
175	0xbeb7377f	-0.35784528
176	0x3f16c279	0.5889049
177	0x3f112f33	0.56712645
178	0x3ecb0638	0.39653182
179	0xbfdd3348	-1.7281275
180	0x3ef78e73	0.48350868
181	0xbde261e8	-0.110538304
182	0xbedc88c6	-0.430731
183	0xbecf3eb2	-0.4047752
184	0x3f1055e0	0.56381035
185	0x3f13b9d3	0.5770542
186	0x3eeed6e6	0.4664833
187	0xbf3bbce7	-0.7333512
188	0x3f2d31ef	0.6765432
189	0xbf37cdad	-0.7179821
190	0x3ef90391	0.48635533
191	0x3ee77c46	0.45212
192	0xbe83f4bf	-0.25772664
193	0xbea66e2a	-0.32505924
194	0x3f38ca59	0.7218376
195	0xc014ca89	-2.3248618
196	0x3e940cf8	0.28916144
197	0x3f04bdd5	0.5185216
198	0x3ddfdf37	0.10931247
199	0xbe75f1b6	-0.24017987
200	0xbf103717	-0.5633406
201	0xbee97680	-0.4559822
202	0xbe902034	-0.2814957
203	0xbddf6ef0	-0.109098315
204	0xbeb1cd86	-0.34727114
205	0x3f1b5dfd	0.6069029
206	0x3f18274b	0.59434956
207	0x3e5cd18c	0.21564311
208	0xbe257cf4	-0.16160947
209	0x3f4b12d9	0.79325634
210	0xbe645874	-0.22299367
211	0xbf22417f	-0.6338119
212	0x3d348110	0.044068396
213	0xbf2e3742	-0.68053067
214	0xbd7aa828	-0.061195523
215	0xbbd78706	-0.0065773753
216	0x3f235dd4	0.63815045
217	0xbf3db56e	-0.74104965
218	0x3da46e1b	0.080288135
219	0xbf476807	-0.7789311
220	0x3f1d8347	0.6152844
221	0xbdf44c40	-0.11928606
222	0x3f226136	0.6342958
223	0xbd3a7b22	-0.045527585
224	0x3ea9cda6	0.3316471
225	0xbf320b26	-0.6954826
226	0xbf252eef	-0.6452474
227	0x3dfd7a00	0.12376785
228	0xbea83dbb	-0.32859597
229	0xbd8b4b90	-0.06801522
230	0xbf03cde7	-0.5148606
231	0xbe9bbbef	-0.3041682
232	0x3f306fea	0.6892077
233	0x3dd46005	0.10369877
234	0xbefa8a05	-0.48933426
235	0x3f2c70bd	0.67359525
236	0xbf17a0bc	-0.59229636
237	0x3f3ca88c	0.7369468
238	0x3d8b44d0	0.06800234
239	0xbf0af054	-0.5427296
240	0x3f093929	0.53602844
241	0x3e682530	0.22670436
242	0xbe6065cc	-0.21913832
243	0xbed92a2e	-0.42414993
244	0x3e832dbd	0.25620833
245	0xbe48bf26	-0.19604167
246	0xbedfa0a8	-0.43677258
247	0xbdfe29c9	-0.12410314
248	0x3f14d36d	0.5813511
249	0x3f293d6f	0.66109365
250	0xbef3d6b6	-0.4762475
251	0x3e658129	0.22412552
252	0xbf156718	-0.58360434
253	0x3ef08546	0.4697668
254	0x3f0ed980	0.5580063
255	0x3e8a8860	0.2705717

fc_1.bias f4 [128]
0	0xbf041cd6	-0.516065
1	0xbe5c80a8	-0.21533453
2	0x3f269504	0.6507113
3	0x3eca8a99	0.39558867
4	0x3eb3179d	0.34978953
5	0xbe863d8e	-0.26218837
6	0x3eb72a36	0.35774392
7	0x3dfeb93e	0.12437676
8	0xbe9e831d	-0.30959406
9	0x3ef4c9dd	0.4781026
10	0x3f0e4303	0.55571
11	0x3f001ed9	0.5004707
12	0x3e0a220c	0.1348955
13	0xbeef0e6c	-0.4669069
14	0xbe84b1ad	-0.25916806
15	0xbf6ffac5	-0.9374202
16	0x3f1dd1b9	0.61648136
17	0x3e9a19d5	0.30097833
18	0xbe636b5b	-0.22208922
19	0xbf13e0f2	-0.57765114
20	0x3e19c12a	0.15015092
21	0xbe61b914	-0.22043258
22	0xbedb2766	-0.42803496
23	0xbf6b87a9	-0.92003876
24	0x3f22941d	0.6350725
25	0xbe9cac9f	-0.3060045
26	0x3e8f4f4a	0.2799018
27	0x3e5f5f3f	0.21813677
28	0x3f110538	0.5664859
29	0xbe9f310a	-0.310921
30	0xbea91b9b	-0.33028874
31	0xbeaf6d53	-0.34263095
32	0xbefcfb18	-0.4941032
33	0xbe9eaf2a	-0.30993015
34	0xbf251a97	-0.644937
35	0x3f13920c	0.57644725
36	0xbe1a6a68	-0.15079653
37	0x3f2eb78a	0.6824881
38	0xbd5428a0	-0.051796556
39	0x3ea98329	0.3310788
40	0xbe3e07c0	-0.18557644
41	0x3ed9d9aa	0.42548877
42	0x3e0bf8f3	0.13669185
43	0xbf1225cb	-0.5708892
44	0xbefdd9b0	-0.49580145
45	0xbec39115	-0.38196626
46	0x3e9a520a	0.30140716
47	0x3f25effd	0.6481932
48	0xbe83c7f4	-0.2573849
49	0xbe80b7fb	-0.25140366
50	0xbdd6b080	-0.104828835
51	0x3f31cff1	0.6945792
52	0x3e989c7d	0.2980689
53	0x3e82403a	0.25439626
54	0x3f25b442	0.64728177
55	0xbbfea900	-0.007771611
56	0x3e0a72f0	0.13520408
57	0xbf205b39	-0.62639195
58	0x3e4bf2f0	0.19916892
59	0x3e7ff330	0.24995112
60	0x3ef10ad9	0.4707859
61	0xbe377718	-0.17916524
62	0x3e4363b7	0.19081007
63	0x3e6c563e	0.23079774
64	0x3ede5647	0.434252
65	0xbe915f79	-0.28393152
66	0x3eeb7d65	0.45994106
67	0xbca5313b	-0.020165076
68	0xbea726cd	-0.3264679
69	0x3f110836	0.56653154
70	0xbf2c304c	-0.67261195
71	0xbe5c02d1	-0.2148545
72	0xbf2dc7fd	-0.6788328
73	0x3f0de50b	0.55427617
74	0x3efd30eb	0.49451384
75	0xbeb0961c	-0.34489524
76	0x3e8d7b42	0.276331
77	0xbf1307ea	-0.5743395
78	0xbee9dd70	-0.45676756
79	0x3f1a62e0	0.6030712
80	0x3e6e5143	0.23273186
81	0xbecb0bb2	-0.3965736
82	0x3f0fca25	0.56167823
83	0xbd4adeb0	-0.049528778
84	0x3ef765d0	0.48319864
85	0x3e2be38f	0.16786025
86	0x3ece237f	0.40261456
87	0x3d607bd3	0.054805588
88	0xbf1a5e98	-0.6030059
89	0x3e64fe9f	0.22362755
90	0x3d22abb9	0.03971455
91	0xbe579ba6	-0.21055469
92	0xbedd3d1d	-0.43210688
93	0xbe9e0071	-0.30859712
94	0x3eb88c49	0.3604453
95	0xbec564cc	-0.38553464
96	0xbf107ffa	-0.56445277
97	0xbecd8d08	-0.4014666
98	0xbf21f17e	-0.6325911
99	0xbda98c21	-0.082786806
100	0x3ed4e14a	0.41578132
101	0xbd555290	-0.05208069
102	0xbf33a6c7	-0.7017636
103	0xbe5c45db	-0.21511023
104	0x3d87dcaa	0.06633885
105	0xbee006c2	-0.43755156
106	0xbe306f2c	-0.17229909
107	0x3d82924d	0.06375561
108	0x3f356b0a	0.70866454
109	0x3df9b1cb	0.121921144
110	0xbf14c9ea	-0.58120596
111	0xbe0ab3cc	-0.1354515
112	0xbf16d64e	-0.58920753
113	0xbef371ba	-0.47547704
114	0xbe5932be	-0.21210763
115	0x3f0cf6a8	0.5506387
116	0x3eaa8ca0	0.33310413
117	0xbf2c448f	-0.6729211
118	0x3eeebd25	0.4662868
119	0xbeffac7d	-0.49936286
120	0xbf0881f5	-0.533233
121	0xbf123de4	-0.5712569
122	0x3f077dc8	0.529263
123	0x3eb2adb0	0.34898138
124	0x3e5f2e1f	0.21794938
125	0xbd0a34a4	-0.03374161
126	0xbef637f4	-0.48089564
127	0x3f1a4ec2	0.60276425

fc.weight f4 [1, 128]
0	0x3cdc2db0	0.026877254
1	0x3e4041d9	0.18775119
2	0xbc700b21	-0.014651091
3	0x3d63a3f1	0.05557627
4	0xbd7011d5	-0.058610756
5	0xbda4b940	-0.08043146
6	0x3c9cd2e3	0.019143527
7	0xbc9cab91	-0.019124778
8	0xbd868f82	-0.06570341
9	0xbcd27fee	-0.025695767
10	0xbd8a0aeb	-0.06740364
11	0x3dd291e2	0.10281731
12	0x3de256da	0.11051722
13	0xbdae39ff	-0.085071556
14	0x3e338833	0.17532425
15	0x3fdf702f	1.7456111
16	0xbd9096f5	-0.07060043
17	0xbd35a088	-0.044342548
18	0x3d814164	0.063113004
19	0x3d846cc1	0.06466056
20	0x3dcb006c	0.0991219
21	0x3d367f82	0.044555195
22	0x3d8df219	0.06930942
23	0x3ff34775	1.9006182
24	0x3cfc7f57	0.03082244
25	0xbcdc579c	-0.026897244
26	0xbd6a8362	-0.057254203
27	0xbda4a08c	-0.080384344
28	0x3dc05e1f	0.09392952
29	0xbd6cad51	-0.057782475
30	0x3c105650	0.008809641
31	0xbd8466d8	-0.064649284
32	0x3d9e312f	0.07724225
33	0x3c57e060	0.013176054
34	0xbd731905	-0.059350032
35	0x3d0768cd	0.03305893
36	0x3da27e33	0.07934227
37	0x3db667ca	0.08906515
38	0x3c835d18	0.016035601
39	0x3da59e53	0.080868386
40	0x3ba16040	0.004924804
41	0x3d6b6de0	0.05747783
42	0xbbcce922	-0.0062533775
43	0x3fb312d5	1.3990122
44	0x3c910550	0.017702729
45	0x3db45e57	0.088070564
46	0xbd2871b5	-0.041124064
47	0x3d6822db	0.056673866
48	0x3eb34640	0.35014534
49	0x3dba9016	0.091095135
50	0x3da9399b	0.082629405
51	0x3d7ffd89	0.06249765
52	0xbd8d72f0	-0.06906688
53	0x3d86c5fe	0.06580733
54	0xbd7ae64b	-0.06125478
55	0xbd59c871	-0.05316967
56	0x3da611c3	0.081088565
57	0xbcdf8254	-0.027283825
58	0x3ec362fb	0.38161454
59	0xbd667aca	-0.056269445
60	0xbd69283a	-0.05692313
61	0xbd98af66	-0.074553296
62	0xbc8e86d3	-0.017398274
63	0x3d856f5f	0.06515383
64	0x3da67114	0.08127037
65	0x3d65932e	0.056048565
66	0x3d458613	0.048223566
67	0xbdd02ccf	-0.101647966
68	0x3edf351f	0.43595216
69	0xbd611e0c	-0.054960296
70	0x3d5fc7da	0.054633953
71	0x3e2007ae	0.1562793
72	0xbd3e39cd	-0.046441842
73	0xbcb18b77	-0.021672947
74	0x3dcf9ac2	0.101369396
75	0x3c03ca30	0.008043811
76	0x3cc6d9e1	0.024273815
77	0x3eefbb57	0.46822616
78	0x3cc7d4e8	0.024393514
79	0xbd25295e	-0.040322654
80	0xbd172426	-0.03689971
81	0xbd99fe4d	-0.07519207
82	0x3dbed9f4	0.09318915
83	0xbd961797	-0.07328718
84	0xbd0c8bba	-0.03431294
85	0xbd4ff25e	-0.05076825
86	0xbd661b88	-0.0561786
87	0x3cff66d1	0.031176956
88	0xbd95d229	-0.073154755
89	0x3e49e5c6	0.19716558
90	0x3da16354	0.078802735
91	0xbd99520a	-0.07486351
92	0xbd8114f5	-0.06302825
93	0x3e4604fe	0.19337842
94	0x3d6500f4	0.055909112
95	0xbd7f6c8b	-0.062359374
96	0x3d0a3112	0.033738203
97	0x3ea8255f	0.32841012
98	0x3c93a7c4	0.018024333
99	0xbc9a07ca	-0.018802542
100	0x3d450386	0.048099063
101	0xb976d800	-0.00023540854
102	0xbd83bad5	-0.0643212
103	0x3e16fb93	0.14744405
104	0xbdfbdfe2	-0.12298562
105	0x3d1dc20e	0.038515143
106	0xbd32ef92	-0.043685503
107	0x3d8f0fea	0.06985457
108	0x3d3ac0c9	0.04559401
109	0x3d573a3f	0.052545782
110	0xbd37188d	-0.044701148
111	0x3e08d680	0.13363075
112	0xbd93092a	-0.07179482
113	0xbd3e4978	-0.046456784
114	0xbb0e7ca0	-0.0021741763
115	0xbd41108d	-0.047134925
116	0x3d0bfe1d	0.03417789
117	0xbccf43d0	-0.02530089
118	0xbc93f01d	-0.01805883
119	0xbb8a5f50	-0.004222788
120	0x3d576c8e	0.05259376
121	0xbda752ab	-0.081700645
122	0x3dc7351e	0.09726928
123	0x3db7861e	0.08961128
124	0xbd8c4473	-0.06848993
125	0x3d22248c	0.039585635
126	0x3d859fdf	0.065246336
127	0xbd487ea8	-0.048948914
