Model/018470_1817.pth (torch, 4687 bytes, 7 tensors)

lstm.weight_ih_l0 f4 [8, 5]
0	0xbe9fe132	-0.31226498
1	0xbea2b3ea	-0.3177789
2	0x3ea9fcfa	0.33200818
3	0xbc94dd60	-0.018171966
4	0x3ec4055e	0.38285345
5	0x3f6e9497	0.9319548
6	0x3f55bf3a	0.83494914
7	0xbe78041c	-0.24220318
8	0xbe3320b0	-0.17492938
9	0x3e2dac87	0.16960345
10	0x3f038afd	0.51383954
11	0xbf26989c	-0.65076613
12	0x3ea107e6	0.3145134
13	0xbf17e80e	-0.5933846
14	0x3e95dbe4	0.29269326
15	0x3ead6b92	0.33871132
16	0xbe9020cc	-0.28150022
17	0xbe9d0497	-0.30667564
18	0xbebe7867	-0.37201235
19	0xbf12e107	-0.57374614
20	0xbece2a40	-0.4026661
21	0xbe395edc	-0.18102592
22	0x3e06dd58	0.13170373
23	0x3ecc91b6	0.3995492
24	0xbe8a5d8b	-0.27024493
25	0x3c5b7e95	0.013396879
26	0xbe6db36a	-0.23212972
27	0x3f7218ab	0.9456889
28	0x3db0651e	0.086130366
29	0x3c4a6868	0.012353994
30	0xbd8ff5f8	-0.07029337
31	0xbe440288	-0.1914159
32	0x3f229cb3	0.63520354
33	0xbecd28e6	-0.40070266
34	0xbea5c221	-0.3237467
35	0x3f2e31a1	0.6804448
36	0x3f04e6ad	0.51914483
37	0x3f26acf9	0.65107685
38	0x3e1b4aa4	0.15165192
39	0xbe24c5f5	-0.1609114

lstm.weight_hh_l0 f4 [8, 2]
0	0xbe3febd0	-0.18742299
1	0x3e842dd6	0.2581622
2	0xbdcba998	-0.09944457
3	0x3f28ba8f	0.65909666
4	0xbe9294b0	-0.28629065
5	0x3e0c8bf0	0.13725257
6	0xbe845a97	-0.25850365
7	0x3e61ccc4	0.22050768
8	0x3ea7ffe6	0.32812423
9	0x3ee3738a	0.44424087
10	0x3f0499a1	0.5179692
11	0x3eda84d2	0.4267946
12	0xbe890d28	-0.2676785
13	0x3e9a3e42	0.30125624
14	0x3f077ccb	0.52924794
15	0xbad06e00	-0.0015901923

lstm.bias_ih_l0 f4 [8]
0	0xbf168175	-0.58791286
1	0x3e19a972	0.15006045
2	0xbe1c4810	-0.15261865
3	0xbeb04cbc	-0.34433544
4	0xbf0e5ec4	-0.5561335
5	0x3f0f6c69	0.56024796
6	0xbea88257	-0.3291194
7	0x3e0cb705	0.13741691

lstm.bias_hh_l0 f4 [8]
0	0xbecb1bb7	-0.39669582
1	0x3ebf650d	0.37381783
2	0x3e868aea	0.26277858
3	0x3f0d40f7	0.55177253
4	0x3e5cc1b4	0.21558267
5	0x3f0a8f4c	0.54124904
6	0x3e492c00	0.19645691
7	0x3f8423f4	1.0323472

fc_1.weight f4 [128, 2]
0	0xbf152a35	-0.5826753
1	0x3f88fa8e	1.0701463
2	0x3e55a864	0.20865017
3	0x3e684c09	0.22685255
4	0x3e3f5f20	0.18688631
5	0xbf9211dd	-1.1411701
6	0xbeddca19	-0.4331825
7	0x3e7e9519	0.24861564
8	0x3f27be05	0.6552432
9	0xbe84670d	-0.25859872
10	0x3ed6b26e	0.41933006
11	0xbe97d98f	-0.29658172
12	0x3eb79782	0.3585778
13	0xbeb4080c	-0.3516239
14	0x3eb704f2	0.3574596
15	0x3d2b93c4	0.041888967
16	0xbecb8908	-0.39752984
17	0xbf27a0ca	-0.6547972
18	0xbeb41634	-0.3517319
19	0xbe821578	-0.25407004
20	0xbf13697d	-0.5758284
21	0x3e9b98bf	0.30389974
22	0x3f037497	0.51349777
23	0x3eb84e80	0.3599739
24	0x3e9c4a26	0.3052532
25	0x3e1cf602	0.1532822
26	0xbefc4b0b	-0.49276003
27	0xbfb52fbb	-1.4155191
28	0x3f0ffe49	0.56247383
29	0x3f5060fd	0.8139799
30	0xbf115440	-0.5676918
31	0xbda97ec9	-0.082761355
32	0xbeace16a	-0.33765727
33	0x3d263113	0.040574145
34	0xbd14b7b0	-0.03630799
35	0x3efe9401	0.49722293
36	0xbe0b8368	-0.13624346
37	0xbe926680	-0.28593826
38	0xbf1e20a4	-0.61768556
39	0xbf234bea	-0.6378771
40	0x3e8da76c	0.27666795
41	0xbf11ea50	-0.5699816
42	0xbe0ab8ac	-0.13547009
43	0x3d1f38a7	0.038872387
44	0xbf0f4044	-0.55957437
45	0x3f7faf88	0.99877214
46	0xbf19cef0	-0.60081387
47	0x3d5ccd73	0.05390687
48	0x3f023f67	0.50877994
49	0x3f2289df	0.63491625
50	0xbef2ac80	-0.47397232
51	0x3df05f28	0.117368996
52	0x3ddfe860	0.10932994
53	0xbfaf4f09	-1.3695995
54	0x3ec19c4e	0.37814564
55	0xbec94823	-0.39312848
56	0xbebe8ed5	-0.37218347
57	0xbe832960	-0.25617504
58	0xbf031c50	-0.51215076
59	0xbeee7276	-0.46571702
60	0x3d66e100	0.05636692
61	0x3f0ad4ed	0.5423115
62	0x3f12362d	0.57113916
63	0x3f497c15	0.7870496
64	0xbe5115ec	-0.20418519
65	0xbdea3a31	-0.114368804
66	0xbed6bccd	-0.4194092
67	0x3f10b05f	0.5651912
68	0x3c8ab420	0.016931593
69	0x3f325283	0.6965715
70	0xbf21e4e4	-0.63239884
71	0x3f307d03	0.6894075
72	0xbe625864	-0.22104031
73	0xbf9d8b03	-1.2308048
74	0xbf2d110d	-0.6760414
75	0x3f340fc1	0.7033654
76	0x3e173b38	0.14768684
77	0xbfb1d384	-1.3892674
78	0x3f1e35c7	0.6180081
79	0x3e446345	0.19178493
80	0x3e072fa4	0.13201767
81	0x3eec85f6	0.46195954
82	0x3eac458e	0.33646816
83	0xbf333bb0	-0.7001295
84	0x3f2b9047	0.67017025
85	0xbe3e881c	-0.18606609
86	0xbf344051	-0.7041064
87	0x3f2394b7	0.63898796
88	0x3ef8e722	0.4861384
89	0xbead2253	-0.3381525
90	0x3e236534	0.15956575
91	0x3f6fed06	0.93721044
92	0x3eaff6aa	0.34367877
93	0xbec4d49e	-0.38443464
94	0xbf2d6c9b	-0.67743844
95	0xbd6e9e81	-0.05825663
96	0x3e11bd74	0.14232427
97	0x3d8389a0	0.06422734
98	0x3dce0a88	0.100606024
99	0x3f68bac0	0.9090996
100	0x3eae5012	0.34045464
101	0xbe6600a6	-0.22461185
102	0x3cd4d6a0	0.025981247
103	0x3ecd767a	0.40129453
104	0x3e33b020	0.17547655
105	0xbf06f55d	-0.52718145
106	0xbf0ac5f8	-0.54208326
107	0x3e5c0d4c	0.21489447
108	0xbf223369	-0.63359696
109	0x3e1f87dc	0.1557917
110	0x3f27d5b9	0.6556049
111	0xbd620b90	-0.055186808
112	0xbe3d1570	-0.18465209
113	0xbf28e572	-0.65975106
114	0x3ea4573a	0.320978
115	0x3db9b8ca	0.09068449
116	0x3e8f63de	0.2800588
117	0x3e9495a4	0.29020417
118	0x3dafc598	0.0858261
119	0xbc3c4a00	-0.011492252
120	0x3d07d8b0	0.033165634
121	0xbb9f0a80	-0.0048535466
122	0x3d571c70	0.052517354
123	0xbe54d300	-0.20783615
124	0xbef8be5c	-0.48582733
125	0xbdf8cf88	-0.121489584
126	0xbe8c6015	-0.27417055
127	0xbd7caca0	-0.061688066
128	0x3ed4fd6e	0.41599602
129	0x3ecf29b2	0.40461498
130	0xbe540818	-0.20706213
131	0x3dfe877c	0.12428185
132	0x3caaa0e0	0.020828664
133	0xbe935f3f	-0.28783605
134	0xbefbbb7a	-0.4916647
135	0xbf2ac7c4	-0.6671107
136	0x3cacdce0	0.021101415
137	0xbcae2d70	-0.0212619
138	0x3f1f0971	0.6212378
139	0xbe96ba76	-0.29439133
140	0x3d93eab0	0.072224975
141	0xbdff2aa8	-0.12459308
142	0xbd384400	-0.044986725
143	0x3f2c9f61	0.6743069
144	0xbc94ecc0	-0.018179297
145	0xbf5daa5d	-0.8658808
146	0x3f0d719b	0.55251473
147	0x3d0bd318	0.03413686
148	0x3e4bbbb0	0.19895816
149	0xbf0b8469	-0.54498917
150	0x3d962228	0.073307335
151	0x3ea291fe	0.31752008
152	0xbe05edc0	-0.13078976
153	0x3e958b93	0.2920805
154	0x3d00b890	0.031426013
155	0x3f3c5d65	0.7358001
156	0x3e7398d4	0.23788768
157	0x3ecf9e5c	0.40550506
158	0x3cffcd80	0.03122592
159	0x3f0bc428	0.54596186
160	0x3f23af47	0.63939327
161	0x3ee2b7d1	0.44280866
162	0xbe57c570	-0.2107141
163	0x3f2a85a2	0.6661016
164	0xbe9d5d93	-0.30735454
165	0xbed08021	-0.40722755
166	0xbd9ede88	-0.07757288
167	0xbdc81b9a	-0.097708896
168	0x3f0820c5	0.53175
169	0xbe3f7f74	-0.18700963
170	0xbdfc4210	-0.12317288
171	0xbed09667	-0.40739748
172	0xbe64d020	-0.22345018
173	0x3f34492e	0.70424163
174	0x3efc36c6	0.4926054
175	0xbefdfebe	-0.49608415
176	0x3e802646	0.250292
177	0x3f667e48	0.9003644
178	0x3d4bd8f0	0.049767435
179	0xbfa0d89f	-1.2566108
180	0xbe827e2d	-0.2548689
181	0x3d2fc384	0.042911068
182	0x3f25ad51	0.64717585
183	0xbeb6812c	-0.35645425
184	0x3e9e1166	0.3087265
185	0xbec20d8b	-0.37900957
186	0xbeb3c7d5	-0.35113397
187	0xbf06e998	-0.52700186
188	0xbee97321	-0.4559565
189	0xbebdd058	-0.37073016
190	0x3f052abb	0.52018327
191	0x3f1eb1a9	0.6198984
192	0x3ee2684a	0.4422019
193	0xbe9bd03e	-0.30432314
194	0x3f14f87b	0.5819165
195	0xbe15320c	-0.14569873
196	0xbb174000	-0.0023078918
197	0xbef94fb0	-0.4869361
198	0x3ea685c6	0.32523936
199	0x3f0a1553	0.5393879
200	0x3e794d00	0.2434578
201	0x3f466830	0.7750273
202	0x3f313413	0.69220084
203	0xbfacd77f	-1.3503264
204	0xbd26b720	-0.040701985
205	0x3f86f9ff	1.0545043
206	0xbe888148	-0.26661134
207	0x3f3b90ae	0.7326764
208	0x3f12c375	0.57329494
209	0xbe748de6	-0.23882255
210	0xbe9ad97a	-0.30244046
211	0xbed5b255	-0.4173762
212	0x3caaea80	0.020863771
213	0xbe8f9da7	-0.28049967
214	0xbf1843c3	-0.59478396
215	0xbf773bad	-0.96575433
216	0x3eb45f9a	0.35229188
217	0xbcc39c61	-0.023878278
218	0x3f082f33	0.5319702
219	0xbd82fc07	-0.06395727
220	0xbebfaf0e	-0.37438244
221	0x3f34c1d5	0.70608264
222	0xbe313810	-0.17306542
223	0x3e8debd3	0.27718982
224	0x3ea098fa	0.31366712
225	0xbf04b252	-0.51834595
226	0xbf0feeee	-0.5622395
227	0xbf0303c4	-0.5117762
228	0x3f077677	0.5291514
229	0x3e4a2876	0.19741997
230	0xbefa1712	-0.48845726
231	0xbd8ba0a8	-0.06817752
232	0xbea00f12	-0.31261498
233	0xbe45e6d1	-0.1932633
234	0xbf274420	-0.65338326
235	0xbf10a949	-0.5650831
236	0x3e563b5c	0.20921081
237	0xbe7cd248	-0.24689591
238	0xbdce6258	-0.10077351
239	0x3e5edd78	0.21764171
240	0xbe69e370	-0.22840667
241	0x3f2d8c17	0.67791885
242	0x3efb49de	0.49079794
243	0xbed5d6e1	-0.41765502
244	0xbeebaca6	-0.46030158
245	0x3ed84671	0.42241243
246	0x3f01d08f	0.5070886
247	0x3d20d360	0.039264083
248	0x3dfbdce0	0.12297988
249	0x3eda8794	0.42681563
250	0xbefa2958	-0.48859668
251	0x3f5b8ccb	0.8576171
252	0xbeeb17a0	-0.45916462
253	0xbf157628	-0.5838342
254	0x3ee16dee	0.44029182
255	0xbec81968	-0.39081883

fc_1.bias f4 [128]
0	0x3a373d52	0.00069900334
1	0x3db3389e	0.08751033
2	0x3c5c7403	0.013455394
3	0x3f315c88	0.69281816
4	0x3dfe5983	0.12419417
5	0x3f0d160c	0.55111766
6	0x3eab9b21	0.3351679
7	0x3eecd881	0.4625893
8	0xbe8030b1	-0.2503715
9	0xbf146518	-0.57966757
10	0x3efa0039	0.48828295
11	0x3f2a85e6	0.6661056
12	0x3ea3aa31	0.31965783
13	0x3d9a36f2	0.07530011
14	0xbb7425ee	-0.0037254053
15	0x3e1e1c37	0.1544045
16	0x3e69f883	0.22848706
17	0xbe7917ae	-0.2432544
18	0x3ed4e204	0.41578686
19	0x3ebfe89f	0.37482163
20	0xbe956184	-0.2917596
21	0xbd18c016	-0.037292562
22	0xbb7716e2	-0.0037702848
23	0x3ec61ee0	0.3869543
24	0xbeb2e5d0	-0.34940958
25	0xbe8bf117	-0.27332374
26	0x3c63a649	0.013894626
27	0x3f1acb50	0.6046648
28	0x3efe65b8	0.4968698
29	0xbf0f32e5	-0.55937034
30	0xbeaa0a68	-0.33211064
31	0x3e468d01	0.19389726
32	0x3f1a210e	0.6020669
33	0xbeec8870	-0.46197844
34	0x3f17e169	0.59328324
35	0xbef42371	-0.4768329
36	0x3e0e29a5	0.13883074
37	0xbf14d369	-0.58135086
38	0x3cfa123e	0.030526277
39	0x3d91d7fc	0.07121274
40	0x3f1410c5	0.5783809
41	0xbe8b8e2c	-0.27256906
42	0xbeec898e	-0.46198696
43	0xbbe96e3e	-0.0071237376
44	0xbf0ad704	-0.5423434
45	0x3e94718c	0.2899288
46	0xbf13342e	-0.57501495
47	0x3f1ce463	0.6128599
48	0xbea0e525	-0.31424823
49	0x39efb732	0.00045722123
50	0xbf24bba3	-0.6434881
51	0xbf19d651	-0.60092646
52	0x3ec8e703	0.39238748
53	0xbeee9002	-0.46594244
54	0xbef08d47	-0.46982786
55	0xbee4cbf1	-0.44686845
56	0xbf167b7f	-0.5878219
57	0x3f3018ea	0.68788016
58	0xbeb9f53c	-0.3631991
59	0xbf1c36f0	-0.6102133
60	0xbeb8df44	-0.36107838
61	0xbe9a8e5c	-0.30186737
62	0x3f1c7a71	0.6112433
63	0xbd658d10	-0.05604273
64	0xbf04401a	-0.5166031
65	0x3ea3ae68	0.31969
66	0x3eee40ac	0.46533716
67	0xbe477998	-0.19479978
68	0x3e00211b	0.12512629
69	0xbe79460c	-0.24343127
70	0xbe71c1c8	-0.23609078
71	0xbf1beeab	-0.60911053
72	0x3f24ff39	0.6445194
73	0x3e9ea30c	0.3098377
74	0xbeb04d09	-0.34433773
75	0xbebe2300	-0.37136078
76	0x3e75aca1	0.23991634
77	0x3a41a11d	0.00073863735
78	0x3e99343e	0.2992267
79	0x3f201981	0.62538916
80	0x3f021b85	0.5082324
81	0xbeec1ee5	-0.4611732
82	0x3dba5ec7	0.091001086
83	0x3f0312de	0.51200664
84	0xbe86b2b9	-0.2630823
85	0x3e9b43c0	0.30325127
86	0xbbdc3040	-0.006719619
87	0xbe8c39c4	-0.27387822
88	0xbf1f7da1	-0.6230107
89	0x3ce22918	0.027607486
90	0x3e38b3e2	0.1803737
91	0xbed73384	-0.4203149
92	0x3ee110b7	0.43958065
93	0xbefed943	-0.49775133
94	0xbf0dacdc	-0.5534189
95	0x3f0eccba	0.5578114
96	0x3e36f98d	0.17868634
97	0xbca24300	-0.019807339
98	0x3eb992d0	0.36244822
99	0xbefa1d45	-0.48850456
100	0x3f0fad36	0.56123674
101	0x3c82869a	0.015933324
102	0x3e8b71ab	0.2723516
103	0x3ed106d2	0.40825516
104	0x3e295292	0.16535404
105	0xbf31a3b4	-0.69390416
106	0xbea7ee86	-0.32799166
107	0x3f114c9d	0.5675753
108	0x3e52c69a	0.20583573
109	0xba9e6cce	-0.001208687
110	0xbf16d100	-0.5891266
111	0x3ed75e83	0.42064294
112	0xbe0eabc4	-0.13932711
113	0xbea3fd07	-0.32028982
114	0x3c810e3d	0.01575386
115	0xbec1b755	-0.37835184
116	0x3f2c6979	0.6734844
117	0xbdee3230	-0.11630666
118	0xbf14f746	-0.5818981
119	0xbe2918c4	-0.16513354
120	0xbf2614dc	-0.6487558
121	0xbef6d67a	-0.48210508
122	0xbe89f42a	-0.26944095
123	0xbee150f1	-0.44007066
124	0x3e90651d	0.28202143
125	0x3d97477c	0.073866814
126	0xbd0f6e30	-0.035017192
127	0x3f006a3c	0.501621

fc.weight f4 [1, 128]
0	0x3eae598c	0.34052694
1	0xbcb6f3ed	-0.02233311
2	0xbeeada06	-0.45869464
3	0xbda559a0	-0.08073735
4	0xbd812806	-0.06306462
5	0xbda7e9f8	-0.08198923
6	0xbdb18f71	-0.086699374
7	0xbd69a9a8	-0.057046562
8	0x3d8b1cf7	0.06792634
9	0x3d717892	0.058952875
10	0x3d966fa2	0.07345511
11	0x3d8cff50	0.068846345
12	0xbd1c3781	-0.03813887
13	0xbeb1d944	-0.34736073
14	0xbf0b84e7	-0.5449967
15	0xbd6c0d38	-0.057629794
16	0xbd72aba9	-0.05924574
17	0x3eaaa92d	0.33332196
18	0xbd788e91	-0.060682837
19	0xbd51bb58	-0.051204056
20	0x3d67627a	0.0564904
21	0x3cfc0d44	0.030768044
22	0xbec9ad16	-0.39389867
23	0xbd97bd90	-0.07409203
24	0x3e42c721	0.19021274
25	0x3d989b61	0.07451511
26	0xbe82821c	-0.2548989
27	0xbc943436	-0.018091302
28	0xbb016b4f	-0.0019747799
29	0xbd7c4892	-0.061592646
30	0x3f119863	0.5687315
31	0x3ddb8903	0.10719492
32	0x3d9bedb5	0.076136984
33	0x3b3c3340	0.002871707
34	0x3d0f3abd	0.034968127
35	0x3f2fccc1	0.68671805
36	0xbe3fa767	-0.18716203
37	0xbd1858b5	-0.037193973
38	0xbe6f4d54	-0.23369342
39	0x3c601237	0.013676218
40	0xbd72bc93	-0.05926187
41	0xbd56ca0c	-0.05243878
42	0x3d1ad8f2	0.03780455
43	0xbf0a11d1	-0.53933436
44	0xbdb24e1a	-0.08706303
45	0x3de03c5c	0.10949013
46	0xbc7c8280	-0.015411973
47	0x3d98ab28	0.074545205
48	0x3d8bb90f	0.068224065
49	0x3e68f1ce	0.22748491
50	0xba85a540	-0.0010196343
51	0xbb58f000	-0.0033102036
52	0xbd4ab970	-0.049493253
53	0xbd647300	-0.055773735
54	0x3c4ae058	0.012382589
55	0xbc4992a0	-0.0123030245
56	0xbd833b39	-0.0640778
57	0x3c4dbf30	0.01255779
58	0xbdb27be6	-0.08715038
59	0xbc883b98	-0.016629979
60	0xbb71ca80	-0.003689438
61	0x3d059702	0.032614715
62	0x3d314f4c	0.043288514
63	0xbd6e702a	-0.058212437
64	0x3d9a8f5f	0.07546877
65	0xbc8fcc0f	-0.017553357
66	0xbd9c9366	-0.076453015
67	0x3cadda94	0.02122239
68	0xbcdd1d42	-0.02699149
69	0x3bbb75b0	0.0057208166
70	0xbd418fb3	-0.047256183
71	0x3d4a0786	0.04932358
72	0xbd961b62	-0.073294416
73	0x3d996ad3	0.07491078
74	0xbd024492	-0.031803675
75	0xbc9c6068	-0.019088939
76	0x3c089577	0.008336416
77	0x3eea75dc	0.45793045
78	0x3c001fb2	0.007820057
79	0x3db0d4b3	0.08634319
80	0x3d1d4b03	0.038401615
81	0x3f5c9393	0.8616268
82	0xbdb55832	-0.088547125
83	0x3c6469a2	0.0139412
84	0x3ce523e4	0.027971216
85	0xbdc22a28	-0.09480697
86	0xbef3bb1c	-0.4760369
87	0xbdb1aa70	-0.086750865
88	0x3f809c95	1.0047785
89	0xbe3c079c	-0.18362278
90	0xbd2abb18	-0.041682333
91	0x3cb9c8a4	0.02267868
92	0x3b3e37fb	0.0029025066
93	0xbc1e4888	-0.0096608475
94	0x3c2380b0	0.009979412
95	0x3d52ba03	0.051446926
96	0xbd33e764	-0.043921843
97	0xbcb33c88	-0.02187945
98	0xbd90fcef	-0.07079493
99	0x3c41d688	0.011830933
100	0x3dbe8396	0.09302442
101	0xbd90d69d	-0.07072184
102	0x3d74fab7	0.059809413
103	0x3d17c31c	0.037051305
104	0x3c55030f	0.0130012175
105	0xbade6e80	-0.0016970187
106	0xbc937b04	-0.018002994
107	0xbd195f1e	-0.037444226
108	0xbd20b8e6	-0.039238833
109	0x3d22dd23	0.039761674
110	0x3dadc209	0.08484275
111	0x3d3c4b80	0.04597044
112	0x3d9fd6e5	0.0780466
113	0x3d5eff5a	0.05444274
114	0x3d46bb3b	0.0485184
115	0x3d32fd0e	0.043698363
116	0x3cb4f20b	0.022088071
117	0x3db08215	0.08618561
118	0xbd77f926	-0.06054034
119	0xbdb1be06	-0.08678822
120	0x3a8c5980	0.0010707825
121	0x3d44dd86	0.048062824
122	0x3e582670	0.21108413
123	0x3cc1f334	0.023675539
124	0x3d808321	0.06275011
125	0x3e516101	0.2044716
126	0x3d9d4953	0.07680001
127	0x3b682355	0.003542145
