Model/025860_6553.pth (torch, 4687 bytes, 7 tensors)

lstm.weight_ih_l0 f4 [8, 5]
000000 f1 d3 ec 3d fb 85 5c 3d 70 92 22 3c 62 d4 91 bc
       0.11563862 0.05383871 0.009922609 -0.017801467
000010 61 15 ac be 5b f0 a7 be bd 64 7f 3e 9f 93 51 3f
       -0.3361006 -0.32800564 0.24940772 0.81865877
000020 07 ba b1 be 9c 4f 92 3e 4b f3 01 3f 61 96 01 bf
       -0.3471224 0.28576362 0.5076186 -0.50620085
000030 3c a3 0b bf c3 25 25 3f 80 48 8b be 40 f5 64 bc
       -0.5454595 0.64510745 -0.2720375 -0.013974488
000040 a0 bf 74 be 78 04 b4 be ac 9c 18 be df f4 d8 be
       -0.23901224 -0.3515966 -0.14903516 -0.42374322
000050 37 a9 a2 3e 0e b6 d9 3e e3 c5 fc bd 34 d3 03 3e
       0.31769726 0.4252171 -0.123424314 0.12873536
000060 c2 cb 25 bc c9 50 a8 bc ec 95 50 be 44 75 11 3f
       -0.01011938 -0.020546334 -0.2036969 0.5681956
000070 f8 cd 23 bd bf 57 62 3e 9b 94 fb 3e db d5 31 3e
       -0.03999135 0.22103785 0.49136814 0.17366736
000080 95 96 cc bb 1b 6f 2c 3f 2a 90 ae 3e 5e 7e 0a be
       -0.0062435367 0.67357033 0.34094363 -0.13524768
000090 e1 22 8a be 65 65 35 3f 48 28 65 3f 5d 5b 0a ba
       -0.26979735 0.7085784 0.8951459 -0.00052778964

lstm.weight_hh_l0 f4 [8, 2]
000000 88 ed 51 3e 2a 6b 9e 3e 46 26 99 3e 5d 7a 93 be
       0.20500767 0.30941135 0.29912013 -0.28804293
000010 00 72 07 3b a0 77 b8 3d 24 c3 82 3e c0 ec 19 bd
       0.0020667315 0.09007192 0.25539505 -0.037579298
000020 2e 20 a8 3e f8 b9 0f be e6 69 c0 be 50 40 08 bf
       0.3283705 -0.14035785 -0.37580794 -0.53223133
000030 f0 cc 02 3e d9 be 34 bf a8 ac d3 bd 82 01 cb 3e
       0.1277349 -0.7060371 -0.10335666 0.39649588

lstm.bias_ih_l0 f4 [8]
000000 fa 29 7c 3e cc 0f 0b bf 92 68 f3 be a6 31 b4 3e
       0.24625388 -0.5432098 -0.47540718 0.3519413
000010 b3 54 21 3f f9 30 88 bd 8a e6 09 3f 32 e7 fc 3d
       0.63019866 -0.06649966 0.538674 0.123487845

lstm.bias_hh_l0 f4 [8]
000000 d2 bb b2 be c6 67 2b be 00 f5 89 be 70 33 35 bd
       -0.3490892 -0.16738805 -0.26944733 -0.044238508
000010 fc 19 00 3f 57 42 47 3e c9 82 a0 3e 2d 42 16 bf
       0.5003965 0.194589 0.3134978 -0.58694726

fc_1.weight f4 [128, 2]
000000 3c 49 93 be de 4b 2e 3e ed 3c 2e 3f d4 cd 2d 3f
       -0.2876681 0.17021129 0.68061715 0.67892194
000010 ce f9 cb 3e 80 5f fb bb 27 d6 3e 3f e7 00 c8 be
       0.39839023 -0.0076712966 0.7454552 -0.39063188
000020 eb d4 09 3f 8c 4f 94 be 18 a6 12 3e e2 85 d7 3e
       0.5384051 -0.2896694 0.14321172 0.42094332
000030 58 cf d0 be 07 a5 0c 3f bc 5f 9f 3d 90 cc b0 3e
       -0.4078319 0.5493931 0.07781932 0.3453107
000040 e6 34 ba bc 78 c0 df 3e f6 65 f7 3e 24 54 5f 3e
       -0.022730302 0.4370153 0.48319978 0.21809441
000050 2e d4 14 3f 16 13 b1 3e 50 57 76 3d 70 c7 7f 3e
       0.5813626 0.34584874 0.06014186 0.24978423
000060 71 49 1b 3f 47 84 0f bd 1b 28 a3 bd 98 3a 5a 3c
       0.6065894 -0.03503826 -0.07966634 0.013319634
000070 ab 3f ba 3e 27 fe 2c 3f ec 31 5a 3e cb 8e 19 bf
       0.363767 0.67575306 0.21308106 -0.5998351
000080 16 96 20 3f 73 2b 18 3f 05 5f e7 be e6 b3 6b be
       0.6272901 0.594413 -0.45189682 -0.23017845
000090 00 48 69 bd 77 7b 23 3f 7a 6d d8 bc 4d f3 c5 3e
       -0.05695343 0.6386027 -0.02641939 0.38662186
0000a0 2b dd 2d bf 68 83 a8 bd ea b9 f3 3e 18 7e 87 3d
       -0.679156 -0.08228189 0.4760278 0.06615847
0000b0 01 0e 9a 3e d7 99 c7 3e 88 45 26 3e bc 8f 18 3e
       0.3008881 0.38984558 0.16237462 0.1489858
0000c0 e8 b9 17 bf 98 2c 8b 3d 69 fd 17 bd ce 09 a8 be
       -0.59268045 0.06795615 -0.037106905 -0.3281998
0000d0 47 a5 fd 3e f7 43 12 3f 46 79 21 be 7b c9 da 3e
       0.4954016 0.57134956 -0.15768918 0.42731842
0000e0 4c 7c 0b be 81 16 2c bf e7 df 61 3d 1f ee b8 3e
       -0.13621634 -0.6722184 0.05514517 0.36119172
0000f0 a0 73 c8 bd cc d0 24 3d c6 f9 33 bf 70 75 0d be
       -0.09787679 0.040238187 -0.70303 -0.1381433
000100 ed 59 2a 3f ac d8 0d 3e 0b 6a 25 3f 31 21 3b 3f
       0.66543466 0.13852185 0.64614934 0.7309752
000110 3c 60 91 3e 1d ba 01 3f be 87 af 3e f8 39 8d 3e
       0.28393734 0.5067461 0.3428325 0.2758329
000120 80 00 d6 be 57 b9 95 be 07 d5 d2 be 40 9f 88 3e
       -0.41797256 -0.29242966 -0.41178152 0.26683998
000130 aa 1a 11 bf 87 e9 ef 3e 71 ba e6 be e8 46 c5 3d
       -0.5668131 0.46857855 -0.45064119 0.09632665
000140 6a f2 a2 3e 00 65 db bb 1e 7c 21 bf 65 8c 0d 3d
       0.31825572 -0.0066953897 -0.6308001 0.03455772
000150 3f eb f4 be a9 85 51 be 30 23 0b bd 60 ac e9 bc
       -0.4783573 -0.20461144 -0.033969104 -0.028524578
000160 3b 23 db 3e 55 d0 31 3b 77 db 29 3f 0b a9 1a 3f
       0.42800316 0.0027132232 0.663505 0.6041419
000170 70 a7 63 3e b6 42 d2 3e 71 dd be be 6a ab 04 bf
       0.22231841 0.4106652 -0.3727832 -0.5182406
000180 8c 8a 3a 3f e0 9c 10 3f 8a e6 b9 be 5e ff 1a bf
       0.72867656 0.5648937 -0.363087 -0.6054591
000190 70 39 8b 3d 72 e7 ab 3e e2 97 fb 3e a4 f9 03 3f
       0.06798065 0.33575016 0.49139315 0.51552796
0001a0 10 06 a1 bd 35 47 b9 be 6b 04 22 3f cc 08 17 bf
       -0.078624845 -0.3618714 0.6328799 -0.589978
0001b0 f8 d7 f4 bd 6b 4d 01 bf a5 49 8a 3e 35 29 f2 be
       -0.11955255 -0.50508755 0.2700931 -0.47297063
0001c0 48 76 d6 3d 4c 1a bf be 27 76 28 3f 20 b6 3c be
       0.10471779 -0.3732475 0.65805286 -0.1842885
0001d0 a4 01 0f bf 5f 03 13 bf 79 42 18 bf 63 b8 be be
       -0.5586188 -0.5742702 -0.5947643 -0.3725005
0001e0 60 42 ab bd 67 00 da be 04 27 06 bf e6 60 3c 3f
       -0.083622694 -0.42578432 -0.52403283 0.73585355
0001f0 80 4b b4 bc b6 3c 9e 3e 42 3c 89 bc 44 0d d0 be
       -0.022008657 0.30905694 -0.016752366 -0.4063512
000200 ba d3 aa be ac 15 22 bf 14 28 f6 be ce 9b cf be
       -0.3336466 -0.6331432 -0.48077452 -0.40548557
000210 20 3d 49 bd 60 e3 89 3d 80 54 4e be 92 0e d8 3e
       -0.04913056 0.067328215 -0.20149422 0.42198616
000220 16 7a c4 be b6 48 0b bf 0f 5c 15 3e d9 a8 e6 3e
       -0.38374394 -0.54407823 0.14585899 0.45050696
000230 39 8a 3e 3f d8 41 d6 3e 51 5f ec 3e 2f 59 e5 3d
       0.7442966 0.4184711 0.4616647 0.11198651
000240 af 41 8a bd 30 e6 e8 be 52 6a 28 bd df 98 5a bf
       -0.067508094 -0.4548812 -0.04111702 -0.8538951
000250 2d 34 17 3f 5a d7 7d be d0 1e 0e 3e 22 40 99 3e
       0.5906399 -0.24789181 0.13878942 0.29931742
000260 7f 69 1a 3f f5 14 c0 be 9d 0b b4 be d3 bb 71 be
       0.60317224 -0.3751599 -0.3516511 -0.23606806
000270 46 0c f2 be c7 25 86 be bf 46 e6 bd be 91 11 be
       -0.4727499 -0.26200697 -0.112439625 -0.14215752
000280 d2 3c 8f 3e 65 a4 d2 be b2 9b f0 3e 67 e7 ee be
       0.2797609 -0.41141048 0.46993786 -0.4666092
000290 e0 ca 5e 3e 60 a4 ca 3c 9a 22 b1 3e 10 2d 0a 3f
       0.21757078 0.024736583 0.3459671 0.5397501
0002a0 c7 93 03 bf 27 cd 2c 3f 42 03 db be 12 e8 85 3e
       -0.51397365 0.6750054 -0.42775923 0.26153618
0002b0 42 a8 1f 3f 0c d9 29 bf 69 a2 a6 be a4 8c b5 be
       0.62366116 -0.6634681 -0.32545784 -0.35458863
0002c0 d4 7f 83 be 36 bc de 3e 2c 9c 19 be fa 6a 63 be
       -0.25683463 0.4350297 -0.15000981 -0.22208777
0002d0 78 cb 62 3f 71 30 42 be 4f 21 24 bf 22 37 94 3d
       0.8859172 -0.18963791 -0.64113325 0.07237078
0002e0 5f f0 b4 3e 4e 17 2d 3f 00 a6 64 3c 36 90 f7 3e
       0.3533964 0.67613685 0.013955593 0.48352212
0002f0 10 f8 26 bd e4 0e 14 be 41 68 97 3d 0a f9 20 be
       -0.040763915 -0.14458805 0.07392932 -0.15720001
000300 29 d8 44 bf 29 7c eb bd 94 33 18 3f b1 36 9f 3d
       -0.76892334 -0.11498291 0.594537 0.077741034
000310 6f ff 44 bd 6b fb d1 be c8 f3 bf 3d bd 63 8e 3e
       -0.048095163 -0.4101213 0.093726695 0.2781047
000320 ba c1 f6 be 0c 49 04 bf 6f 28 f7 3e 53 10 2f 3f
       -0.48194677 -0.5167396 0.48273036 0.68384284
000330 91 16 87 be d1 e2 3a 3f 49 0c e3 3e e0 74 c7 bd
       -0.26384404 0.73002344 0.4434531 -0.09739089
000340 0a 41 44 bf 11 db b8 be 2d 18 b2 be c7 a5 82 3d
       -0.7666174 -0.36104634 -0.3478407 0.06379276
000350 47 22 94 be 9a 08 fd bd 23 ed 1a bf 34 16 ee 3c
       -0.28932402 -0.12355156 -0.6051809 0.029063322
000360 c3 af 4a 3f 83 f9 e4 3e 87 a3 29 3f 90 56 10 3d
       0.7917444 0.44721612 0.6626515 0.035238802
000370 8a c2 2e bf 14 e4 1a be 90 2c 36 3e d4 3b 26 bf
       -0.68265593 -0.15126067 0.17790437 -0.6493504
000380 c0 ef ce 3c 4c b6 a7 be d8 18 92 be 78 1d 58 3e
       0.025260806 -0.3275627 -0.2853458 0.21104991
000390 1c b4 37 3e f8 a4 3e be a9 6e 89 be 85 1d ed be
       0.179398 -0.18617618 -0.2684224 -0.46311584
0003a0 ef 94 e4 bd fe 62 e5 3e 3c d7 66 bd ee d3 1a 3f
       -0.11161219 0.44802088 -0.056357607 0.6047963
0003b0 85 12 b0 3e c2 e9 8e 3e 3f 9f 69 be 8a 66 f2 bd
       0.3438913 0.27912718 -0.22814654 -0.11835964
0003c0 58 1b 15 3e ad 35 0a 3f 3c 54 35 3e 34 6d 49 be
       0.14561212 0.5398815 0.17707914 -0.19670564
0003d0 a6 f9 0b 3e df 81 3d 3e 68 14 a8 bf ff e3 09 be
       0.13669452 0.18506573 -1.3131227 -0.1346588
0003e0 e1 63 13 3f 42 fa f1 be 96 54 41 bf 95 24 48 3f
       0.5757428 -0.47261244 -0.7551969 0.7818082
0003f0 19 40 10 3f 1a dd 85 3e b8 31 68 3e d1 91 d0 3e
       0.56347805 0.2614525 0.22675216 0.4073625

fc_1.bias f4 [128]
000000 8f 11 c0 3e f1 51 ec 3e 34 05 33 bf 5a af c6 3e
       0.37513396 0.46156266 -0.69929814 0.38805658
000010 2d ba 2a bf ce ed 2a 3f bb 50 da 3d 21 28 60 3e
       -0.6669033 0.6676911 0.10659929 0.21890308
000020 d8 cf 9f be c7 00 19 bf 7d 94 ae 3e b0 c1 0c bf
       -0.3121326 -0.5976681 0.34097663 -0.54983044
000030 91 a9 5d 3e e7 30 b8 3e 79 9d 6a be 23 ef a6 be
       0.21646716 0.3597481 -0.22911634 -0.32604322
000040 aa 21 d7 3b 47 00 f6 be 48 7f 27 bf 4e 3f c2 3e
       0.0065652924 -0.48047087 -0.6542859 0.37938923
000050 14 40 43 be c2 8d bc be 19 61 22 3f fc e8 fc be
       -0.19067413 -0.36826903 0.6342941 -0.49396503
000060 d9 95 be be 8e 25 10 3f e4 e5 2c 3c fb 6f ee 3e
       -0.372237 0.56307304 0.010552857 0.4656981
000070 38 5d f2 bd 8f 74 0a 3f e9 3f 31 3f f0 33 7b bd
       -0.11834186 0.54084104 0.69238144 -0.06132883
000080 f7 71 2d bf 56 dc a1 bb 24 18 3b bd e0 30 24 bf
       -0.6775202 -0.004939596 -0.04567732 -0.6413708
000090 c7 66 2e bf bc f8 f4 be c6 11 88 3e a1 e7 8a 3e
       -0.68125576 -0.4784602 0.2657606 0.27129844
0000a0 14 e7 66 be 11 e2 0b 3f dc 6c 75 3e 20 eb 3b bd
       -0.22549087 0.54641825 0.23967308 -0.04587853
0000b0 82 c9 2b 3f 4c 51 fa be 56 e4 11 bf 44 0c 07 be
       0.6710435 -0.4889015 -0.5698904 -0.13188273
0000c0 a6 9f 90 3e 2a c3 30 bf a8 a1 fb be c2 fd 0f 3f
       0.28246802 -0.69047797 -0.4914677 0.5624658
0000d0 78 9b 54 be b8 6b 0b bf b8 26 06 bf 1d a5 e6 3e
       -0.20762432 -0.5446124 -0.5240283 0.45047846
0000e0 a3 8e c6 be 1b 62 13 bf ca a3 f1 be 4c f7 30 3e
       -0.38780698 -0.5757157 -0.47195274 0.17281836
0000f0 a8 25 16 be c3 8d 87 bc df 2d 9a be 27 73 d8 3e
       -0.14662802 -0.01654709 -0.30113122 0.42275354
000100 0c 3e 04 bf a3 ad 8e 3e 10 8f 31 be 14 ab 26 bf
       -0.51657176 0.2786685 -0.1733973 -0.65104795
000110 e2 93 9a be a7 38 14 3e 4b ae 8c 3e 4e cf 57 3e
       -0.3019095 0.14474736 0.27476725 0.21075174
000120 8f 77 b7 3e de e4 80 3d 5b 44 96 3e 78 54 25 bf
       0.35833403 0.06293653 0.29349026 -0.64582014
000130 33 47 da be 63 80 08 3f 40 9a 32 bc 2a d3 c2 3e
       -0.42632446 0.533209 -0.010901034 0.3805173
000140 86 15 b8 3e 2b 3d 9a 3e 7d 99 8f be 4e fe ae bb
       0.3595392 0.30124792 -0.2804679 -0.005340374
000150 76 b4 2f bf 11 98 92 be 15 2b a0 be dc 7b f1 3d
       -0.68634737 -0.28631642 -0.3128287 0.117912024
000160 5e 44 d5 be 0e eb 2d bf db ea a2 be aa 74 9b 3e
       -0.41653723 -0.6793679 -0.31819806 0.30362445
000170 0e d9 06 3e 20 38 04 bf 63 54 a2 be 0c 31 71 3e
       0.13168737 -0.5164814 -0.31705007 0.23553866
000180 6c 73 8b 3e ad 38 8c 3e 72 1e 82 3e 76 6a f7 3c
       0.27236497 0.2738699 0.25413853 0.030202132
000190 65 f7 22 bf 8a 0d 58 bd 0d c1 25 3f 11 b7 af 3e
       -0.63658744 -0.052747287 0.647477 0.34319356
0001a0 0e 17 1c 3f 0e fa 22 3f d0 bd 4c 3d 3e 3e 2b 3f
       0.6097268 0.63662803 0.049985707 0.6689185
0001b0 b3 83 0d 3f cc 44 f0 be 38 f7 28 bf ad 77 12 3f
       0.5527908 -0.46927488 -0.66002226 0.5721386
0001c0 60 90 31 bf 1e 2c 0e bf 52 77 98 be 06 9a d2 3e
       -0.69360924 -0.5553607 -0.29778534 0.41133136
0001d0 e3 a4 28 3f 67 ca ef 3d 3d 39 a7 3d c5 b2 d1 3e
       0.658766 0.11708527 0.08165214 0.40956703
0001e0 ae ee fb be e4 31 a1 be 6e f2 92 3e 8c 71 13 3e
       -0.49205536 -0.31483376 0.28700584 0.14398783
0001f0 7d 13 f9 3d 6a 7b 9c bd 97 0a 33 bf 61 21 e5 3d
       0.1216192 -0.07640727 -0.69938034 0.11188007

fc.weight f4 [1, 128]
000000 14 48 32 bd e7 56 b6 3d 80 f7 a9 ba 8f 83 b7 3d
       -0.04352577 0.08903294 -0.0012967438 0.0896064
000010 72 1c 16 bd db 86 b0 3c a1 20 46 3d 99 f9 01 3d
       -0.03664822 0.02154868 0.04837096 0.031732175
000020 d3 73 a3 bd b0 66 d3 3b 6a 47 84 3d 42 3f 49 bd
       -0.07981076 0.0064514503 0.06458934 -0.049132593
000030 10 60 b6 3d fe df 0f 3d 3a 98 d9 3d c6 c9 30 bd
       0.08905041 0.035125725 0.10624738 -0.043161176
000040 0a 16 d9 3d 78 bb a4 3c e8 97 99 3c 4b a1 ef 3c
       0.10599907 0.020108923 0.018749192 0.029251715
000050 b6 b5 29 bd 76 a6 40 3d f3 e2 0c bd 28 ec e2 bc
       -0.04143306 0.04703375 -0.034396123 -0.027700499
000060 84 33 de bc f1 05 b3 3d 5e 1e 8d 3d 94 e9 44 3d
       -0.027124174 0.087413676 0.06890558 0.04807432
000070 54 b5 6c bd be 03 68 bd 51 1e 2f bd 70 0f 02 3c
       -0.057790115 -0.056644194 -0.04275352 0.007938251
000080 b1 bf 8a 3d 05 bd 23 3e 4d 7b 96 3b 1b 6c ab bd
       0.067748435 0.15990074 0.0045923353 -0.08370229
000090 97 0e 16 bd be b3 5b 3d a5 4d 83 bd 62 15 0f bc
       -0.036635008 0.053638212 -0.06411294 -0.008733125
0000a0 ea ee 91 bd a8 8a aa bd 68 07 07 3c 4a 85 36 3d
       -0.07125647 -0.08327228 0.008241512 0.044560708
0000b0 9e 83 52 3c 27 ec cd 3e 24 73 95 bc 49 e9 51 bd
       0.012848763 0.40219232 -0.01824338 -0.05124787
0000c0 1b 6d c4 3d 76 0a fa bc 15 16 8d 3d 8c eb 45 bd
       0.09591123 -0.030522566 0.068889774 -0.048320338
0000d0 39 37 8d 3d 10 88 94 bd 2c 30 70 bd bf 67 d5 3c
       0.068952985 -0.07252514 -0.05863969 0.026050447
0000e0 66 8a 65 3d 70 1c 03 3d c1 70 06 bd 22 41 ef bc
       0.05604019 0.032009542 -0.032822374 -0.029205862
0000f0 de 40 39 bd bd b6 ce 3d 70 70 9a 3c e6 74 ac bd
       -0.045227878 0.10093448 0.018852443 -0.08420734
000100 32 f5 47 3d 5a 73 24 3d 97 b5 18 bd 86 59 9b bd
       0.04881782 0.04014907 -0.037282553 -0.075854346
000110 0c 88 df 3c fa 35 6c bd 36 92 c4 3d 9b f9 64 3d
       0.027286552 -0.057668664 0.095982 0.055902105
000120 d1 d3 cd 3c 82 4b 00 3e 79 94 52 bd 48 d6 78 3c
       0.025125416 0.12528804 -0.051411126 0.015187807
000130 c7 ba 65 bd 6f 94 0e 3d 38 2d fa 3c 6f 94 9a bd
       -0.056086328 0.034809526 0.03053914 -0.07547843
000140 56 ba 6c bc eb ff fa 3b 3d 7d 19 bd 37 11 30 3e
       -0.014448723 0.0076599023 -0.037472952 0.17194067
000150 1c 46 e0 bc 16 ac 49 3d 25 5e ab bc 82 7b 91 bd
       -0.02737718 0.04923638 -0.020918915 -0.07103635
000160 a6 91 ad bd ac ee df 3c 0b 44 b0 3e e6 c3 9a bc
       -0.08475046 0.027335487 0.34426913 -0.01889224
000170 71 c9 d7 3d a2 33 e9 bc 9c e7 b2 3c ec 04 5c bd
       0.10536469 -0.028467003 0.021838956 -0.05371563
000180 9b e4 7c bd d6 b6 22 3d 30 70 87 bc 78 14 50 3c
       -0.061741453 0.039725147 -0.016532987 0.012700193
000190 fd ae 9a 3d 49 ae 13 3e 26 e5 5e 3d 81 8a 19 bd
       0.075529076 0.14421953 0.05441775 -0.037485603
0001a0 b2 69 0f bd 60 9a 5e 3d 81 4a 63 bc 03 7c 99 bd
       -0.03501291 0.054346442 -0.013872744 -0.074943565
0001b0 25 3d 1e 3d 17 7b 99 3d f4 2f f3 bc d9 f9 7e bd
       0.03863253 0.07494181 -0.029685952 -0.062249992
0001c0 9c 92 9e bc 1f 6e 83 3d 90 7d 71 bc a6 97 43 bd
       -0.019357018 0.06417488 -0.014739409 -0.047752045
0001d0 dd a7 2c 3d 2a 1d 85 bc f8 15 ba 3d 51 49 5b bd
       0.042152274 -0.016249258 0.090862215 -0.053536717
0001e0 98 63 59 bc ed a8 83 3d 9b ee 1c 3c 94 5e a8 be
       -0.013268374 0.064287044 0.009578372 -0.32884657
0001f0 8b cf 23 3b df f3 18 3e d0 fa 1e bd 8d bf 02 bd
       0.0024995531 0.1493678 -0.038813412 -0.03192096
