Model/028670_5313.pth (torch, 4687 bytes, 7 tensors)

lstm.weight_ih_l0 f4 [8, 5]
0.36244953 0.68385196 -0.41401058 -0.4511365 0.010489557 -0.34683186 0.21448809 0.40371987
0.64041597 0.5864452 -0.12932509 -0.34330234 0.23299545 0.062082708 -0.6073057 -0.4867049
-0.34972593 -0.5485961 -0.016674578 -0.5083566 0.06401972 -0.29967463 0.0019298545 0.50486887
-0.007664674 -0.21510096 -0.25755772 0.60675627 0.32266423 -0.38598654 -0.11206481 -0.03412018
0.18758486 0.3978995 0.048235778 0.33721387 0.5269352 -0.41608667 0.92321587 -0.29449943
00000000: fc92 b93e ec10 2f3f 32f9 d3be 5dfb e6be
00000010: 64dc 2b3c f293 b1be c4a2 5b3e 5fb4 ce3e
00000020: 4df2 233f 4621 163f cc6d 04be 53c5 afbe
00000030: 5c96 6e3e 704a 7e3d 6378 1bbf 6231 f9be
00000040: 470f b3be cb70 0cbf 2099 88bc a823 02bf
00000050: c51c 833d f46e 99be 2cf3 fc3a 163f 013f
00000060: f227 fbbb 6d43 5cbe 9bde 83be 6154 1b3f
00000070: 3f34 a53e 07a0 c5be 3c82 e5bd 9ac1 0bbd
00000080: 3f16 403e 7cb9 cb3e e192 453d 4ca7 ac3e
00000090: 3ae5 063f 5009 d5be e057 6c3f a1c8 96be

lstm.weight_hh_l0 f4 [8, 2]
-0.38744307 0.3476346 0.029960334 0.2959606 -0.109659016 -0.03393191 0.541815 -0.31205314
-0.4869694 0.20137542 0.6563396 0.6898294 -0.19995141 -0.036789894 -0.29476282 0.6838679
00000000: f05e c6be 2afd b13e 606f f53c 2688 973e
00000010: e894 e0bd 30fc 0abd 63b4 0a3f 6ec5 9fbe
00000020: 0e54 f9be 5c35 4e3e df05 283f a998 303f
00000030: 10c0 4cbe 00b1 16bd 27eb 96be f711 2f3f

lstm.bias_ih_l0 f4 [8]
-0.28336766 -0.13976942 -0.088927746 0.40714544 0.13466364 0.41071603 0.08611518 -0.29752463
00000000: 9115 91be b71f 0fbe c01f b6bd 5e75 d03e
00000010: 44e5 093e 5f49 d23e 285d b03d 2655 98be

lstm.bias_hh_l0 f4 [8]
0.76776594 -0.06364729 -0.33857188 -0.3224329 0.36300868 0.032250814 -0.13752934 -0.20709899
00000000: 4f8c 443f 8359 82bd 4b59 adbe ed15 a5be
00000010: 46dc b93e 6e19 043d 7ed4 0cbe c211 54be

fc_1.weight f4 [128, 2]
0.39222842 -0.32511067 -0.5028056 -0.38745463 0.01184311 0.027568208 0.33142018 0.062352065
-0.83076316 -0.65796095 0.31111726 -0.4607508 -0.56956524 0.28530562 -0.27292684 0.7619873
0.38976663 0.29621214 -0.6437276 -0.018831134 -0.19578552 -0.63356304 0.5025844 0.59883165
0.8485044 0.1592253 -0.024880111 0.5715925 0.554969 0.15028477 0.14513892 -0.32725966
-0.50102943 -0.45335138 -0.7052594 -0.5333387 -0.33117425 -0.10732253 0.89469707 0.75470203
-0.66658324 -0.5655106 -0.30019042 -0.23633054 -0.5189308 0.75298524 -0.5827509 -0.5332905
0.7874369 -0.19702691 -0.37787145 -0.40987083 0.21181788 -0.38992324 0.28059652 0.67515606
0.060696185 0.05471641 -0.09956461 0.41531783 0.14974892 0.22297269 0.22458065 -0.10604596
0.12818122 0.18504775 0.6164918 -0.42469382 -0.19708449 -0.5337334 -0.5956197 0.5871052
0.109668374 -0.640403 0.3590985 -0.16120672 0.9412719 0.38962585 0.6666475 0.07952909
-0.5480644 -0.18971278 0.16816789 0.4533227 -0.29747924 0.057412937 -0.031906426 -0.46892935
0.49644226 0.045934632 0.35515228 -0.6057997 -0.35526085 0.06331074 -0.04312414 -0.13436675
0.4949603 0.013364064 -0.2425407 -0.16559565 0.32776362 -0.47003692 -1.0668676 0.15505022
0.66879076 -0.20839912 0.3659515 -0.21177283 -0.579892 0.5576269 0.20621634 0.25409633
0.17883359 0.010990085 0.041628003 0.16490376 -0.51874465 -0.3101383 0.7405226 -0.30996847
0.2760715 0.03053379 0.48379308 0.04011972 -0.42261302 0.09232937 0.29939362 0.22291943
-0.11818743 -0.00896275 -0.5596197 -0.5787782 -0.099381514 0.10632017 -0.59377164 0.4915911
-0.17833048 0.06383097 -0.34941298 0.016273458 -0.036050733 0.46024805 0.3095197 0.2528193
-0.5754616 -0.36609158 -0.15538396 0.3166563 -0.62818503 0.35764235 -2.8848648e-05 0.30165988
0.497857 0.16120486 0.20993435 -0.6503589 0.44105372 0.58795255 -0.68850875 -0.49750757
0.49609897 -0.72466767 0.46466523 0.038550377 -0.6140841 0.61042035 -0.4154585 0.21832126
0.724883 0.46047127 -0.20547926 0.18259576 0.49691668 0.2601861 0.4413194 -0.2718237
0.022708809 0.45383674 0.5756891 0.5997099 0.04864963 0.77961344 -0.28125346 0.09653135
-0.26930806 0.17492135 0.47140318 -0.24951047 0.75632495 -0.25924146 -0.8201448 0.58941
-0.070632696 -0.59491354 0.64124954 0.0762101 -0.0050216913 -0.68939894 0.5147622 0.70098156
-0.7210748 -0.11485619 0.27251554 -0.18833756 -0.21172267 -0.13467765 -0.23764828 -0.45181236
0.30506095 -0.22106954 0.045741916 0.5140926 -0.5386675 -0.14495254 -0.015259206 -0.6441596
0.10174453 0.4097306 0.4070657 -0.5205043 0.27374 -0.24537912 -0.35545427 -0.27049375
-0.4418883 0.042697344 -0.15681529 -0.056170024 -0.010563887 -0.3315128 -0.4512279 -0.49461287
0.52547216 0.6914807 0.644573 0.5361375 -0.67809904 -0.18011779 0.058488846 -0.44537172
0.7775142 -0.09425917 0.2956966 0.523478 -0.2814176 0.0913377 0.8621169 0.08628882
-0.35218462 -0.1833654 0.067838795 0.37359726 0.60312355 -0.5628171 -0.5046377 0.45462734
00000000: 2ad2 c83e e874 a6be deb7 00bf 7460 c6be
00000010: 9b09 423c b9d6 e13c e8af a93e e164 7f3d
00000020: e5ac 54bf 2170 28bf c34a 9f3e 87e7 ebbe
00000030: 07cf 11bf 9413 923e 11bd 8bbe 9a11 433f
00000040: 7e8f c73e 1ea9 973e 55cb 24bf c043 9abc
00000050: 007c 48be 3031 22bf 5fa9 003f 084d 193f
00000060: 9637 593f f50b 233e 60d1 cbbc e353 123f
00000070: 7312 0e3f 40e4 193e 4c9f 143e 948e a7be
00000080: 7743 00bf ac1d e8be e18b 34bf e388 08bf
00000090: ac8f a9be eacb dbbd de0a 653f 2734 413f
000000a0: 33a5 2abf 4dc5 10bf 8fb2 99be a200 72be
000000b0: a6d8 04bf a4c3 403f 2a2f 15bf ba85 08bf
000000c0: 7795 493f 6cc1 49be 5e78 c1be 97da d1be
000000d0: c9e6 583e 05a4 c7be 59aa 8f3e 07d7 2c3f
000000e0: 909c 783d 501e 603d 88e8 cbbd 8aa4 d43e
000000f0: c857 193e f452 643e 78f8 653e a02e d9bd
00000100: f041 033e 287d 3d3e 68d2 1d3f 7871 d9be
00000110: 84d0 49be c1a2 08bf 887a 18bf 874c 163f
00000120: d099 e03d 73f1 23bf c2db b73e 6013 25be
00000130: 32f7 703f 0a7d c73e 69a9 2a3f 26e0 a23d
00000140: f34d 0cbf 1144 42be 3434 2c3e ea19 e83e
00000150: 334f 98be d429 6b3d 50b0 02bd 8217 f0be
00000160: ae2d fe3e f425 3c3d 85d6 b53e b015 1bbf
00000170: c0e4 b5be 10a9 813d f0a2 30bd 7097 09be
00000180: 706b fd3e f2f4 5a3c 975c 78be e891 29be
00000190: a2d0 a73e aea8 f0be 1e8f 88bf 7cc5 1e3e
000001a0: df35 2b3f 9466 55be ff5d bb3e fada 58be
000001b0: cd73 14bf a3c0 0e3f 602a 533e ea18 823e
000001c0: 2720 373e c20f 343c 2082 2a3d 88dc 283e
000001d0: 73cc 04bf 72ca 9ebe e492 3d3f 30b4 9ebe
000001e0: 3e59 8d3e 0022 fa3c bab3 f73e 9354 243d
000001f0: bc60 d8be 2e17 bd3d 1f4a 993e fe44 643e
00000200: 400c f2bd 80d8 12bc 3d43 0fbf cf2a 14bf
00000210: 8988 cbbd 64be d93d 6b01 18bf d4b1 fb3e
00000220: 449c 36be d0b9 823d 42e6 b2be ea4f 853c
00000230: efa9 13bd a2a5 eb3e 5e79 9e3e 8871 813e
00000240: 7451 13bf 5b70 bbbe f91c 1fbe c620 a23e
00000250: bcd0 20bf e61c b73e 0000 f2b7 2a73 9a3e
00000260: 1de7 fe3e e312 253e 08f9 563e ec7d 26bf
00000270: cbd1 e13e 0f84 163f 1c42 30bf 50b9 febe
00000280: af00 fe3e d283 39bf 9ae8 ed3e 00e7 1d3d
00000290: 9e34 1dbf 8244 1c3f fab6 d4be 9c8f 5f3e
000002a0: ef91 393f e4c2 eb3e 2869 52be 62fa 3a3e
000002b0: dd6b fe3e 1d37 853e 9ef4 e13e 7a2c 8bbe
000002c0: d307 ba3c 4a5d e83e 5c60 133f 9786 193f
000002d0: d644 473d bf94 473f 7400 90be 3ab2 c53d
000002e0: bfe2 89be 951e 333e c25b f13e ac7f 7fbe
000002f0: 839e 413f 4cbb 84be 02f5 51bf 93e3 163f
00000300: e0a7 90bd 414c 18bf ee28 243f 0a14 9c3d
00000310: 008d a4bb 737c 30bf 75c7 033f 8773 333f
00000320: 5c98 38bf b939 ebbd 2887 8b3e 90db 40be
00000330: d4cd 58be f0e8 09be 125a 73be f353 e7be
00000340: f330 9c3e 0e60 62be e05b 3b3d 939b 033f
00000350: 1de6 09bf 706e 14be c001 7abc a5e7 24bf
00000360: 705f d03d 36c8 d13e ea6a d03e c53f 05bf
00000370: a627 8c3e aa44 7bbe 1afe b5be 287e 8abe
00000380: 2f3f e2be 69e3 2e3d 3094 20be 8a12 66bd
00000390: 2714 2dbc 0cbc a9be 5807 e7be e63d fdbe
000003a0: 5885 063f e104 313f bc02 253f 4f40 093f
000003b0: e697 2dbf cc70 38be 0092 6f3d c307 e4be
000003c0: 2c0b 473f f40a c1bd 8b65 973e a702 063f
000003d0: f815 90be 430f bb3d b1b3 5c3f 31b8 b03d
000003e0: 8b51 b4be 24c4 3bbe 11ef 8a3d 2448 bf3e
000003f0: 4e66 1a3f c814 10bf f02f 01bf eac4 e83e

fc_1.bias f4 [128]
-0.14925624 -0.37064165 0.6314796 0.16138722 0.46576646 0.5366607 0.59782934 0.52724516
-0.626534 -0.3317466 -0.37952048 0.1545881 0.18328865 -0.18884951 -0.58694434 0.6090375
-0.23411089 0.6292106 0.6440994 0.021066967 0.31630504 -0.2559756 0.066851065 -0.660644
-0.18946281 -0.47083408 0.1479256 0.5510517 -0.30603543 -0.6736639 -0.120402694 -0.6045357
-0.61696285 0.22026078 -0.11320144 0.41024828 -0.57835025 -0.17147274 -0.35819992 0.4238652
0.58368695 -0.36997676 0.18246299 -0.39407277 -0.11874701 -0.26911157 -0.0066865087 -0.48403102
0.6269278 0.42344284 -0.54871786 0.16094667 0.1945154 -0.13927144 -0.12970656 -0.36228967
-0.085385 -0.08249909 0.20757739 -0.35349205 -0.521706 0.27916172 0.26828504 0.1473668
-0.23571551 0.3440947 0.10625796 0.48668137 -0.6650106 0.3568265 0.6258894 -0.51310223
-0.36070892 0.5332611 -0.4309709 -0.67088306 0.5371181 -0.1638745 -0.026794948 0.44407046
0.2861461 -0.5017157 0.38020095 -0.65062535 -0.04643693 0.61013633 0.4939168 -0.021883912
0.299627 0.53272986 -0.027267247 0.42232856 0.4159575 0.57539916 -0.32928735 0.12364806
-0.22559068 0.2428701 -0.5706191 -0.47258115 0.45883572 -0.57586753 -0.7042837 -0.24421948
0.049901616 -0.5331291 -0.018995166 -0.4481671 -0.35784334 -0.34742406 -0.6424724 -0.0049214885
0.28052273 0.534046 0.31150645 0.4453061 0.5509635 0.19015655 -0.63004875 -0.58613074
0.57458997 0.55735624 0.16688809 -0.05250108 -0.048287332 0.56089973 0.5068765 -0.24457428
00000000: a1d6 18be bec4 bdbe a6a8 213f b142 253e
00000010: f178 ee3e 9862 093f 580b 193f 8af9 063f
00000020: 8864 20bf b1da a9be 8250 c2be 584c 1e3e
00000030: 05b0 3b3e c461 41be fc41 16bf e2e9 1b3f
00000040: c4ba 6fbe f213 213f b3e3 243f a294 ac3c
00000050: bcf2 a13e 3c0f 83be 36e9 883d f71f 29bf
00000060: 8a02 42be 2a11 f1be cf79 173e b911 0d3f
00000070: adb0 9cbe 3d75 2cbf b095 f6bd dac2 1abf
00000080: 47f1 1dbf 0b8c 613e 28d6 e7bd 100c d23e
00000090: c30e 14bf 8d96 2fbe fb65 b7be dc04 d93e
000000a0: 826c 153f 986d bdbe 94d7 3a3e e8c3 c9be
000000b0: a231 f3bd fec8 89be 801a dbbb ead2 f7be
000000c0: 577e 203f 80cd d83e c678 0cbf 34cf 243e
000000d0: 0c2f 473e 2c9d 0ebe ccd1 04be 087e b9be
000000e0: 55de aebd 48f5 a8bd 2b8f 543e e9fc b4be
000000f0: 868e 05bf 49ee 8e3e a85c 893e 53e7 163e
00000100: 685f 71be 2e2d b03e c69d d93d 4d2e f93e
00000110: 223e 2abf f7b1 b63e 4a3a 203f ab5a 03bf
00000120: d7ae b8be cd83 083f 38a8 dcbe febe 2bbf
00000130: 9280 093f b8ce 27be 1481 dbbc 345d e33e
00000140: be81 923e 7170 00bf b3a9 c23e 628f 26bf
00000150: a634 3ebd e531 1c3f aae2 fc3e e445 b3bc
00000160: b668 993e fc60 083f 905f dfbc 733b d83e
00000170: 62f8 d43e 5c4d 133f 5a98 a8be 323b fd3d
00000180: 3e01 67be f1b2 783e 1814 12bf 28f6 f1be
00000190: 84ec ea3e 0e6c 13bf f04b 34bf ac14 7abe
000001a0: a365 4c3d 267b 08bf c09b 9bbc 2876 e5be
000001b0: 3e37 b7be 91e1 b1be 1279 24bf 7044 a1bb
000001c0: ada0 8f3e 3db7 083f c67d 9f3e 29ff e33e
000001d0: f20b 0d3f 66b8 423e e04a 21bf aa0c 16bf
000001e0: 5418 133f e6ae 0e3f b6e4 2a3e 5f0b 57bd
000001f0: f0c8 45bd 2097 0f3f a9c2 013f ae71 7abe

fc.weight f4 [1, 128]
0.120070055 0.04573164 -0.07293736 -0.017776854 -0.094600715 0.066193044 0.024630267 0.025313156
0.081795864 -0.053442225 -0.084966876 0.12275978 0.09320702 -0.024072386 -0.08658642 0.02766594
-0.037058752 -0.0280618 -0.027395288 0.12494538 0.028462028 0.0148362 0.054333802 -0.039350245
0.12976165 -0.0043878853 -0.020888584 0.02511545 0.056835316 0.07638449 -0.07020153 -0.024949238
0.078019165 0.046555564 -0.051128015 -0.10588085 -0.033217713 0.10712851 0.36958772 0.008502479
-0.007813263 -0.051858924 -0.07968507 -0.02538842 0.08292862 -0.03394421 0.05971288 0.019377738
0.02428586 0.037241645 -0.034485646 -0.064755306 0.10307874 0.1963409 -0.047905613 0.086862676
0.05309112 -0.049647555 0.018180002 0.35529622 -0.03253451 0.037967905 -0.084115654 0.09464069
-0.012090519 -0.083293095 0.0055978503 -0.06833671 -0.016202912 -0.0063141505 -0.018747797 -0.033932798
-0.013730086 -0.039334722 -0.07390685 0.002854824 0.044355392 -0.010017417 0.21674378 -0.062974386
-0.040417314 -0.044495218 -0.047909085 -0.008209556 0.1798459 -0.0060551697 -0.03025233 0.24496941
0.03912262 -0.039928764 -0.29615995 -0.051075064 0.057966318 -0.01245074 0.15818603 -0.13333349
-0.08677049 -0.00809001 -0.035762265 -0.03956451 -0.067137614 -0.03307413 0.003413409 0.029608227
0.15555832 -0.078531295 -0.031081371 -0.011225253 0.086274855 -0.020719573 -0.03530474 -0.05440018
-0.016942736 0.04914111 0.03149821 -0.010142077 0.05547127 -0.012305149 -0.012132011 0.033501178
0.10193284 0.102746926 -0.055191487 0.23983987 0.00043915957 -0.019365946 0.03324148 0.011901677
00000000: 4ae7 f53d 1a51 3b3d 2f60 95bd c4a0 91bc
00000010: 05be c1bd 3890 873d 6ac5 c93c 895d cf3c
00000020: 9784 a73d 3ce6 5abd 1d03 aebd 7b69 fb3d
00000030: 52e3 be3d 7433 c5bc 3954 b1bd aea3 e23c
00000040: ebca 17bd dce1 e5bc 156c e0bc 5de3 ff3d
00000050: 3329 e93c 8813 733c 1f8d 5e3d b92d 21bd
00000060: 3de0 043e 40c8 8fbb 891e abbc ebbe cd3c
00000070: 26cc 683d 796f 9c3d d2c5 8fbd 5862 ccbc
00000080: 83c8 9f3d 0cb1 3e3d 9c6b 51bd 0fd8 d8bd
00000090: 4c0f 08bd 3166 db3d 9a3a bd3e fb4d 0b3c
000000a0: 3303 00bc 066a 54bd ed31 a3bd 60fb cfbc
000000b0: 7bd6 a93d 1509 0bbd 7e95 743d 10be 9e3c
000000c0: 24f3 c63c b28a 183d d240 0dbd 6e9e 84bd
000000d0: f21a d33d 970d 493e ad38 44bd 0fe5 b13d
000000e0: 1376 593d 3c5b 4bbd 3aee 943c 63e9 b53e
000000f0: e842 05bd 3c84 1b3d d444 acbd fad2 c13d
00000100: 5017 46bc 9295 aabd 2c6e b73b 1ef4 8bbd
00000110: f8bb 84bc efe6 cebb fb94 99bc 1efd 0abd
00000120: 28f4 60bc 721d 21bd 795c 97bd 0018 3b3b
00000130: 00ae 353d 1820 24bc 15f2 5d3e b7f8 80bd
00000140: a08c 25bd 9e40 36bd 513c 44bd 6081 06bc
00000150: 8629 383e 726a c6bb bcd3 f7bc 43d9 7a3e
00000160: 0a3f 203d 588c 23bd 47a2 97be 1634 51bd
00000170: 176e 6d3d 30fe 4bbc 85fb 213e 9388 08be
00000180: bab4 b1bd f68b 04bc 747b 12bd 650e 22bd
00000190: 727f 89bd bd78 07bd 80b3 5f3b f48c f23c
000001a0: ae4a 1f3e 04d5 a0bd 5c9e febc 20ea 37bc
000001b0: dfb0 b03d 18bc a9bc b49b 10bd b9d2 5ebd
000001c0: 7ecb 8abc 3048 493d 4404 013d f42a 26bc
000001d0: d835 633d 899b 49bc 58c5 46bc 8838 093d
000001e0: 2ac2 d03d fb6c d23d 7810 62bd 9598 753e
000001f0: 003f e639 55a5 9ebc 3828 083d 40ff 423c
