Model/034020_3277.pth (torch, 4687 bytes, 7 tensors)

lstm.weight_ih_l0 f4 [8, 5]
-0.43730295 -0.08776784 0.4729435 0.4504502 -0.02715956 0.5612068 0.167859 -0.049415678
-0.37792528 -0.048665036 -0.03331977 -0.47100997 0.38041943 0.2801655 0.24836034 0.60432667
0.17745358 -0.38924098 0.05540383 -0.14929056 0.2500088 0.0275418 0.34043565 0.1598493
1.3537147e-06 0.69813514 -0.21464106 -0.13046885 0.04342818 -0.09490239 0.3538801 -0.04747484
-0.07036154 0.28422835 0.039819002 -0.1016766 -0.023022197 0.58389604 0.14751719 0.023475818
00000000: 2ce6 dfbe a0bf b3bd a725 f23e 69a1 e63e
00000010: ba7d debc 40ab 0f3f 3be3 2b3e 1868 4abd
00000020: 6c7f c1be fd54 47bd 507a 08bd 3828 f1be
00000030: 56c6 c23e da71 8f3e 2c52 7e3e 27b5 1a3f
00000040: 64b6 353e 984a c7be 20ef 623d a0df 18be
00000050: 2701 803e 579f e13c 954d ae3e 89af 233e
00000060: 48b1 b535 fcb8 323f deca 5bbe a099 05be
00000070: bfe1 313d 2f5c c2bd c62f b53e fa74 42bd
00000080: b619 90bd 6186 913e 4019 233d d23b d0bd
00000090: 0c99 bcbc 367a 153f bf0e 173e 5c50 c03c

lstm.weight_hh_l0 f4 [8, 2]
0.18006569 0.14248663 0.10257119 -0.2823446 0.48906463 0.09191167 -0.65848607 0.23067206
-0.32521662 -0.0928247 0.6872837 -0.44596657 -0.23323745 -0.17233878 -0.18497968 0.037583172
00000000: 2463 383e 04e8 113e d810 d23d 798f 90be
00000010: ae66 fa3e 303c bc3d 8b92 28bf 4c35 6c3e
00000020: cb82 a6be e01a bebd d3f1 2f3f bb55 e4be
00000030: ccd5 6ebe 9479 30be 506b 3dbe d0f0 193d

lstm.bias_ih_l0 f4 [8]
-0.58406836 0.4412996 0.19683135 -0.027639985 0.124916054 -0.23709998 0.0019837432 -0.19230758
00000000: 8185 15bf 05f2 e13e 288e 493e 406d e2bc
00000010: fdd3 ff3d 56ca 72be b001 023b 47ec 44be

lstm.bias_hh_l0 f4 [8]
0.711881 0.271336 0.29739457 -0.26221105 0.81720066 -0.18959379 0.29886976 -1.1272336
00000000: d53d 363f 8dec 8a3e 1a44 983e 8740 86be
00000010: 1034 513f e024 42be 7505 993e 3149 90bf

fc_1.weight f4 [128, 2]
-0.10958944 -0.50057083 -0.35831583 0.19996297 -0.055703282 0.07053393 0.5212614 -0.33835986
0.084744275 0.20251724 -0.3316194 -0.10033043 0.097009555 -0.7378479 0.7509121 -0.30289394
0.53210425 0.69846886 -0.61748344 0.21419263 -0.12957 0.1525194 0.39064014 -0.12934369
-0.4790902 -0.13551739 0.12464315 0.088161945 -0.619214 -0.5857987 0.59600097 0.3113288
-0.33718562 -0.27969095 0.1576498 -0.19215973 0.41476256 0.068718016 -0.08704071 -0.40465474
0.24985036 -0.13544938 -0.2989938 -0.08467919 0.5492539 -0.0041770083 -0.5429729 -0.2479414
-0.6107686 -0.1211586 0.65835804 0.40918812 -0.3688183 0.45357066 0.67508304 0.23894492
-0.6661548 0.044761837 0.19684738 -0.6585161 -0.93743414 0.09153558 -0.4760767 0.13270786
-0.650313 -0.1570355 -0.4482303 -0.5545287 0.07979678 0.59754324 0.5512059 0.4130077
0.25520456 0.39087218 0.41372317 0.51515657 0.26689506 -0.28990254 0.2601319 0.3870591
-0.3732374 0.21686086 -0.24998565 0.6270605 0.3844782 0.3430536 -0.28943437 -0.47445402
0.62116927 -0.1525964 -0.019142885 0.28675532 0.061966896 0.4768631 -0.48123425 0.09710494
-1.0891527 -0.027204784 -0.62772614 0.6449011 -0.30770275 0.41979533 0.05130571 -0.37085474
-0.40509257 -0.54443026 -1.1880319 0.104807444 0.49689218 -0.52578825 -0.48630822 -0.64165103
-0.036208242 0.5927543 0.23139945 0.09935422 -0.5961427 -0.19779652 -0.2915182 -0.11868459
0.17154068 -0.31862536 0.11469446 0.58073646 -0.44161963 -0.70163846 0.1148262 -0.4684763
0.05327224 -0.6945151 0.087726295 -0.6482167 -0.6960668 -0.037237767 0.21723497 -0.4587809
0.70431966 0.029483471 -0.26107967 -0.42793497 0.40077692 -0.17338014 0.2907058 -0.36309138
0.69160825 0.7083665 -0.09943402 0.025147676 0.38568923 0.14866006 -0.043650154 -0.03401656
0.27323568 -0.061067667 -0.37622705 -0.59787506 0.42734507 0.49353886 -0.64476615 0.4195358
0.47270066 -0.37622386 -0.3420627 -0.21798712 -0.6825387 0.37718517 0.6357119 -0.34866518
-0.11760022 0.46537417 -0.09999785 0.7553153 -0.36866084 0.4576785 -0.6777537 0.31620532
-0.13927233 0.65903324 0.41701934 -0.26686063 0.64774317 -0.12107503 0.39199954 -0.09942365
0.28915244 -0.48642415 0.1796292 -0.67517024 -0.22203164 0.17667319 0.65127146 -0.13541897
-0.5262038 0.5947012 0.304264 0.02019807 -0.07603402 0.8551194 -0.5829998 0.51541686
-0.58148754 -0.64737725 0.037149016 -0.03493229 0.43159983 -0.36995885 -0.0144679 -0.44782338
0.30736852 0.27551088 0.25648493 -0.18479261 -0.111463785 -0.2631997 0.66316277 0.724582
-0.5886167 0.123546354 -0.42853126 -0.5242977 -0.2356329 -0.50133497 -0.68193746 0.42008156
-0.15167876 -0.43434164 -0.22606617 0.07294616 -0.12991661 0.14946231 0.5544604 -0.24194205
-0.077726364 0.015187204 0.87738526 -0.47838843 0.1768123 0.51180816 -0.011763155 -0.018713355
0.5838186 0.13752407 0.4151046 0.40322393 0.654594 0.045071404 0.1739068 0.6809891
-0.030839104 0.3885075 0.41843995 0.12506327 -0.02309966 0.27380896 -0.36995244 0.1522519
00000000: 6e70 e0bd 6925 00bf 2c75 b7be 18c3 4c3e
00000010: 2029 64bd 1874 903d 6371 053f 813d adbe
00000020: 688e ad3d ae60 4f3e 05ca a9be 0a7a cdbd
00000030: f2ac c63d 9ae3 3cbf c63b 403f ea14 9bbe
00000040: fc37 083f dbce 323f 6513 1ebf 5055 5b3e
00000050: 00ae 04be 0c2e 1c3e fc01 c83e ac72 04be
00000060: 504b f5be 12c5 0abe e844 ff3d 408e b43d
00000070: cf84 1ebf e7f6 15bf 8593 183f 7d66 9f3e
00000080: 98a3 acbe a733 8fbe f36e 213e 85c5 44be
00000090: c25b d43e 08bc 8c3d 6642 b2bd e82e cfbe
000000a0: c6d8 7f3e 3eb3 0abe b715 99be 486c adbd
000000b0: e79b 0c3f 49df 88bb 4600 0bbf 5ae4 7dbe
000000c0: 555b 1cbf 0022 f8bd 278a 283f 1b81 d13e
000000d0: c1d5 bcbe 6a3a e83e 3ed2 2c3f faad 743e
000000e0: 1f89 2abf 3058 373d 5c92 493e 8394 28bf
000000f0: affb 6fbf 0277 bb3d 53c0 f3be 92e4 073e
00000100: ea7a 26bf eacd 20be 717e e5be 98f5 0dbf
00000110: 7f6c a33d 98f8 183f d41b 0d3f bf75 d33e
00000120: 2caa 823e 6620 c83e 86d3 d33e 4de1 033f
00000130: 78a6 883e 1b6e 94be 0230 853e 9c2c c63e
00000140: f918 bfbe c610 5e3e 3dfc 7fbe 0987 203f
00000150: 54da c43e b9a4 af3e be30 94be a3eb f2be
00000160: f304 1f3f 3b42 1cbe 8ad1 9cbc 98d1 923e
00000170: 00d1 7d3d 6627 f43e 5664 f6be f4de c63d
00000180: 5b69 8bbf 91dc debc a9b2 20bf 3d18 253f
00000190: 378b 9dbe 6aef d63e f025 523d ace0 bdbe
000001a0: 4b68 cfbe c85f 0bbf 6e11 98bf 49a5 d63d
000001b0: a768 fe3e 0f9a 06bf 64fd f8be 3e43 24bf
000001c0: 184f 14bd bfbe 173f faf3 6c3e 3a7a cb3d
000001d0: cf9c 18bf 2c8b 4abe e041 95be e810 f3bd
000001e0: 5ca8 2f3e dd22 a3be eee4 ea3d 25ab 143f
000001f0: f81b e2be 949e 33bf 002a eb3d 20dc efbe
00000200: fe33 5a3d becb 31bf d8a9 b33d 88f1 25bf
00000210: 6f31 32bf a186 18bd d872 5e3e 55e5 eabe
00000220: 4b4e 343f 5287 f13c 3cac 85be 4b1a dbbe
00000230: a232 cd3e 908a 31be 64d7 943e 1de7 b9be
00000240: 3d0d 313f 8257 353f 10a4 cbbd 8002 ce3c
00000250: 0f79 c53e 583a 183e 81ca 32bd f354 0bbd
00000260: 8ce5 8b3e 1722 7abd d5a0 c0be 570e 19bf
00000270: f9cc da3e 20b1 fc3e 650f 25bf 65cd d63e
00000280: d205 f23e 6aa0 c0be d822 afbe 0438 5fbe
00000290: dbba 2ebf 6a1e c13e 04be 223f 3e84 b2be
000002a0: 62d8 f0bd 8645 ee3e accb ccbd 585c 413f
000002b0: 1dc1 bcbe d654 ea3e 4481 2dbf aae5 a13e
000002c0: 689d 0ebe 67b6 283f 8f83 d53e f5a1 88be
000002d0: 7fd2 253f 2ff6 f7bd 2ab4 c83e a09e cbbd
000002e0: ca0b 943e 960c f9be b8f0 373e f5d7 2cbf
000002f0: 435c 63be d1e9 343e bab9 263f 45ab 0abe
00000300: 4bb5 06bf 563e 183f 7ec8 9b3e 6c76 a53c
00000310: b9b7 9bbd 1be9 5a3f 7a3f 15bf 5cf2 033f
00000320: 5edc 14bf 84ba 25bf 9129 183d 2915 0fbd
00000330: a7fa dc3e 3f6b bdbe c50a 6dbc 1b49 e5be
00000340: 685f 9d3e c30f 8d3e fe51 833e 463a 3dbe
00000350: 2047 e4bd 1cc2 86be 09c5 293f 357e 393f
00000360: 96af 16bf df05 fd3d 7368 dbbe 6038 06bf
00000370: c049 71be 7d57 00bf 7493 2ebf ee14 d73e
00000380: ad51 1bbe 0762 debe e47d 67be cc64 953d
00000390: dc08 05be a60c 193e 1ef1 0d3f a8bf 77be
000003a0: 002f 9fbd c0d3 783c 529c 603f 54ef f4be
000003b0: 490e 353e dc05 033f 40ba 40bc c04c 99bc
000003c0: 2375 153f 1cd3 0c3e 9788 d43e 5e73 ce3e
000003d0: 7993 273f cb9c 383d a014 323e 4d55 2e3f
000003e0: 4aa2 fcbc 74ea c63e c33d d63e 9610 003e
000003f0: 803b bdbc b030 8c3e 686a bdbe ece7 1b3e

fc_1.bias f4 [128]
0.39630708 0.48528418 -0.09598464 -0.6803691 0.41959783 0.22059485 0.4578449 0.1463194
0.06092331 -0.42059293 -0.019803822 0.55831856 0.543137 -0.33195794 0.70606345 -0.28894153
0.5970542 0.03437783 -0.5269256 0.11311964 0.6052045 -0.2825238 0.33965063 -0.4245742
-0.35316166 -0.22304742 -0.6620946 -0.35006794 -0.38087735 -0.5124374 0.2024206 0.5224721
0.3651241 -0.54541737 0.61819875 0.40416896 -0.4882989 -0.52813625 -0.45330814 0.37674433
0.20471032 0.6573832 -0.14406739 0.5180835 -0.3478557 0.21603 -0.6284531 0.52585644
0.1255694 -0.608777 -0.253474 -0.4866887 -0.43382654 0.1104872 0.27663037 -0.4551573
0.37621126 0.15392372 -0.15029895 -0.5848163 -0.44660866 -0.0006873827 -0.42174008 -0.5769708
0.4734917 -0.63654643 0.6515509 -0.38461342 -0.19551048 -0.5228475 -0.6686734 -0.56691605
0.48193523 -0.589082 0.3453137 0.40127966 0.5197862 -0.2784091 -0.118880145 0.28737515
0.5149265 -0.29326838 -0.29865864 0.20370883 0.2984158 0.54191947 0.23529714 -0.49427244
-0.46089888 0.053701427 0.00045927239 -0.69559884 0.58151245 -0.7066052 0.3582089 0.44887564
0.50685203 0.45919874 -0.21606615 0.28479555 -0.54782766 0.2473652 0.55422294 0.694876
0.2987671 0.4433844 0.6763238 0.19063011 0.5995893 0.57037497 -0.033763945 -0.3727945
0.057281543 0.26877314 0.12181456 0.34751612 -0.5943895 -0.19038889 0.36807874 -0.03903842
-0.6354817 0.52680916 -0.3867631 0.41087198 0.34191963 0.00027998607 -0.69246614 0.21042675
00000000: c3e8 ca3e 2b77 f83e 9893 c4bd ab2c 2ebf
00000010: 87d5 d63e 9ee3 613e a66a ea3e c1d4 153e
00000020: b98a 793d f557 d7be a03b a2bc f7ed 0e3f
00000030: 070b 0b3f 64f6 a9be 93c0 343f 25f0 93be
00000040: 8bd8 183f c4cf 0c3d 99e4 06bf 45ab e73d
00000050: afee 1a3f f6a6 90be b0e6 ad3e ca61 d9be
00000060: 9bd1 b4be 8b66 64be 087f 29bf 1b3c b3be
00000070: 5b02 c3be 192f 03bf 5947 4f3e bbc0 053f
00000080: 8cf1 ba3e 79a0 0bbf 4642 1e3f 3cef ce3e
00000090: 5002 fabe f033 07bf 0118 e8be a2e4 c03e
000000a0: 959f 513e 444a 283f 6786 13be 1fa1 043f
000000b0: 241a b2be f836 5d3e 4de2 20bf 879e 063f
000000c0: 4495 003e cfd8 1bbf 58c7 81be 432f f9be
000000d0: 831e debe 1d47 e23d 7fa2 8d3e 610a e9be
000000e0: c39e c03e 2e9e 1d3e f8e7 19be 85b6 15bf
000000f0: e4a9 e4be 7931 34ba 51ee d7be 5cb4 13bf
00000100: 816d f23e b5f4 22bf 0acc 263f 0dec c4be
00000110: e633 48be 55d9 05bf 2e2e 2bbf 6921 11bf
00000120: 37c0 f63e 14ce 16bf f5cc b03e 8774 cd3e
00000130: b510 053f a38b 8ebe 6f77 f3bd d622 933e
00000140: 39d2 033f 4627 96be c9e9 98be 0c99 503e
00000150: f5c9 983e 3cbb 0a3f bcf1 703e 4711 fdbe
00000160: f0fa ebbe 07f6 5b3d 7fca f039 c412 32bf
00000170: 00de 143f 14e4 34bf 2867 b73e 07d3 e53e
00000180: 0ec1 013f 191c eb3e 7240 5dbe b9d0 913e
00000190: 6f3e 0cbf 4e4d 7d3e 8ee1 0d3f 65e3 313f
000001a0: 00f8 983e 4803 e33e 8e23 2d3f 8a34 433e
000001b0: af7e 193f 1804 123f 104c 0abd ecde bebe
000001c0: 0da0 6a3d a29c 893e e979 f93d a2ed b13e
000001d0: e929 18bf 4ef5 42be d174 bc3e c0e6 1fbd
000001e0: eeae 22bf f7dc 063f d005 c6be d05d d23e
000001f0: 1710 af3e 18cb 9239 7645 31bf 1c7a 573e

fc.weight f4 [1, 128]
-0.010046262 -0.10859481 0.08643826 -0.018530466 0.010309302 0.040912703 -0.03984677 0.109352656
0.03646412 -0.08026262 -0.016011596 -0.030579139 -0.0048911315 -0.08805043 -0.06008021 0.1782716
0.005714198 0.11592146 -0.08009329 -0.002219665 -0.00938447 -0.08386594 -0.057115022 0.008307047
-0.04525479 0.27029404 -0.044620395 0.04996985 -0.055255193 -0.06618549 -0.05737028 -0.048300024
0.0021611163 -0.076942876 0.05967057 -0.01628465 -0.063018486 -0.112209916 -0.068372026 0.010529634
-0.050184667 0.01927992 0.028766263 0.017713599 0.0005325827 0.0046980283 -0.0012720227 0.053944465
-0.15113471 0.070788465 0.059486337 0.0656083 0.03461335 -0.035404 -0.044758208 -0.054360174
0.0105050085 0.07502417 0.034166344 0.055710666 -0.056040168 0.1588079 -0.029814374 -0.04213157
-0.051589 0.06272233 -0.0879441 -0.042090762 0.10655398 0.06446915 -0.03937602 -0.05395198
0.068999976 -0.0028722659 0.05385839 -0.0769012 0.0690992 0.001548782 0.09088357 -0.06761637
0.08981574 0.077878065 -0.039832775 0.052073475 -0.06307468 0.044028237 0.03577947 -0.04458496
-0.040985048 0.03122041 0.091862194 0.066977836 -0.012382611 0.083980285 0.056990355 0.06988757
-0.0782528 0.077541254 0.37612832 -0.030916287 0.0028080046 -0.037620477 -0.01593503 0.05197871
0.015008827 0.033561565 0.03661997 0.094272934 0.010187401 -0.013324026 0.030205064 -0.08722593
-0.07519596 -0.026519952 -0.02688935 0.08135492 0.05214595 0.3034605 -0.008959446 0.04480041
-0.054642588 0.017543096 0.027260754 0.019792676 -0.07793512 0.099578016 0.07215483 -0.12834363
00000000: 1499 24bc f566 debd 8b06 b13d 34cd 97bc
00000010: 59e8 283c 1494 273d 5e36 23bd 49f4 df3d
00000020: 675b 153d ba60 a4bd c02a 83bc 1a81 fabc
00000030: c945 a0bb c953 b4bd ab16 76bd d58c 363e
00000040: 2b3e bb3b 3b68 ed3d f307 a4bd cd77 11bb
00000050: 52c1 19bc e8c1 abbd 71f1 69bd 481a 083c
00000060: 165d 39bd fb63 8a3e e0c3 36bd 2fad 4c3d
00000070: 4553 62bd 428c 87bd 19fd 6abd 3fd6 45bd
00000080: 84a1 0d3b 3a94 9dbd 2169 743d 6367 85bc
00000090: d60f 81bd 50ce e5bd a206 8cbd 7c84 2c3c
000000a0: 708e 4dbd ecf0 9d3c 3aa7 eb3c 1c1c 913c
000000b0: 059d 0b3a ebf1 993b 00ba a6ba dff4 5c3d
000000c0: 0fc3 1abe 8bf9 903d f2a7 733d a55d 863d
000000d0: bac6 0d3d c903 11bd 6254 37bd c6a8 5ebd
000000e0: 331d 2c3c 46a6 993d 02f2 0b3d de30 643d
000000f0: 608a 65bd 8a9e 223e 463d f4bc 2792 2cbd
00000100: fd4e 53bd 9174 803d 091c b4bd 5d67 2cbd
00000110: f938 da3d 6708 843d c048 21bd c0fc 5cbd
00000120: dc4f 8d3d a03c 3cbb 9d9a 5c3d 607e 9dbd
00000130: e283 8d3d 8000 cb3a 2a21 ba3d 747a 8abd
00000140: 51f1 b73d 897e 9f3d b127 23bd ff4a 553d
00000150: 4c2d 81bd f456 343d 7e8d 123d b89e 36bd
00000160: f0df 27bd f2c1 ff3c 3f22 bc3d ad2b 893d
00000170: 6fe0 4abc dbfd ab3d b86e 693d 3721 8f3d
00000180: 0143 a0bd f3cd 9e3d e493 c03e 2744 fdbc
00000190: 8006 383b ee17 1abd 2e8a 82bc a1e7 543d
000001a0: 95e7 753c da77 093d d2fe 153d 2b12 c13d
000001b0: 0fe9 263c 044d 5abc 9c70 f73c 82a3 b2bd
000001c0: 5700 9abd 5f40 d9bc 0e47 dcbc 699d a63d
000001d0: fe96 553d 2d5f 9b3e a4ca 12bc a280 373d
000001e0: e8d0 5fbd 8ab6 8f3c f251 df3c 4024 a23c
000001f0: 739c 9fbd 8fef cb3d e9c5 933d 836c 03be
