Model/058650_5591.pth (torch, 4687 bytes, 7 tensors)

lstm.weight_ih_l0 f4 [8, 5]
000000 60 73 86 3e 35 31 19 be 89 19 13 3f d4 65 36 be
       0.262599 -0.14960177 0.5746084 -0.17812282
000010 67 f6 9b bd 5b 39 f7 3d 56 7e f8 3e c5 e6 9b be
       -0.07615357 0.120714866 0.48533887 -0.304495
000020 1d 7d 4b bf c9 a7 aa ba b1 52 90 be 94 dd 0d 3e
       -0.7948778 -0.0013019975 -0.2818809 0.13854057
000030 20 d0 2a 3e ec d1 f4 be 62 c8 f2 3e 80 3d f0 3d
       0.16680956 -0.47816408 0.47418505 0.1173048
000040 78 56 0b be 22 72 ff 3e 4c 08 f0 be b6 17 df be
       -0.13607204 0.49891764 -0.4688133 -0.43572778
000050 df 95 28 3c 99 75 b3 3e a8 d1 22 3f 7f 9f b5 bd
       0.010289638 0.35050657 0.6360116 -0.08868312
000060 f8 e3 ad bb a7 7f b1 bd ea fc 61 bd 68 81 a1 be
       -0.005306717 -0.08666926 -0.05517284 -0.31544042
000070 56 e0 3f 3d 69 e2 a6 b9 92 fd c2 3e 6d 73 21 3f
       0.046844803 -0.00031830676 0.38084084 0.6306675
000080 68 e9 c0 be b3 d4 1d 3f 18 1a d4 3e 4b c7 92 3e
       -0.37678075 0.6165268 0.41426158 0.28667673
000090 7f b5 27 bd 06 24 0a 3e 28 de 08 bf ba 63 6d 3b
       -0.040944573 0.13490304 -0.53463984 0.0036222772

lstm.weight_hh_l0 f4 [8, 2]
000000 3c 9e 87 be 59 53 29 3f e0 3e cb 3c 10 49 fd bd
       -0.2648791 0.66142803 0.024810255 -0.12367451
000010 11 41 fc be 9f 52 15 3f cf 97 10 3f 05 a7 05 3f
       -0.49268392 0.58329195 0.5648164 0.52207977
000020 17 ba 34 bf a3 3d 1d 3f 5a a6 55 be 40 39 15 bd
       -0.7059645 0.61422175 -0.2086424 -0.03643155
000030 f8 46 36 be 0e ba 14 bf 50 0d c3 bd d2 a9 d6 3e
       -0.1780051 -0.58096397 -0.095240235 0.41926438

lstm.bias_ih_l0 f4 [8]
000000 77 f1 d3 3e 50 7f cf 3e dc 57 4f 3e d4 7c 41 3e
       0.4139516 0.4052682 0.2024836 0.18895274
000010 f4 5b 26 be f5 d7 03 bf 01 92 70 3e b6 f9 4c 3f
       -0.16246015 -0.515014 0.23493196 0.8006853

lstm.bias_hh_l0 f4 [8]
000000 a0 93 78 3e a7 1c bb 3d 78 ea 2c bf 7e 7e 16 bf
       0.24275064 0.091363244 -0.6754527 -0.5878676
000010 01 1e ff 3d 6c 51 09 3f 41 99 58 3e fa 94 28 3f
       0.12456895 0.53639865 0.21152212 0.6585232

fc_1.weight f4 [128, 2]
000000 8f 6e 19 3f 6e 13 26 3f 9e 21 03 be 31 5d f0 3e
       0.59934324 0.648734 -0.12805793 0.469461
000010 d1 b8 2d bf 9f cc 94 3d 42 e5 f6 3e 6d 33 9f 3e
       -0.6786013 0.07265591 0.48221785 0.31093922
000020 b5 09 00 3c 56 25 37 3c 1d 9a 26 3f 0e f5 ab be
       0.007814814 0.011178335 0.6507891 -0.335854
000030 f0 6b 72 3e 3f 61 56 be b8 25 2c bf 84 6b 11 3e
       0.23673987 -0.20935534 -0.67245054 0.1420117
000040 75 2d 33 bf 49 d2 5c 3f 78 2f ff be 4c 3c 06 bf
       -0.69991237 0.8625837 -0.49840903 -0.52435756
000050 13 1d ab 3e 06 78 2c 3d d1 6d 22 bf c0 6c e0 3e
       0.3342062 0.04210665 -0.63448817 0.4383297
000060 80 e9 56 3c dd 72 91 be 6e 50 be 3e 20 e9 d8 bc
       0.013117194 -0.28407946 0.37170738 -0.02647835
000070 3d 3d 2c bd 06 8f c8 3e 71 e5 24 bd 32 3b 53 bc
       -0.04205059 0.39171618 -0.040257875 -0.012892531
000080 d1 91 17 bf 49 cd 2e 3f 10 e6 ca be e8 43 2c 3f
       -0.59206873 0.6828199 -0.3962865 0.67291117
000090 f9 ad eb 3e 07 4e b9 3e d6 a1 30 bf 0b 9d b7 be
       0.46031168 0.36192343 -0.6899694 -0.35862002
0000a0 6c 10 4d 3e c6 af df 3e 28 67 38 3f f2 a1 5c be
       0.20025796 0.43688792 0.72032404 -0.21546152
0000b0 e9 2e 6e 3e b0 d1 13 bf 51 61 f9 bd 05 07 07 bf
       0.23260082 -0.5774183 -0.12176765 -0.52745086
0000c0 27 8d 1b 3f f2 0e da 3e a2 3e 16 bf 32 a0 c5 be
       0.60762256 0.42589527 -0.5868932 -0.38598782
0000d0 5f c3 2e 3e 2a a1 44 3f 9d ad 9f 3d 55 62 22 bf
       0.17066716 0.76808417 0.07796786 -0.6343129
0000e0 d0 2d 9c 3d 65 cf 9b be fa 10 d9 3e 90 0a e1 be
       0.076259255 -0.30431667 0.42395765 -0.4395337
0000f0 a6 62 90 be 58 a4 62 3e 89 a0 23 3f 3e f1 a6 3e
       -0.28200263 0.22133005 0.6391683 0.32605928
000100 31 b4 21 3f f6 84 cb 3e 12 19 24 bf 83 4a 2b 3f
       0.63165575 0.3974988 -0.64100754 0.6691057
000110 f6 94 4d be 70 8f c6 3d fe 7f 89 3e 9c 26 8a be
       -0.20076355 0.09695327 0.26855463 -0.26982582
000120 7c 77 af 3e d1 82 8b be a1 96 28 be 29 b8 53 3e
       0.34270847 -0.27248242 -0.1646371 0.2067572
000130 c2 ad 8f 3e 9a 65 2b 3f 70 3a 0e be 3f ef ca be
       0.28062254 0.66951907 -0.1388948 -0.39635655
000140 9b 7d 0a 3f 69 a3 23 3f 31 bb 9f be 54 26 b5 bd
       0.5409791 0.6392122 -0.31197503 -0.08845201
000150 69 a3 62 bf 2f d5 44 3f a6 6b aa be b0 20 d1 3d
       -0.88530594 0.7688779 -0.33285254 0.10211313
000160 f6 08 17 3f fd d8 68 3e 12 31 72 be 69 6c 45 be
       0.5899805 0.22739024 -0.23651531 -0.19279636
000170 d3 ab 9f be d5 34 05 3f 01 cb c8 be ac f7 00 3e
       -0.3118578 0.5203374 -0.3921738 0.1259448
000180 a1 12 d6 be b9 0b fc be 38 c0 7e be 62 c9 d1 be
       -0.41811088 -0.49227694 -0.24878013 -0.40973955
000190 aa 94 69 be e2 80 6d be df 54 0d bf 38 e3 df 3e
       -0.22810617 -0.23193696 -0.5520763 0.43728042
0001a0 80 1b 37 be c0 a3 31 bf 3a 98 c6 3e 28 82 fa be
       -0.17881584 -0.6939049 0.38788015 -0.48927426
0001b0 6c 9e cc bd df 81 0d 3f 01 9e 18 be b5 cd 81 bd
       -0.09991154 0.5527629 -0.14904024 -0.06338064
0001c0 3d 40 24 be b1 a0 e4 3e 94 0a f3 be e0 f6 52 be
       -0.1604013 0.44653848 -0.47469008 -0.20601988
0001d0 e2 77 d3 3e 2e 70 e0 3e 10 83 0b bd 10 9e 9f 3d
       0.413024 0.43835586 -0.034060538 0.0779382
0001e0 96 b3 c1 bd 3f 6a 2d 3e 12 fc 7e 3e 60 71 18 bf
       -0.094580814 0.16935061 0.24900845 -0.59547997
0001f0 75 76 93 3e 95 eb 87 be f8 63 02 bf 76 1c 60 3f
       0.28801313 -0.26546922 -0.5093379 0.8754343
000200 28 db 1a bf 80 ae b8 bd 7b 4e d7 3e 1c b4 0e 3f
       -0.60490656 -0.09017658 0.42052063 0.55743575
000210 0d dd 1f 3f 01 6e 0e bf 4d 7a a3 3d 24 aa 80 be
       0.6244667 -0.556366 0.079823114 -0.25129807
000220 2a d2 d5 3e ea 11 f6 bc 40 23 07 3c 00 9a 50 3c
       0.41761905 -0.030037839 0.00824815 0.012732029
000230 94 84 1c be d6 de d1 be b3 bb da 3d 6e 7f 27 bf
       -0.1528495 -0.40990323 0.10680332 -0.6542882
000240 36 15 1d 3f 91 ca c9 be ba 65 60 be 51 1c 21 3e
       0.6136049 -0.39412358 -0.21913806 0.15733458
000250 b9 d7 f5 3e 32 63 04 3f 90 64 7a bd 20 c0 63 bd
       0.48016146 0.5171386 -0.06113106 -0.055603147
000260 4a 38 e9 be fe 49 09 3e a0 63 06 bf e4 2e 0a 3f
       -0.45550758 0.13407132 -0.52495766 0.539778
000270 bd ef 39 bf df 82 72 be da 24 ee be a4 0d 21 3f
       -0.72631437 -0.23682736 -0.4651249 0.6291144
000280 df 99 04 3f 91 0e 05 bf 3e c0 0c be cc a3 16 be
       0.5179729 -0.5197535 -0.1374521 -0.14710921
000290 f2 43 99 3e 90 49 4a bd f9 e8 73 37 da 79 cd be
       0.2993465 -0.04938656 1.4538172e-05 -0.40132028
0002a0 6d 1f 3d bf d2 2a c6 be 5d da 37 3f 0b 35 29 3e
       -0.73876077 -0.38704544 0.7181757 0.1652414
0002b0 b5 f9 0f 3f c1 70 b7 3e 8a bb a9 3e 9e e8 23 bf
       0.562404 0.35828212 0.33150893 -0.6402682
0002c0 ec 46 b4 3d e5 db be 3d 0c 81 68 3d 81 24 3e be
       0.0880259 0.09319285 0.056763694 -0.18568613
0002d0 36 ad 4a 3f b7 33 02 bf b0 7b df 3d 15 18 1c 3f
       0.7917055 -0.5086016 0.109122634 0.60974246
0002e0 25 bc 18 3f 43 89 21 3f cb 60 e3 3e 2a 36 98 3d
       0.59662086 0.6310007 0.44409785 0.07432206
0002f0 de e9 86 be 30 03 27 3e ae db 19 bf 54 66 54 3e
       -0.26350302 0.1630981 -0.6010083 0.2074216
000300 83 4a 8c 3d 8a e9 6e be 95 c8 08 bf ae 4e 3f bd
       0.068501495 -0.23331276 -0.53431064 -0.046705894
000310 48 68 6e 3e 13 25 a8 bd cf 19 fc 3e c6 6c 25 bf
       0.23281968 -0.08210196 0.4923844 -0.646191
000320 e1 de 18 bf 25 24 3e 3f 25 b6 18 3f 1c 8c 04 be
       -0.59715086 0.742739 0.5965293 -0.12944072
000330 94 ba bb be 70 dc e9 3d 0f ba 89 be 03 2f 55 be
       -0.36665785 0.11418998 -0.26899764 -0.20818715
000340 63 fd 19 3f 48 5f 4f 3e 56 7f 4f 3e 58 64 a1 3e
       0.6015226 0.2025119 0.20263419 0.3152187
000350 bb d4 c1 be 48 82 8d be 54 8e 10 3f dc de ec 3e
       -0.37857613 -0.2763846 0.56467175 0.46263778
000360 2b 6a 0f 3f a8 f2 85 bd ce 43 df be c1 3b ef be
       0.56021374 -0.06540424 -0.43606418 -0.46725276
000370 0c 15 29 3f 97 99 dc be c9 2e 36 bf 64 fd 36 3f
       0.6604774 -0.4308593 -0.7116514 0.71480393
000380 c0 a7 9b bd 10 f4 f7 be 53 af 3f 3f ce 86 e1 3e
       -0.07600355 -0.48428392 0.748769 0.4404816
000390 59 15 9e be a8 f3 df be 30 a3 82 be 30 3a 40 bd
       -0.30875662 -0.43740582 -0.25515127 -0.046930492
0003a0 6c 96 cf be ac 69 08 bf 78 4c 28 3f 1d ba 26 3e
       -0.4054445 -0.5328624 0.6574168 0.16281934
0003b0 7c 6d c0 3e 6b f2 e6 3e a0 9f 7a 3e 00 e5 67 bd
       0.3758353 0.45106825 0.24474955 -0.056614876
0003c0 a5 c4 dd 3e a8 ac f4 be 56 91 33 bf 8d 06 a2 be
       0.4331409 -0.47787976 -0.7014364 -0.31645623
0003d0 54 f5 11 3f 8c 86 0b 3e 3a b1 94 be cf 72 e6 3e
       0.57014966 0.13625544 -0.29041463 0.45009467
0003e0 8f bd 9c be c6 d4 8f be 23 1a 60 3e 20 9a e8 3c
       -0.30613372 -0.2809202 0.2188497 0.028393805
0003f0 02 8e 11 bf f9 07 9b 3e 10 ce 2e bf 32 06 0a 3f
       -0.5685731 0.3027952 -0.68283176 0.53915703

fc_1.bias f4 [128]
000000 0b ea c4 3e de 38 ac 3d 79 17 0d 3e 5a b9 c3 3e
       0.3845981 0.08409284 0.13778485 0.3822735
000010 f5 ee be 3e 8d 19 26 bf 71 10 e1 3d 1a f1 a8 be
       0.37291685 -0.6488274 0.10989464 -0.32996446
000020 27 35 9e be d1 b9 0d 3f e0 df 4a bb 0d f3 88 3c
       -0.30899927 0.5536166 -0.0030956194 0.016717458
000030 20 84 a7 be 82 ec 00 bf cf 46 e6 3e 29 ea 7a 3d
       -0.3271799 -0.5036088 0.44975898 0.06125847
000040 0c 1c 11 3f 61 56 02 be 4c b2 89 bd c0 65 12 bc
       0.5668342 -0.12728263 -0.067234606 -0.008935392
000050 06 bb b4 be e4 9b 5b be 29 aa 0b 3f 2b e6 04 3f
       -0.35298938 -0.21446186 0.5455652 0.5191371
000060 b0 55 ec be cf 66 19 bf e8 0a a5 3c 4b 7a 5b 3e
       -0.46159124 -0.599225 0.020146802 0.2143337
000070 0f 0e 0e bf 3c 0e 92 3e fe b0 2e 3e 42 c1 c8 be
       -0.554902 0.28526485 0.17059705 -0.39209944
000080 07 e1 2c bf c8 12 fa be b0 51 45 3e 6d 37 83 be
       -0.67530864 -0.48842454 0.19269443 -0.25628224
000090 5e bf 4d 3e 21 b0 2a 3e 20 8d 75 be 03 a2 85 be
       0.20092532 0.1666875 -0.23979616 -0.26100168
0000a0 d6 dd c8 3d a5 3b 7e 3e f8 e4 28 3d ee b1 ef be
       0.09807937 0.2482744 0.041233987 -0.46815437
0000b0 9b 96 b4 bc ed bf 29 3f db a2 99 3e f1 36 9e be
       -0.02204447 0.6630848 0.3000706 -0.30901292
0000c0 ca 5a 37 3e 23 cd 1e 3f df 35 ab be d3 1a 34 3e
       0.17905727 0.62031764 -0.33439538 0.17588358
0000d0 7e 8d 17 bf 87 a2 2d bf 4d ad 6d 3e af d1 30 3f
       -0.59200275 -0.6782612 0.2321064 0.6906995
0000e0 f7 c0 00 3e e0 1c 8a bd b1 39 85 be a2 ac bb be
       0.1257361 -0.06743789 -0.26020578 -0.36655146
0000f0 df 20 9d 3d 9d 2d 27 3f 73 71 36 3e e9 8e a0 be
       0.07672285 0.65303975 0.17816715 -0.31359032
000100 34 c4 51 be 21 9a 06 3f d8 6b fa be da db ab 3e
       -0.20485002 0.5257893 -0.48910403 0.3356617
000110 7b af 8c 3e 0f 59 10 bf cb b3 06 3f 05 93 15 3f
       0.2747763 -0.5638589 0.5261809 0.5842746
000120 22 32 18 3f d6 2c 1e 3f ef 3a fd 3d 42 aa 91 be
       0.59451497 0.61787164 0.12364756 -0.2845021
000130 a9 9d ac 3e 32 3c 17 3f 19 f5 01 3f 88 c4 90 3e
       0.33714035 0.59076226 0.50764614 0.2827494
000140 da e7 22 3f 38 36 ce 3e 38 e7 da be 51 2d 0e 3e
       0.6363503 0.4027574 -0.4275453 0.13884474
000150 74 fb a7 3e 0f a8 96 bd b2 9b 66 3d 0f f5 ae be
       0.3280903 -0.073562734 0.056300826 -0.3417134
000160 9e d1 6c 3e 5b 83 73 3e 47 2a 30 3e de e7 eb be
       0.23126838 0.23780577 0.17203628 -0.46075338
000170 a7 21 24 3f c6 34 d9 3e ac 1f 30 be 18 ca 32 be
       0.6411385 0.42423075 -0.17199582 -0.17459905
000180 b0 27 30 3f bd 6a 21 3f 2b c9 82 3d 35 f7 86 3e
       0.6881056 0.63053495 0.06386026 0.2636048
000190 25 48 54 be 7e 25 83 3e 94 35 1c bf 5a 22 df 3e
       -0.20730646 0.25614542 -0.61019254 0.43580896
0001a0 fe ea dd be c6 81 eb 3d 08 54 ee 3e 7e ea d5 3e
       -0.43343347 0.11499362 0.46548486 0.41780466
0001b0 9f 9e 95 be cf a5 18 bf b5 cf 14 3e d5 ac a5 3d
       -0.2922258 -0.59628004 0.14532359 0.08089606
0001c0 05 4b 27 3e 43 ee 1d 3f b2 36 72 3e f4 18 7f be
       0.16337211 0.61691684 0.23653677 -0.24911863
0001d0 d8 3b 94 bd f6 89 73 3e bd af 05 3d 96 1c 69 be
       -0.07237977 0.23783097 0.0326383 -0.22764811
0001e0 6b 76 8d be c4 57 06 be a6 aa d8 bc f1 a2 ff 3d
       -0.27629408 -0.13119417 -0.026448559 0.124822505
0001f0 90 6c 3c be 37 e0 0b be 47 2c 19 3e cb 25 9a be
       -0.18400788 -0.1365975 0.14958297 -0.3010696

fc.weight f4 [1, 128]
000000 7e 97 a9 bd 0b fd 7c bd 5c 3a 85 bd be d3 1f bd
       -0.08280848 -0.061764758 -0.06505272 -0.039020292
000010 d0 a9 26 3d 00 90 94 3c f9 65 f9 3d 00 a5 ec bb
       0.04068929 0.01813507 0.12177653 -0.007221818
000020 85 46 7a 3e d3 eb dd bc 31 41 cd 3d ec 01 92 bd
       0.24440964 -0.027089989 0.100222 -0.07129273
000030 c0 76 b1 bd f1 d6 86 bd 84 86 7c bb 77 37 7b bd
       -0.08665228 -0.065839656 -0.0038532326 -0.061332192
000040 60 82 8d bd a7 e1 75 bd e6 40 08 bd 7b c6 8a 3d
       -0.06909633 -0.060029652 -0.033265017 0.067761384
000050 9e 0f 86 bd 01 2d 79 3e 0e b6 c9 bc 5c 08 c5 3d
       -0.065459475 0.24333574 -0.024622943 0.09620735
000060 fe ff 1e 3d 3c 1c d9 3c f1 cf b3 bd e7 89 e1 3d
       0.038818352 0.026502721 -0.08779896 0.11012631
000070 7f 82 39 bd 87 c1 20 bd 00 18 b5 bc 35 49 86 ba
       -0.045290466 -0.039247062 -0.02210617 -0.0010245206
000080 6e a8 52 3d 7c 07 7c bd 55 8d 92 3d 60 93 8a 3c
       0.05143016 -0.061530575 0.07155863 0.016915977
000090 b3 7b 5a 3d 7a 67 7f bd 91 66 26 3e 10 b7 d4 3c
       0.053340625 -0.062354542 0.16250063 0.025966197
0000a0 e0 09 7e 3d 6e a7 94 bd fd c0 b3 bd 4c cb 56 bd
       0.062021136 -0.07258497 -0.08777044 -0.052439973
0000b0 38 20 56 3e 39 7c 9d 3d fc d6 00 bd d0 ed 01 3d
       0.20910728 0.07689709 -0.031455025 0.031720936
0000c0 e2 64 a6 3e 5b 32 ed 3c 90 72 21 bc 1d 39 9d bc
       0.32498842 0.028954675 -0.009853974 -0.019192273
0000d0 f3 c0 6c bd ca 63 9c bd 8e 50 62 3d da bc 96 bd
       -0.0578012 -0.07636221 0.055252604 -0.07360239
0000e0 d7 e7 c8 bd 00 08 e1 3b d9 5f 93 3d 29 6d 9d 3d
       -0.09809845 0.0068674088 0.07196016 0.07686836
0000f0 1a a7 10 3d 6f db d5 bc ac c7 d7 3d 23 b4 74 3e
       0.03531561 -0.02610561 0.10536131 0.23896842
000100 75 16 75 bd 53 86 1e bd 99 5c af 3d da f7 52 bc
       -0.05983587 -0.03870232 0.085625835 -0.012876475
000110 34 7c 0b 3b 04 31 f6 3c 1f c9 47 bd 07 45 b5 bc
       0.0021283748 0.03005267 -0.04877579 -0.022127641
000120 8c 37 ad 3d 77 a1 e2 bc 04 72 44 bc df 6a 89 bd
       0.0845786 -0.027664883 -0.011990074 -0.06709837
000130 6a 9c 5f 3c 9f 98 2f bd 91 18 68 bd df 2d 6c bd
       0.013648132 -0.04287016 -0.056664053 -0.057660934
000140 c6 d5 c1 3d cb a7 21 3d cf d0 63 bd 63 e7 e2 3d
       0.09464602 0.03946666 -0.055619057 0.1107929
000150 60 53 64 3d 13 29 37 3e 8b bb 9a 3d 2b 84 96 3d
       0.055743575 0.17886762 0.07555302 0.07349428
000160 4f 68 45 bd b8 55 39 3b 5d 22 1f 3e 70 30 9c 3b
       -0.04819518 0.0028279852 0.15540452 0.0047665164
000170 fd ae b2 3d 59 38 90 bd 30 26 0e 3d 60 bd 9a 3b
       0.087247826 -0.070419975 0.034704387 0.0047222823
000180 ae 6c d0 3d 45 a1 be 3d 72 05 1c 3d 5e 4d 79 3d
       0.10176979 0.093081035 0.03809113 0.0608648
000190 f4 5f 1b be 92 62 b4 3d d8 82 03 3c 65 b5 5d 3d
       -0.15173322 0.08807863 0.008026801 0.05412807
0001a0 de 9f 94 bd b9 cb 95 3c b6 f7 01 bc cd 40 8a bd
       -0.07257055 0.01828562 -0.007932594 -0.06750641
0001b0 b7 0f 0f 3f ed c2 38 bd 8c 72 84 3d 52 86 f0 bd
       0.55883354 -0.04510777 0.064671606 -0.117443696
0001c0 36 4d 21 3e b3 e5 97 3d e0 d2 ad bc 51 f5 29 bd
       0.1575211 0.074168585 -0.021218717 -0.041493718
0001d0 45 19 5f bd 69 96 bc 3d 1a ac b1 bd 2e aa 7e 3d
       -0.05446746 0.09208376 -0.08675404 0.062174015
0001e0 53 fa d3 bb f6 bb 52 3d 47 e8 88 be 30 6a 8c 3d
       -0.00646905 0.051448785 -0.26739714 0.06856191
0001f0 25 b7 b4 3d 36 af 32 bd bc 6c 43 bc 08 c3 03 bd
       0.088239945 -0.043624125 -0.01192778 -0.03216842
