Model/159650_8327.pth (torch, 4687 bytes, 7 tensors)

lstm.weight_ih_l0 f4 [8, 5]
000000 0e b5 da 3a bb 20 81 bc 2d a3 b9 3c c9 12 39 bf
       0.0016686039 -0.015762677 0.022660816 -0.7229429
000010 c9 0b f8 be 56 46 53 3f 1a 46 27 3e 8a 59 12 3d
       -0.4844649 0.825292 0.16335335 0.035729922
000020 a5 c8 09 3e 05 fb a9 3e 00 43 17 bb 5a 0a cf 3e
       0.13455446 0.33199325 -0.0023080707 0.40437585
000030 10 97 8d 3e 9a a6 7f be 72 ae ba 3e f6 9c 83 3e
       0.27654314 -0.24965897 0.36461216 0.2570569
000040 47 78 aa be b7 e5 e0 be 13 14 11 3f 5c 54 06 bf
       -0.3329489 -0.4392526 0.56671256 -0.5247247
000050 36 7b 59 3e 75 b7 93 be d5 34 40 bf 60 18 39 3e
       0.21238407 -0.28850904 -0.75080615 0.18075705
000060 39 4f 20 be 2c 28 6a 3d d5 67 70 bc 0e 2b 06 3f
       -0.15655221 0.057167217 -0.014673193 0.52409446
000070 87 e7 8d bd 05 42 88 bc 50 6d 45 bf 7a 69 59 be
       -0.06928926 -0.016633043 -0.7711992 -0.21231642
000080 59 6c f8 be 85 4e 3d 3e 9d 35 7c 3e c3 d1 8e 3e
       -0.48520163 0.18486984 0.24629827 0.2789441
000090 38 07 3d 3f b6 22 46 3f 4b f9 c0 be cc ca 1a 3f
       0.7383914 0.77396715 -0.37690195 0.60465693

lstm.weight_hh_l0 f4 [8, 2]
000000 15 05 0c 3f 8c 58 84 be 24 6b 84 be 39 46 05 bf
       0.54695255 -0.25848806 -0.25862992 -0.52060276
000010 11 d2 1c 3f 82 50 c9 3e 01 46 14 bf 91 80 cb be
       0.61258036 0.39319235 -0.5791932 -0.39746526
000020 d0 4a 32 bf 96 c4 c8 3e e0 da 95 bc a9 53 03 3f
       -0.69645405 0.39212483 -0.018292844 0.5129953
000030 70 d4 5c be 90 17 2f bd 31 8c 92 be 2b 1e 0c bf
       -0.21565413 -0.04274708 -0.28622583 -0.5473353

lstm.bias_ih_l0 f4 [8]
000000 8c 4b c3 3e 6a a7 ad bd 3b ff 2a bf 52 18 f7 3e
       0.38143575 -0.08479197 -0.667957 0.48260742
000010 fe f8 a2 3a cb 59 c0 bd 94 22 3e be f2 e0 a9 be
       0.0012433825 -0.09392127 -0.18567878 -0.33179432

lstm.bias_hh_l0 f4 [8]
000000 d8 99 9a bb a0 38 a7 be c8 d1 af bd 33 1e eb be
       -0.0047180466 -0.3266039 -0.085849345 -0.45921478
000010 e7 82 12 3d de 92 e2 3e 29 b7 a1 be 67 6c 2e 3f
       0.03576937 0.44252676 -0.31585053 0.6813416

fc_1.weight f4 [128, 2]
000000 04 a8 80 be 27 eb aa 3d a7 af 18 bf 3e 10 8d bd
       -0.25128186 0.08345633 -0.59643024 -0.068878636
000010 6b 69 11 bf 2f f2 76 3e 7a 6e ec 3e d4 62 48 3e
       -0.5680148 0.24115823 0.46178037 0.1956895
000020 b9 f0 0a 3f 70 21 13 bd 9f 0b 36 bf 3f 6d e1 3c
       0.54273564 -0.03592056 -0.7111148 0.027517913
000030 e0 b7 0a 3d fa 3f 90 3e 1c 2e 94 3d de 26 dd 3e
       0.033866763 0.2817381 0.07235357 0.43193716
000040 3c 0d 05 be 71 f6 c4 3d 8c e2 70 3e da c6 a0 3e
       -0.1299333 0.096173175 0.23523921 0.31401712
000050 b4 50 ac 3e 02 e2 fe 3e a8 e0 f3 be e1 fd 09 bf
       0.33655322 0.49781805 -0.47632337 -0.53903013
000060 dc 86 05 3f 0d 2a 07 3f ec 14 28 bc 75 cb 45 3e
       0.52158904 0.5279854 -0.010258894 0.19315894
000070 94 4d e7 3e 8e de 12 be ea ca 38 3f 2c 2b f9 3d
       0.45176375 -0.1434271 0.7218462 0.121664375
000080 6d c9 ec 3e 74 d4 91 3e f3 5e b6 be a8 1e a7 bd
       0.46247426 0.284824 -0.35619316 -0.08160144
000090 40 15 0a 3c f0 ca 3b bd cb a4 04 bf 00 d6 fd 3d
       0.008427918 -0.045847833 -0.51813954 0.12394333
0000a0 08 65 fe bd db 58 08 bf 54 87 0e bf 20 09 61 3d
       -0.12421614 -0.5326058 -0.55675244 0.054940343
0000b0 98 d7 74 3e 9a b9 2a bf 4f 68 51 3f 0f 2c 33 bf
       0.23910367 -0.66689456 0.8179979 -0.69989103
0000c0 40 38 fe be a8 61 8a bd 52 fe f1 be 93 46 0c 3f
       -0.4965229 -0.06756908 -0.47264344 0.5479519
0000d0 a5 84 9b 3e 9a bc d8 be 20 11 3d 3f 4e 1c 9d bd
       0.30374637 -0.42331392 0.73854256 -0.07671414
0000e0 19 50 35 3f cb 28 b0 bf 70 cc 07 be 08 97 81 be
       0.70825344 -1.3762449 -0.1326158 -0.2531054
0000f0 4d a4 3f bf 12 74 7e bd c2 3d 03 bf 80 d1 1a bf
       -0.7486008 -0.062122412 -0.5126611 -0.6047592
000100 f0 c6 6b 3e 82 da de 3e 8b 61 dc 3e aa 7e f9 bd
       0.23025107 0.43526083 0.4304317 -0.121823624
000110 14 db 6d 3e 77 94 be be 8c bd ad bf 13 12 33 3f
       0.23228103 -0.37222645 -1.357347 0.69949454
000120 fc cd 6b bc ab aa 56 be c9 db e2 be 62 f8 02 bf
       -0.014392372 -0.20963542 -0.44308308 -0.5116025
000130 af 07 0b 3f f8 54 92 be 1c 41 15 bf 23 bd b3 3e
       0.543086 -0.2858045 -0.58302474 0.35105237
000140 4a 0f d7 be a2 8f 67 bc ec 3f b3 3e 0e 93 60 bd
       -0.42003852 -0.014133366 0.35009706 -0.054827742
000150 44 e3 d1 bd 0e 59 9b 3e 78 d0 a5 3e ad 27 29 3f
       -0.102484256 0.3034138 0.32385612 0.66076165
000160 3c ec 06 3d d2 ca 25 3f e8 b1 6a 3e 4f d0 db be
       0.032940134 0.64762604 0.22919428 -0.42932364
000170 46 60 c9 3d 76 44 2a 3f 78 53 0a 3f bf ce a9 be
       0.09832816 0.66510713 0.54033613 -0.33165547
000180 a1 30 2b be eb 7c 14 3f 0f 5a 22 3f 8c 67 8b be
       -0.16717769 0.5800311 0.6341867 -0.27227437
000190 ea f0 e0 be c4 87 86 3e 52 15 00 bf 8c 7f 3a 3f
       -0.43933803 0.26275456 -0.5003253 0.7285087
0001a0 0e 38 34 3e fa 2d d5 3c 43 6e c8 be 16 be 19 bf
       0.17599508 0.0260229 -0.39146623 -0.60055673
0001b0 64 f0 07 be c0 e4 4e 3c fb 0f 1f 3e 5d b7 73 3e
       -0.13275295 0.01262778 0.1553344 0.23800416
0001c0 1c ea aa 3e 7c 6a 54 bd b0 aa b1 3d f2 8b 82 3e
       0.33381736 -0.051859364 0.08675134 0.25497395
0001d0 9c fc ba be d0 79 b5 3d 65 32 1e 3f 0b aa 0e c0
       -0.3652085 0.088611245 0.61795646 -2.2291286
0001e0 b3 93 a1 3d f3 60 e0 3e 2e 13 07 3f 52 67 36 be
       0.078894995 0.43823966 0.5276364 -0.17812851
0001f0 e9 44 91 be 52 b8 bb be 20 ee 93 3d 65 08 07 bf
       -0.28372887 -0.36664063 0.07223153 -0.52747184
000200 f9 44 df 3d ea aa 4a bf 4c b6 0f be 88 c2 8f be
       0.10901827 -0.79167044 -0.14034384 -0.28078103
000210 01 ec 44 bf 4b ed 9e 3e f0 1c 8a 3d 80 62 ad bb
       -0.76922613 0.31040415 0.06743801 -0.005291283
000220 71 cb 15 3f 3b 7d 30 3f 4e 10 a3 3e a1 3e c3 be
       0.5851355 0.68941087 0.31848377 -0.3813372
000230 5d 88 92 3e 55 d1 36 3f ec 12 01 3e 9c e8 c3 be
       0.28619662 0.71413165 0.12604874 -0.38263404
000240 0d dd 3c 3e c6 41 f2 3d d8 2e 83 3e cb c0 83 be
       0.18443699 0.118289515 0.25621676 -0.25733027
000250 f5 65 13 3f 7e c1 e7 3d 8e 8f 2f be 87 89 3b 3f
       0.5757745 0.113162026 -0.17144606 0.73256725
000260 bf 38 83 be bd 7b 08 3f be aa 20 bf 2c 64 88 3e
       -0.2562923 0.5331381 -0.6276053 0.26638925
000270 2c f3 95 be 8a ff d9 3e 6a f3 45 bf 69 8f 83 3e
       -0.29287088 0.42577773 -0.77324545 0.2569535
000280 ed 6b b0 be b3 30 2a 3e b6 69 a5 3e d3 36 1c 3f
       -0.3445734 0.1662014 0.32307214 0.61021155
000290 f4 eb b2 3e a6 fd 58 be 61 5e 20 3f ef f4 01 3f
       0.34945643 -0.21190509 0.6264401 0.50764364
0002a0 ae 47 ef be 7e 22 09 3f 0b 80 45 bf ac cc 02 3f
       -0.46734375 0.53568256 -0.77148503 0.51093554
0002b0 c3 97 2f 3f e8 9d 0e be e8 0d ed 3d c0 bc 5a bc
       0.68590945 -0.13927424 0.11574918 -0.013350666
0002c0 c6 37 85 3e c8 60 04 bf 35 dc 48 bf 96 bc 99 be
       0.26019114 -0.51710176 -0.7846101 -0.30026692
0002d0 5a a4 d9 3e b4 04 9a be ba 09 49 3d dc 24 cc be
       0.42508203 -0.30081713 0.04908154 -0.3987187
0002e0 42 af 02 3f 0b d0 0d bf 16 d5 f0 3e 7c 22 44 be
       0.5104867 -0.55395573 0.47037572 -0.1915378
0002f0 b8 c7 9e 3e dd 6e f4 3e 84 11 4b 3e 9b ec 0d bf
       0.31011748 0.47740832 0.198309 -0.55439156
000300 03 ec 58 bf da e3 c5 bd 30 1c b1 3d e0 29 c3 3d
       -0.84735125 -0.096626 0.086479545 0.095294714
000310 a8 46 59 3e 80 d9 15 bc 5d f7 22 3f 0c 04 17 3e
       0.2121836 -0.009146094 0.63658696 0.14747638
000320 04 64 a8 bf bc c9 fb be 48 99 5c 3e 80 25 17 bc
       -1.3155522 -0.4917735 0.21542847 -0.009225249
000330 84 3c 18 bf 60 d1 38 3d 2c aa 53 3e 7b 5b 05 3f
       -0.5946734 0.04512155 0.20670384 0.52092713
000340 09 6a 22 3e 27 90 00 3f 82 72 8b 3e 1a 27 d1 bd
       0.15860762 0.5021996 0.272358 -0.10212536
000350 09 89 21 3e c1 e6 13 3e 19 9c 08 3f cf 76 ac be
       0.15774931 0.14443494 0.53363186 -0.33684394
000360 20 95 0b bf bf f4 df be 40 30 28 bf 00 b5 38 3e
       -0.5452442 -0.43741414 -0.65698624 0.18037796
000370 0a d9 9a 3e 86 91 2a 3f 56 96 b3 be 68 84 15 bf
       0.30243713 0.666283 -0.35075635 -0.5840516
000380 be 30 a1 be c6 ca 2e 3e 82 21 10 be 3e ed e9 3e
       -0.314825 0.1706954 -0.14075282 0.45688814
000390 56 bf 26 3f e1 cd cb be d9 cc 12 3f 36 48 19 3f
       0.65135705 -0.3980551 0.5734382 0.5987581
0003a0 74 80 18 3e 23 38 a0 be 2d 91 a3 3d 7b 6f 0a 3f
       0.14892751 -0.3129283 0.079866745 0.54076356
0003b0 37 55 32 bf 58 c1 4c 3e 35 0a fa 3e 4b b2 9b be
       -0.6966128 0.1999563 0.48835912 -0.30409464
0003c0 de 73 2d bf 94 2d d6 be 92 de 64 bd 6b 39 43 3f
       -0.67754924 -0.41831648 -0.055876322 0.7625949
0003d0 92 73 24 bf 98 f9 f8 bd 49 d1 89 bf 8e 85 28 3f
       -0.64238846 -0.12156981 -1.0766994 0.6582879
0003e0 4d 23 31 3f 68 b8 97 3d 6a 9f 66 bf eb 65 06 be
       0.6919449 0.074082196 -0.90086997 -0.13124816
0003f0 6b 37 ed 3d 3f 2b 48 3f d7 70 a9 3e 6c 3b c6 be
       0.11582836 0.7819099 0.33093902 -0.3871721

fc_1.bias f4 [128]
000000 d6 04 79 3e 1f 37 2c 3c a9 09 81 3e 0a a7 29 bf
       0.24318251 0.010511189 0.25202683 -0.66270506
000010 c1 6e c1 be 95 eb e5 3e b7 97 18 bf 83 6c 7e 3e
       -0.3777981 0.44906297 -0.596065 0.24846081
000020 c6 21 4a 3e 10 8f 25 3f 8b f3 ed 3e 83 62 a1 3e
       0.19739446 0.6467142 0.4647487 0.3152047
000030 4c ef 22 3e c9 84 bb 3e 05 5b 7e 3d 14 f1 25 be
       0.15911597 0.36624745 0.06209852 -0.16205245
000040 f2 84 ab 3e 34 2e 34 3f 14 b6 f4 be 38 d4 53 be
       0.33499867 0.70383 -0.47795165 -0.20686424
000050 1a ee f3 be 09 fd 24 bf 8f 59 30 bf 8f 92 59 3e
       -0.47642595 -0.644486 -0.68886656 0.21247314
000060 a0 7a 23 bd 9c 66 19 bf ab 63 90 3e 27 ff 0d 3f
       -0.039911866 -0.59922194 0.2820104 0.55467457
000070 5d c7 0e 3e 18 0f b7 be 54 31 b7 3e d8 9f 06 bf
       0.13943239 -0.35753703 0.35779822 -0.5258765
000080 a6 fe 0e bf 04 9b 01 3f ec b1 28 be b8 cd 99 bd
       -0.5585731 0.5062716 -0.16474122 -0.07509941
000090 fa c7 1d 3f a3 09 2b bf 12 88 17 bf 81 5d a9 3e
       0.61633265 -0.6681158 -0.59192 0.3307915
0000a0 e1 67 cb 3d 21 43 85 3e 31 b7 3d be 44 26 a6 3e
       0.09931923 0.26027778 -0.18526913 0.3245107
0000b0 a9 98 09 3f ca d3 33 bf db c2 1c bd 7b 61 2f 3e
       0.53748566 -0.7024504 -0.038271766 0.1712703
0000c0 b1 a3 a0 3e 42 7a 12 bf 67 65 8a 3e f9 2f 06 3f
       0.31374887 -0.572178 0.2703049 0.5241695
0000d0 33 57 df 3e 84 a6 0b bf e4 95 83 be a0 08 b5 3e
       0.43621215 -0.5455096 -0.25700295 0.35358143
0000e0 13 67 07 3f 71 55 09 bf 7c 57 bb be 78 27 83 3c
       0.52891654 -0.53646 -0.36590183 0.016010031
0000f0 b0 22 24 3f 4a 39 2b 3e c2 6c 21 3f ea cc c2 be
       0.6411543 0.16721073 0.63056576 -0.38046962
000100 1e b1 f9 3d 00 98 a2 3b 9d 2b c8 3e 60 ad 8d be
       0.121919855 0.0049619675 0.39095774 -0.27671337
000110 f9 ea 1a bf 4f be 0f 3e a3 8f 19 3e 3a 0e be be
       -0.6051479 0.1403744 0.149962 -0.3712023
000120 23 31 ec 3e 54 90 06 bf 9d 2d f9 3e 79 e7 62 be
       0.46131238 -0.5256398 0.48667613 -0.22158612
000130 36 fa af be 11 13 26 3f c8 43 fe 3e 03 43 3b 3e
       -0.34370583 0.64872843 0.49661088 0.18287282
000140 aa 40 a5 3c b0 43 1d bf 8e 0b 0e 3f e0 f3 33 bf
       0.020172436 -0.6143141 0.5548638 -0.70294
000150 28 68 57 3e b7 94 f3 3e 4c 05 26 bf 88 8c ca bd
       0.21035826 0.47574398 -0.6485183 -0.098900855
000160 b0 dc 05 bf b1 0b 6d 3e 62 e4 6e be bb 6d 23 3f
       -0.5228987 0.23148991 -0.23329309 0.6383931
000170 a6 17 ad bc 0f 43 34 bf a4 e9 17 3f dc f7 06 bf
       -0.02112944 -0.70414823 0.5934088 -0.52721953
000180 42 52 1a 3e 23 c6 01 bf 14 32 a7 be 5b 9c 28 bf
       0.15070441 -0.5069296 -0.32655394 -0.6586358
000190 e1 54 18 3e b4 1d 0f be ac cc 1b bf e5 d0 78 bd
       0.14876129 -0.13976175 -0.6085918 -0.060746092
0001a0 78 a1 82 be ef 6d 76 3e 13 37 8a 3e 86 74 e0 be
       -0.25513816 0.24065374 0.26995143 -0.438389
0001b0 e5 e3 ca 3e 4a 3a 70 be dd c3 b7 3d fd a7 d1 be
       0.39626995 -0.23459736 0.08972905 -0.40948477
0001c0 5e 10 ff bd dc e3 57 3e 38 2d 51 3e ad 1d b5 be
       -0.12454294 0.21083015 0.20427406 -0.35374203
0001d0 8b a0 a9 be 71 9a fe bc be 52 69 be e2 aa 19 3f
       -0.33130297 -0.031079503 -0.2278547 0.6002637
0001e0 49 85 e6 be f4 63 d9 3c 74 27 59 be 5b 1b a0 bc
       -0.45023564 0.02653692 -0.21206456 -0.019544294
0001f0 06 5c f2 be 7b 6e cc 3d 8f 3a 38 bd b6 36 ca 3e
       -0.47335833 0.0998201 -0.04497772 0.39494866

fc.weight f4 [1, 128]
000000 d1 0b ff 3d 7c b7 7e bd 40 91 87 3d 1e a6 6d bd
       0.12453426 -0.062186703 0.06619501 -0.05801975
000010 e8 d1 2c bc 33 7a 49 3c 4c 5e f7 bc 19 6f 04 bd
       -0.010548092 0.012297201 -0.030196331 -0.032332513
000020 bc 92 f3 3b cc 4b 14 3c c6 90 cd 3d 8e c9 4e 3d
       0.0074332636 0.0090512745 0.10037379 0.050485186
000030 6b 02 d6 3d 53 60 45 3b bb db 43 be 9d a5 8c be
       0.1044968 0.0030117228 -0.1912679 -0.27470103
000040 85 e8 c5 3d 17 86 9d 3d 34 56 30 bd 83 78 97 3d
       0.0966349 0.07691591 -0.04305096 0.07396033
000050 08 55 7e bc 39 6c b1 3d a0 bc ef 3b dc fd bd bd
       -0.015523203 0.0866322 0.007316187 -0.092769355
000060 7d 06 15 bd a8 0e 08 3d 79 e3 14 3c 52 73 44 bd
       -0.03638314 0.033217102 0.009087437 -0.04796154
000070 a6 3a 4d be 54 90 c0 3c 3f b0 9c 3d ea b3 6c 3d
       -0.20041904 0.023506321 0.07650804 0.057788767
000080 66 87 28 3d a8 e8 01 bd 50 37 ea 3c fe 35 0a 3e
       0.04114475 -0.03171602 0.028590828 0.13497159
000090 72 4a b6 3d b4 ea 4a bd 34 c7 c7 bc 07 d2 2a 3d
       0.08900918 -0.049540237 -0.02438698 0.041704204
0000a0 53 f5 26 3d 61 63 91 3d e5 e6 84 bc 1d c8 a8 3c
       0.040761303 0.07099033 -0.01622338 0.020603234
0000b0 2a 41 50 bd 30 fa 43 3c c9 73 ca 3d 14 c9 85 bd
       -0.050843395 0.011961505 0.098853655 -0.06532493
0000c0 52 1e 11 3d 20 68 6a bc f2 dd 22 bd 18 d9 7b 3d
       0.035429306 -0.014307052 -0.039762445 0.061486334
0000d0 89 e8 d5 3d 10 b8 fd bc 23 08 84 3d 27 6d 03 bd
       0.10444743 -0.030971557 0.064468645 -0.032086518
0000e0 7a 93 fa ba 45 d3 9e 3d cc 1f 0d bd c2 f6 44 be
       -0.0019117438 0.0775514 -0.034454152 -0.19234756
0000f0 9f 88 88 3c 2e 7d 9a 3c 5c e8 22 bb 92 33 0b 3d
       0.016666709 0.018858518 -0.0024857735 0.03398473
000100 ac d4 2a be b2 c4 67 3d 7f e2 9e 3d 2e 64 54 bd
       -0.1668269 0.056584068 0.077580445 -0.05185335
000110 59 74 97 3d 6c c9 c9 3c 60 d0 20 3d 08 31 49 bc
       0.073952384 0.024632178 0.039261222 -0.012279756
000120 2d 26 29 3a 91 e2 43 bd f2 cf 86 bc 62 dc dc be
       0.0006452527 -0.047823492 -0.016456578 -0.4313689
000130 b8 91 35 bc 68 d7 9b bc 7e aa 9d 3d d0 88 c6 3d
       -0.011082105 -0.019023612 0.076985344 0.09694064
000140 ea 9a 4a bd e9 aa 99 3d c9 3e 14 bd 73 b4 92 3d
       -0.049464144 0.07503302 -0.03619269 0.07163324
000150 08 70 9e 3d 15 0e 01 3e a5 85 76 bd 8f 07 81 bd
       0.07736212 0.12603028 -0.060186047 -0.0630027
000160 71 8a a3 3d fd 24 69 bd 74 0c aa bc ee da 25 3d
       0.0798539 -0.05692004 -0.020757891 0.04049199
000170 ba fd c5 bd d6 84 8c bd f1 1e bf 3c 9d c5 5f bd
       -0.09667535 -0.06861274 0.023330184 -0.054631818
000180 19 27 c5 3c b3 18 84 3d c0 6e 13 3b cd e3 86 3d
       0.024066495 0.064500235 0.0022496432 0.06586418
000190 ed 6b f2 bc 5b c4 63 bd c0 bc e9 ba 7c 1b c1 bc
       -0.029592479 -0.05560718 -0.0017832741 -0.023572676
0001a0 eb 6b 7f 3d b2 5c e0 3d ef 6c 4e bd ce 4c ac bd
       0.062358778 0.1095518 -0.050396856 -0.08413087
0001b0 9a f9 7c 3d e0 cb c1 3c 91 6e f3 3d e3 f2 b3 3d
       0.061761476 0.023656785 0.11886323 0.08786561
0001c0 f3 98 39 3c a9 d2 e4 ba 99 dd 50 bd 2d 28 00 bd
       0.01132797 -0.0017457801 -0.050992582 -0.031288315
0001d0 27 0f 32 bd 51 88 40 3e 3a 12 78 3d 5f 58 08 3b
       -0.04347148 0.18802 0.060564257 0.0020804626
0001e0 54 f8 d1 3c 87 66 10 3e 0e 7c 3a 3d 87 cb e9 3d
       0.025631107 0.14101611 0.045528464 0.11415773
0001f0 52 5a 9a bd fd 69 ae bc a2 11 26 3e c4 8f ac bc
       -0.075367585 -0.021290774 0.16217664 -0.021064647
